weights/init_z/10.npy (npy, 4224 bytes, 1 tensors)

array f8 [1, 512]
1.331586504129518 0.7152789743984055 -1.5454002921112682 -0.008383849928522256 0.6213359738904805 -0.7200855607188968 0.2655115856921195 0.10854852571496944
0.004291430934033236 -0.17460021059294129 0.433026189953598 1.203037373812212 -0.9650656705167633 1.028274077982704 0.2286301301246597 0.44513761283034786
-1.1366022118310442 0.1351368784486355 1.4845370018365822 -1.079804885785276 -1.977728280657907 -1.7433722958989073 0.266070164000551 2.384967330711097
1.1236912534094234 1.6726222133078277 0.09914921583524362 1.3979963770935753 -0.2712479879657808 0.6132041848596391 -0.26731718867356863 -0.5493090141054789
0.1327082957599512 -0.4761420149273371 1.3084730808634777 0.1950132792330928 0.4002099882523482 -0.337632337085531 1.2564722637551555 -0.7319695020012079
0.6602315512263132 -0.3508718914398713 -0.9394333597625512 -0.4893372168846516 -0.8045911422699545 -0.21269763871051175 -0.3391402460634347 0.3121699363132221
0.5651526696566274 -0.14742025772701986 -0.02590533681618617 0.28909420380393497 -0.5398790713327012 0.7081600199266035 0.8422247383826557 0.20358079732747866
2.3947036648845352 0.9174589375104293 -0.11227247119416003 -0.36218044714224007 -0.23218225594409092 -0.5017288995948672 1.1287851531098774 -0.6978100304717146
-0.08112218381694614 -0.5292960809994882 1.0461828568082643 -1.4185560292233947 -0.3624991831556408 -0.1219056911618885 0.319356421091224 0.4609029016717183
-0.21578989233052187 0.9890724574994391 0.3147537788117336 2.467651056434603 -1.5083214871632158 0.6206006630086133 -1.0451325375144376 -0.7980088176722442
1.9850845914257311 1.7448141483393012 -1.856185480611148 -0.22277369910299966 -0.06584784771120117 -2.131712108481604 -0.04883051133875307 0.39334121708173975
0.2172651451180396 -1.9943937697410574 1.1077082347826497 0.2445439766479897 -0.061912029492404284 -0.7538929607476993 0.7119590165198396 0.9182691514794155
-0.482093138835479 0.08958761258951613 0.8269986226622651 -1.9545121200015052 0.11747566102663819 -1.9074568881244003 -0.922909264848946 0.46975143408304293
-0.1443667630269637 -0.4001383519857285 -0.29598385293921214 0.8482086090216563 0.706830454751635 -0.7872689262471867 0.29294072483196687 -0.4708072514855173
2.4043256059373497 -0.739356738508672 -0.3128287573370896 -0.3488819182174932 -0.4390262362200143 0.14110416806443193 0.2730493200953109 -1.618570747815795
-0.5731133615595897 -1.3204475458914557 1.2362053261868158 2.4653250820614763 1.3832322295355184 0.3462331153511832 1.0225161072341362 0.16681026701973248
1.6567166244782918 0.6678896088334423 -0.22994664377472285 -1.1295511944337915 -0.6399626042284977 0.31383052155900587 -1.2258359807380548 -0.22179313639949394
1.3399263099575534 0.029309710943169753 1.9853857460893887 1.4471656006682223 -0.2876294136505807 -1.3593105731059993 -0.04804132522942067 -0.480787340132024
0.3777530859653419 1.6144079741454649 -1.123104035224383 -0.38872794685481127 0.33234994953151675 1.1349731730819057 0.5107144113978628 0.4142976411940093
1.344549423365941 0.4935153172482886 -0.23700418452348107 0.05728515015601808 -0.7070714470671638 0.5466648375345344 0.9425004089401402 -2.979596771061134
1.2181488503510474 -0.05652072308259052 0.46088845239886594 0.6623740117246331 -2.2951033289626235 -1.1959293114635177 -0.333101162137835 -0.7913907709674438
0.2741727807601068 -0.5149099224712518 -1.7110711971542645 0.6122973124985504 1.1001293740133287 0.564352526386118 -0.7127994368270598 -0.260859478554175
0.5484280662958247 0.6031990502305918 1.0068611386248225 -0.29442600738994285 -1.4208805151542343 -0.6789467746200409 0.533884809310875 0.7439744037859244
2.2250496388231946 0.11718142019448317 0.24461452026499014 -0.17729882264556748 -0.40572952764909204 0.781775190375615 0.35347761380384995 -0.20727948572143776
-1.0796973839588486 -0.12306982851013992 -0.3909821853064035 1.2551737317095715 0.9471260781751876 -1.0223106922773948 1.1671683684041174 -0.5719768132877665
0.133137496871058 1.2027438739699048 -1.0247529670452837 0.16039916294255877 -1.1304752871393409 -1.941299681022428 0.9865978168979976 0.028227367299119867
-0.8223675978306648 -1.5865517608478485 -0.4014728193717207 1.3421792842550249 0.4024690934884474 -0.37276141643686733 -0.672023436468346 0.1058120827957554
-1.5473053909175292 1.3448065106282303 0.503189181636489 1.1943506024632464 -0.5635056711961435 0.8548287563126676 0.6879047256615245 -1.5330687182901823
0.14896070097688824 0.3151111682216668 -0.574917664052446 -0.3601711344294524 0.436185296532739 -0.037917882013034025 -1.0047163525260954 0.5914530866303224
0.2278173638452078 0.24917865788633525 0.09576323673771824 0.4490217306938231 -0.2860020076596541 -0.8627582993970102 -0.7418248387704077 1.1055751361580652
-2.0177186526744166 0.5405407131012635 -1.4422988826146192 -1.6088503628381168 -1.006568561796009 -0.25753362480146613 0.7305074471395302 -1.6984014911619134
1.6740755455912117 1.163723700168369 -0.1325735926515057 -0.290245808612464 -0.9535324176164734 0.5880405938088611 0.06880147074223333 1.412064304423644
00000000: ff7f 70a6 2d4e f53f a3d7 51bb 90e3 e63f
00000010: 438c 1da8 f5b9 f8bf 7f83 0f4a 8d2b 81bf
00000020: 7803 f6fa fbe1 e33f e580 b3df f00a e7bf
00000030: ac6e 504e 24fe d03f 118d f90f d6c9 bb3f
00000040: 4d46 3c38 e493 713f e489 2fb9 4c59 c6bf
00000050: 4661 0a7b b3b6 db3f 123a 061e a43f f33f
00000060: f293 ab66 d1e1 eebf 0e2a 0485 cf73 f03f
00000070: 6b00 e289 c043 cd3f cbda 5478 227d dc3f
00000080: 7402 06cd 852f f2bf 37d0 b54c 2a4c c13f
00000090: b170 09df a9c0 f73f f223 e87c e146 f1bf
000000a0: e2cc dc68 c6a4 ffbf 3d36 3a59 dae4 fbbf
000000b0: e1b7 3427 4b07 d13f eb75 7bc0 6914 0340
000000c0: 951d 03ae a3fa f13f 2b86 8b82 0fc3 fa3f
000000d0: 01b9 6fcf d761 b93f b9b1 f872 315e f63f
000000e0: 1dce 5a85 205c d1bf 77c2 f761 5e9f e33f
000000f0: b1be c08d b91b d1bf a364 5f7f f093 e1bf
00000100: 8e33 19df 95fc c03f 4253 975b 1c79 debf
00000110: 7b14 2078 81ef f43f bac1 4bf4 31f6 c83f
00000120: 68e3 c45a 0a9d d93f 8cae 76a9 c49b d5bf
00000130: 3a8d 12a9 821a f43f 8f77 184e 4b6c e7bf
00000140: 59bd 09eb 9d20 e53f 6679 b460 af74 d6bf
00000150: 2d73 9e8c d60f eebf 220e cf0b 4d51 dfbf
00000160: 726c 56ec 35bf e9bf 695a 191d ad39 cbbf
00000170: db63 664a 79b4 d5bf ca9e d09c 97fa d33f
00000180: 8883 2d0d bb15 e23f e94b dac0 aade c2bf
00000190: ce66 abb9 ed86 9abf 8f44 b3f9 8480 d23f
000001a0: d566 6579 b046 e1bf 4d6c bd33 3fa9 e63f
000001b0: 8b8a 674b 81f3 ea3f 6bbc 4e81 ef0e ca3f
000001c0: c952 2265 5a28 0340 69f7 80d8 d25b ed3f
000001d0: fe1f 0580 e3bd bcbf 4080 eee5 f62d d7bf
000001e0: 48e5 feed 25b8 cdbf 0afa e6c3 290e e0bf
000001f0: 9013 4d05 810f f23f 014c 76b3 7554 e6bf
00000200: 7850 7966 6cc4 b4bf 8e66 b955 feef e0bf
00000210: 9c09 3a3c 2abd f03f fbed 90ce 67b2 f6bf
00000220: 74bb 1ec6 2f33 d7bf fd90 bc1c 3635 bfbf
00000230: aeae 16ea 5570 d43f 2cf0 53e2 6e7f dd3f
00000240: 4ef8 2ed1 009f cbbf bdb3 4a48 7ba6 ef3f
00000250: ec7b 9208 ed24 d43f 9c9c 4ad6 bfbd 0340
00000260: 8385 33b6 1522 f8bf e3ee efeb f5db e33f
00000270: 92c2 49e5 dcb8 f0bf 224d bac9 4989 e9bf
00000280: fc78 7f0f e8c2 ff3f 3e72 8b3d c2ea fb3f
00000290: 0b8f e88b efb2 fdbf c235 073c d983 ccbf
000002a0: 2c7d 6e90 67db b0bf 5753 f313 bf0d 01c0
000002b0: e369 7e12 5000 a9bf f23b e2a3 802c d93f
000002c0: bfdc 6b22 58cf cb3f d924 0671 09e9 ffbf
000002d0: 036c 1e45 2cb9 f13f 0e86 118f 374d cf3f
000002e0: e337 ccfb eeb2 afbf 4512 6321 e41f e8bf
000002f0: ed70 8146 5ec8 e63f caf3 d0fc 7562 ed3f
00000300: e028 3b2e 9dda debf 53dd 32ba 36ef b63f
00000310: b57c c5d0 c576 ea3f 69ac 3080 ae45 ffbf
00000320: e775 2f8a e212 be3f 3f63 9083 f184 febf
00000330: b773 b602 7988 edbf 71b0 a851 6810 de3f
00000340: b343 ea2e 9c7a c2bf cddb e9e3 dd9b d9bf
00000350: be26 2142 66f1 d2bf 94e0 7d61 8624 eb3f
00000360: db33 dfe6 5a9e e63f 4170 6c9a 4e31 e9bf
00000370: 2478 3474 8abf d23f 7c65 f6bc b421 debf
00000380: 8b7d 3310 0f3c 0340 611a 7f76 cfa8 e7bf
00000390: 30b6 80e8 6205 d4bf 793b 3ad3 1454 d6bf
000003a0: dfa8 a97f 0119 dcbf 3c40 958d b30f c23f
000003b0: 0648 00db a379 d13f ff18 c270 aae5 f9bf
000003c0: e991 19d5 f156 e2bf 06ff 1a9b 8d20 f5bf
000003d0: 6ed0 713c 7fc7 f33f 51b3 4b5b fcb8 0340
000003e0: 2d0d 4a1e b821 f63f 0a6f cef0 ae28 d63f
000003f0: f242 83d9 395c f03f c14e bef0 095a c53f
00000400: fdfa 8d4a e981 fa3f 4ae4 6807 5a5f e53f
00000410: d02f 6b41 e46e cdbf 9203 f445 a412 f2bf
00000420: 6561 fada 927a e4bf 8d48 a59c cc15 d43f
00000430: 027b 7830 069d f3bf 7413 a8ad b763 ccbf
00000440: 1915 0592 5670 f53f 1013 d367 5d03 9e3f
00000450: 3160 16d8 23c4 ff3f 6642 ec1d 9727 f73f
00000460: 36cd 3f33 8568 d2bf 7a8e 8971 bcbf f5bf
00000470: 7808 6f61 df98 a8bf eda9 8c43 38c5 debf
00000480: 43ca 8b47 1b2d d83f c1b3 b574 9dd4 f93f
00000490: b0b5 d4ef 3bf8 f1bf c816 b22e ebe0 d8bf
000004a0: d82a 04b9 3845 d53f 0c96 43a1 d928 f23f
000004b0: 3a97 d1bf c557 e03f df3e ef40 da83 da3f
000004c0: e365 9341 4683 f53f 8303 ea44 c195 df3f
000004d0: 6d91 c532 2756 cebf 3edf eeac 7a54 ad3f
000004e0: f9d7 a24c 54a0 e6bf f4af e241 477e e13f
000004f0: 37aa 1b9e f628 ee3f 54cc f7d4 36d6 07c0
00000500: 17af 1ea6 897d f33f 353b 5fc2 48f0 acbf
00000510: 450f 8a47 327f dd3f dc7b c2fb 2a32 e53f
00000520: 7cae 5622 5f5c 02c0 8804 11c6 8622 f3bf
00000530: e40f 6989 8751 d5bf 2b2a f5bc 1253 e9bf
00000540: b75a b4fd 0b8c d13f 29cc ac5f 247a e0bf
00000550: 6e7b 0e31 8c60 fbbf d784 9388 f097 e33f
00000560: 6419 2c42 219a f13f 8ec9 8707 2d0f e23f
00000570: 2cf1 b8c3 40cf e6bf 9279 4ff4 ebb1 d0bf
00000580: ec5e 1e04 b98c e13f 35ff 3618 684d e33f
00000590: 681c e06c 1a1c f03f e639 352e e0d7 d2bf
000005a0: f0c6 0135 edbb f6bf e1f7 1696 eeb9 e5bf
000005b0: f248 7a98 9515 e13f e84a aa68 a3ce e73f
000005c0: 22c7 35d3 e6cc 0140 bf23 6fff 99ff bd3f
000005d0: 321a 5552 874f cf3f ebe5 7052 bab1 c6bf
000005e0: 698f 11fb 78f7 d9bf 1d99 6f67 4d04 e93f
000005f0: 3bf6 c991 609f d63f 3913 275a 2288 cabf
00000600: 52e1 9ac3 7046 f1bf 104c 9318 8181 bfbf
00000610: 546a cd24 da05 d9bf adda 070d 3115 f43f
00000620: fc6f 5e59 db4e ee3f a5eb da74 625b f0bf
00000630: b58a 33bd b8ac f23f 2a85 6451 a24d e2bf
00000640: 0b5c 7745 a60a c13f 32a4 425c 703e f33f
00000650: ee03 ff5d 6365 f0bf b970 92b3 f587 c43f
00000660: e231 3341 6d16 f2bf fd9f 1b41 900f ffbf
00000670: 7e38 bc95 3592 ef3f 978b 9b8d a2e7 9c3f
00000680: 1021 3fda d550 eabf 270b 6419 8462 f9bf
00000690: 1fce 5b0d bbb1 d9bf 81e7 33fc 9079 f53f
000006a0: e4c0 8bba 0dc2 d93f 98a5 33b3 52db d7bf
000006b0: d6dd 384b 3781 e5bf 4121 212b 8016 bb3f
000006c0: 00a5 2e4c c3c1 f8bf bb89 e9d4 5384 f53f
000006d0: 198d da32 201a e03f c499 9860 0f1c f33f
000006e0: 22bc 9c0b 3d08 e2bf 6562 01d6 c15a eb3f
000006f0: fa5c 6fc5 5003 e63f 453b 7910 7387 f8bf
00000700: 4ee0 8aed 2411 c33f 5173 8708 c82a d43f
00000710: 60ef 9fba b965 e2bf 2b9d d53a 0b0d d7bf
00000720: d3aa e6bb 75ea db3f 4ff0 5bfe f869 a3bf
00000730: 1fb2 3d74 5113 f0bf 7341 0606 2fed e23f
00000740: 748a 968f 1e29 cd3f 5ed2 3d15 16e5 cf3f
00000750: 4796 f281 f083 b83f 947d 21a4 c5bc dc3f
00000760: 8044 5f5d db4d d2bf 5468 084b b79b ebbf
00000770: d523 bc71 07bd e7bf 3c1d d18d 6fb0 f13f
00000780: 5d20 4ead 4924 00c0 71a5 9d09 1c4c e13f
00000790: b231 3efe a713 f7bf 56c2 c8e0 d9bd f9bf
000007a0: a287 e1a2 e71a f0bf e020 0950 6e7b d0bf
000007b0: 015c 5e27 5160 e73f f049 c00a a72c fbbf
000007c0: d18f 7570 03c9 fa3f 21da 1cbe 9c9e f23f
000007d0: 482f 60e6 2bf8 c0bf b5a9 f227 6393 d2bf
000007e0: 8cd5 aa6a 5683 eebf b024 e481 3ad1 e23f
000007f0: 022d c122 f99c b13f 9e93 75bd d097 f63f
