weights/init_z/12.npy (npy, 4224 bytes, 1 tensors)

array f8 [1, 512]
0.47298583148997897 -0.6814258794394451 0.24243949669047796 -1.7007356340383315 0.7531428339492002 -1.534721340208044 0.0051270781322723565 -0.12022767015619135
-0.8069818785729513 2.8718193949889166 -0.597822919406344 0.47245699353575754 1.0959561180085615 -1.2151688010922146 1.3423563714379816 -0.12214978766832274
1.012515476977173 -0.9138691467058685 -1.029530207374499 1.2097964496316869 0.5018723037790331 0.13884617715623349 0.6407611133416717 0.5273326651106617
-1.1543602352166882 -2.213333479396823 -1.6817565103951275 -1.7880942510621582 -2.218534945031401 -0.6474307801655981 -0.528404320814362 -0.03920917482874638
0.214975948415751 -0.3843588025535037 -0.2539040780918859 0.07325207460394162 -0.9972038374246764 -0.7138562876067133 0.03541634614048163 -0.6779453651227033
-0.5718810615865102 -0.105862315332335 1.3358313386717684 0.31866528801613553 -0.3375952500500365 -0.5852682780074072 -0.1149199407897547 2.2418177943952333
-3.14741652154398 0.5351358932801163 0.2324904393837624 0.867611950882283 -1.1482127142462721 2.1143442414555107 1.0009427606895045 -0.051414995286116726
0.15978769807335919 -0.7162635863249601 0.050522826525369983 -0.14333741454895502 0.9435753905208083 0.3576442254693005 -0.08344920282444727 0.6778061029188197
0.5560603739342062 0.22271946085249292 -1.5289854794870417 1.029211175548784 -1.1662587594545695 -1.0095616523094042 -0.1052679886976573 0.512022158133717
1.407727763720542 -1.6876963310470667 1.471233992634668 1.6364629074432413 -0.46139493621891375 -0.2013622701564993 -0.5718167302823739 -0.6032991147419898
-1.339389221097253 -1.6896529203538362 -0.1993273392741338 0.25777258546505816 1.8288207150748825 -1.0010015450142384 -2.091691213346014 0.14655970591263323
-0.466351101873623 0.35622300730710804 -0.3978797330752504 -1.2592235156092357 -0.6888786924453678 0.8026304502474164 0.27239104064855424 -0.9691764986522415
0.8719681219808854 -1.4463594427964115 -0.5364812639125298 0.19792051631423216 -1.365639813925374 -1.1944443828385456 0.015934542649579678 -0.08004346236652365
-0.25080271315594593 -0.5651428939886068 -1.102671939612895 -0.7822824408021882 3.041686206372148 -0.6260812210457714 1.5059009128619398 -0.5873360870250491
1.365852914050061 1.2320448738375287 0.4508892334788509 -0.6414098177206133 -1.3775960333307937 0.9657463479255879 -1.2840034598049361 -1.2745721004239723
1.522841762204412 1.4618824312460454 0.03765596319966074 -0.24619719933642736 -0.664297573689694 0.3513355379275004 -0.4840314322593972 -1.5130872598946643
-0.7635304872538676 0.24920320955073572 -1.5898086075569426 -0.9795259223312953 0.12276162875650516 1.6892920937802727 0.1777498652185115 0.03200602054382911
1.9332155643632358 -1.0620947114314008 -0.7326290989087136 0.8427413931462943 1.0767399874809482 0.4576905380263133 -2.6194933225106896 0.7390463423383108
0.667501057762868 0.04640263608520231 0.6660775965015711 1.4079484837738274 0.051149186337923834 -0.9359748608698832 -1.839109307605646 0.06377872848143744
-0.71396809744709 -0.5618846631272185 -1.1324688506015603 0.2742910030053811 0.7359121107527968 0.4343187491006638 -1.1200411045540386 0.8890946101264364
0.31450694533177936 -2.4880044640486387 0.5959086104984074 -2.035862036290208 -1.138281652714749 1.057642286396626 0.6527685403374538 -0.6444668514591557
-0.8834620909605276 0.34569237324022195 -1.7968274599384613 0.4107096191303123 -0.29182344884665967 0.7341476486109585 -0.12549566509367044 -1.088517414954358
0.20223092464810735 -0.3498344008839516 -1.4212768985040238 -1.1635883360212125 -1.00667628748747 0.05002175982462668 0.7654301352672933 -0.02851487754133868
-1.2056456000879037 -0.38154484214465784 0.5668436380618621 1.0773367455423324 -0.9403587234692675 0.2836071218136608 -0.3903204805851666 -2.154124440693511
-1.2946837485149356 -0.566220694594234 -0.5177092098611301 -0.39587830763327897 -0.603695245023457 0.3673928911221677 -0.9590118144306119 -1.5952967224865335
0.5075226803712083 -0.6183705201188091 0.7907929878330239 -0.8344050336687142 1.309469955147632 -1.2387420809048264 -1.2027374884883106 0.6961466004512513
1.778984412172512 -0.7963172812427038 1.5698392129633068 1.5216635119562594 0.789915596204205 -0.21722089484041654 -2.1840598492911956 -1.5672684081604071
-0.809670260965294 0.5004951071186744 -0.1935098532595785 -0.6642031999932022 0.08352684556749504 -1.6584252838813636 0.38011358579592186 -0.9566730319073861
1.2698589903210238 0.15051937508805313 -0.7651313602564873 -0.5370203552524196 -1.6112949002263295 0.1649888471248282 -1.0107762187650513 -0.11539936938023719
1.1400386807849519 0.33800244441123695 0.47551446181979573 2.639046080664255 0.6911075733496952 1.111235566995069 -0.2576843178380865 -1.1959512855227648
0.22454702781368283 -1.1634669029660378 -3.015915426701576 0.5939694333597426 0.3313930189767873 -1.0728147628713631 1.289448580095345 -0.08552138303605702
-0.47662379221319984 -0.9637145312960311 1.153983054878971 -0.44486605276197344 -0.5096440218502608 -0.4749932447724817 -0.7914280640014374 -1.6931185994050697
00000000: 0622 6e5d 6645 de3f 03e5 5aa5 3dce e5bf
00000010: b9ab c5e6 4108 cf3f 2262 7591 3636 fbbf
00000020: 13ea 2000 bf19 e83f 5fab caf6 378e f8bf
00000030: 3431 6f8e 2100 753f 6426 6597 3dc7 bebf
00000040: 5def 1da9 cbd2 e9bf 9cf7 6b72 7cf9 0640
00000050: a2c8 f487 5d21 e3bf fa29 0042 bc3c de3f
00000060: 8d2a 4b48 0989 f13f 2ef8 3cd7 5471 f3bf
00000070: 2974 aeac 4a7a f53f b8b0 3f5f 3545 bfbf
00000080: 08f9 c46d 4333 f03f ad9a 3d82 6a3e edbf
00000090: 5fae aeaa f478 f0bf 96c2 9f85 535b f33f
000000a0: d4f8 6f81 560f e03f 38c3 0727 b6c5 c13f
000000b0: a23b 4b73 1d81 e43f f568 d8c0 e8df e03f
000000c0: cbef 2070 4278 f2bf c035 e92e e8b4 01c0
000000d0: eab6 bf83 79e8 fabf 2ea4 a7b7 089c fcbf
000000e0: 518b cf3f 8fbf 01c0 3285 67c1 c0b7 e4bf
000000f0: 11cf 9e2d b0e8 e0bf db6a 2f97 3913 a4bf
00000100: 59a5 eff5 5484 cb3f c568 b9a9 5599 d8bf
00000110: 8b71 eee3 f63f d0bf b4bf c9e0 a5c0 b23f
00000120: f3e8 a505 18e9 efbf df12 2a24 e9d7 e6bf
00000130: 3299 d560 1722 a23f 43a8 757a bab1 e5bf
00000140: 06e8 1683 d94c e2bf 1e31 3bee ca19 bbbf
00000150: 0713 89ae 905f f53f 0f95 9917 0365 d43f
00000160: 87fd 8f1b 299b d5bf 96b2 2d8a 84ba e2bf
00000170: 2caa 59ab 646b bdbf a425 f42a 3eef 0140
00000180: 2e5f 97b6 e82d 09c0 1bb9 114f d51f e13f
00000190: 5a99 e428 3fc2 cd3f ae0f 5523 7ac3 eb3f
000001a0: 49a0 884b 145f f2bf 7c4c 4c50 2dea 0040
000001b0: 2045 658e dc03 f03f 6344 8ef6 1053 aabf
000001c0: 0e9c c35c ec73 c43f a39a d29c a1eb e6bf
000001d0: 0f82 41bf 20de a93f 61f6 e361 e158 c2bf
000001e0: 151d 7304 c531 ee3f fe9b ff9a a4e3 d63f
000001f0: 1b1e 024d ed5c b5bf e918 a26c 96b0 e53f
00000200: 2bc4 1420 3fcb e13f a7a8 4540 1282 cc3f
00000210: a44a 677a b976 f8bf 4e8e 3a23 a677 f03f
00000220: 987e e8f1 fea8 f2bf 0f6f 7f1e 2a27 f0bf
00000230: b0aa c5c8 d7f2 babf 7a5f 004b 7c62 e03f
00000240: 779d 2d8c 0d86 f63f 4bd2 36de cd00 fbbf
00000250: 0a12 b2a7 2c8a f73f 6c5f c9ba f32e fa3f
00000260: 576a 66a0 7e87 ddbf bb38 7c26 3dc6 c9bf
00000270: 55ca 7b99 524c e2bf 1fb9 f0f1 394e e3bf
00000280: 4fa4 5364 236e f5bf 7f2b 2880 d108 fbbf
00000290: ebc7 b0e9 8e83 c9bf b52d 1896 587f d03f
000002a0: 3de7 9782 d942 fd3f 574e 3132 1a04 f0bf
000002b0: a936 559a c8bb 00c0 842f e7eb 77c2 c23f
000002c0: b30c c04a b2d8 ddbf 05e0 9d95 5bcc d63f
000002d0: 8829 538e dc76 d9bf 4055 9e8e c725 f4bf
000002e0: e2d9 de53 4b0b e6bf dcc3 d20d 26af e93f
000002f0: cac5 d3d4 da6e d13f da6b b86e 7e03 efbf
00000300: 85ff e1b0 29e7 eb3f 5524 91cc 4924 f7bf
00000310: 5479 6dc1 da2a e1bf c176 63a0 7555 c93f
00000320: d4cc 2e22 a9d9 f5bf 58eb 92b6 711c f3bf
00000330: 9405 3a0e 2551 903f 8471 1f75 ba7d b4bf
00000340: ce2e b0d2 260d d0bf 7bee e78c a615 e2bf
00000350: 18ab ed54 8ba4 f1bf e25f 6f2f 7508 e9bf
00000360: 6080 e893 5f55 0840 b200 217c db08 e4bf
00000370: 2223 3c8e 2b18 f83f f10f b10c 75cb e2bf
00000380: 69dc cf95 88da f53f d862 85af 74b6 f33f
00000390: 4640 fa83 5edb dc3f f82f cee1 6d86 e4bf
000003a0: d414 6423 a20a f6bf 7e4c 92e2 64e7 ee3f
000003b0: 4202 3d36 478b f4bf 9870 fbb6 a564 f4bf
000003c0: 536a da52 8f5d f83f 9dc7 0cd5 de63 f73f
000003d0: a743 e274 a447 a33f d024 c2cb 6383 cfbf
000003e0: 7de6 39fc ec41 e5bf 3e8e 540d 487c d63f
000003f0: d391 f2f8 5efa debf 8fde 93fc 9a35 f8bf
00000400: 4723 087d d76e e8bf 0811 8a09 e4e5 cf3f
00000410: aeb3 8526 db6f f9bf a6e8 3fbf 4658 efbf
00000420: 7d7f b65c 4e6d bf3f 99d7 8225 5707 fb3f
00000430: 62af fdf0 81c0 c63f 278e 05d7 1763 a03f
00000440: b8ee 9071 73ee fe3f 87a3 2d06 57fe f0bf
00000450: e225 7d94 b271 e7bf df8f 51cc bcf7 ea3f
00000460: ff6a 88b5 533a f13f 0abf 2041 cd4a dd3f
00000470: ba30 42ea b8f4 04c0 7149 d283 44a6 e73f
00000480: b161 a42d 2b5c e53f bb46 de18 16c2 a73f
00000490: 2e52 b2f6 8150 e53f 982e 44fd f486 f63f
000004a0: 3ba8 13e5 3930 aa3f bc0e 2a8d 81f3 edbf
000004b0: 9ef7 9ee1 fd6c fdbf db1b 0281 cd53 b03f
000004c0: e185 9d9f d3d8 e6bf 142c 888b f5fa e1bf
000004d0: 9928 51a8 971e f2bf 88b0 dfd9 fb8d d13f
000004e0: 263c 0d8e 978c e73f a653 dbdd e0cb db3f
000004f0: d7c3 a338 b0eb f1bf 8f5f 318a 7673 ec3f
00000500: 8a26 24bd e120 d43f 9620 6be2 6ee7 03c0
00000510: d3da 2fef ae11 e33f 7846 0809 7249 00c0
00000520: 30bf 80d2 6636 f2bf f40a 6f51 1aec f03f
00000530: b76c 93d9 7ae3 e43f f5f0 4bf2 789f e4bf
00000540: bfcc 7d4a 5245 ecbf b8c6 62e7 d21f d63f
00000550: d9d8 8f26 cebf fcbf c34e 94ff 1049 da3f
00000560: 3626 4042 3cad d2bf 0d05 a735 237e e73f
00000570: 96fc aef0 3d10 c0bf d6af a53c 916a f1bf
00000580: 393e cdf3 b3e2 c93f 25fd b3d3 af63 d6bf
00000590: 5829 5ad8 8cbd f6bf 9c7d 93cd 0e9e f2bf
000005a0: 94ad 4698 581b f0bf a5fd 11bd 739c a93f
000005b0: 7511 cb56 677e e83f 0d3e f509 0133 9dbf
000005c0: f919 6f0a 534a f3bf 9f00 be0e 3b6b d8bf
000005d0: c57b ed44 9523 e23f 5f22 8e74 c53c f13f
000005e0: c9e1 792d 6b17 eebf 178d 467c 9e26 d23f
000005f0: 75a0 c4c0 02fb d8bf e757 4298 a53b 01c0
00000600: a58c 684e 06b7 f4bf 6f38 b3dc 7a1e e2bf
00000610: 3721 a6e7 1291 e0bf c7c4 1ef8 1156 d9bf
00000620: ea0b c4b0 7851 e3bf 2fc4 0979 5d83 d73f
00000630: 8ea0 6e8b 39b0 eebf 2eee 27db 5586 f9bf
00000640: f285 4534 a03d e03f c110 17f9 b0c9 e3bf
00000650: 4fc4 9418 2d4e e93f 6f32 672f 72b3 eabf
00000660: 3842 87c4 96f3 f43f b9a4 5a37 e3d1 f3bf
00000670: 02b0 2baa 693e f3bf 4a1c 453c d546 e63f
00000680: defe e55b b876 fc3f 5faa 0561 6e7b e9bf
00000690: 157e fab8 0f1e f93f f2e5 b5d6 bb58 f83f
000006a0: 5284 8912 fd46 e93f 0d79 acef e4cd cbbf
000006b0: f1b2 c95e f478 01c0 98a5 d109 8813 f9bf
000006c0: 9d78 6c9b d1e8 e9bf 453f 9c50 0e04 e03f
000006d0: 2911 9a4d eec4 c8bf b9d1 bb11 2741 e5bf
000006e0: 3ae9 0cee 0362 b53f 5e14 52f3 e888 fabf
000006f0: c38f f0ee c753 d83f 853c 20c3 109d eebf
00000700: b55d 1fa9 5751 f43f 2072 b508 3844 c33f
00000710: 6a42 2ec3 f47b e8bf e10d e34f 452f e1bf
00000720: 4ef0 4a29 ddc7 f9bf 808d 4dc3 5a1e c53f
00000730: 1cba 32af 232c f0bf a796 7725 d08a bdbf
00000740: 7557 2233 993d f23f 6eb7 2d01 d5a1 d53f
00000750: c8a0 9235 d46e de3f 39b8 0831 c41c 0540
00000760: 6ec1 31a1 8d1d e63f 5b55 26f2 9ec7 f13f
00000770: 2ba0 735d e67d d0bf f5de aed0 9d22 f3bf
00000780: b3d7 6ffe f4bd cc3f 097b a378 8f9d f2bf
00000790: 327b 6944 9820 08c0 e351 632f cc01 e33f
000007a0: 4c31 a810 8b35 d53f 0e2d 13d0 3f2a f1bf
000007b0: 5b21 96d5 94a1 f43f 3ea1 3fb7 bae4 b5bf
000007c0: be46 0314 0181 debf e415 53db bfd6 eebf
000007d0: 607e 8def b676 f23f 7ca6 ed76 af78 dcbf
000007e0: 675c cefa 004f e0bf 4e99 0711 4a66 debf
000007f0: 85ba 80f2 6053 e9bf 081b 4b87 0317 fbbf
