weights/init_z/13.npy (npy, 4224 bytes, 1 tensors)

array f8 [1, 512]
0	0xbfe6cbe7806f7542	-0.712390662050588
1	0x3fe81edaab255e6d	0.753766378659703
2	0xbfa6c91b84110831	-0.044503078338053455
3	0x3fdcea7e4cb5ea8c	0.45181233874578974
4	0x3ff585895e7973f9	1.3451017084510097
5	0x3fe108e97794b267	0.5323378882945463
6	0x3ff59a5ea08c35fc	1.3501878997225267
7	0x3feb8f0b27e003b2	0.8612113741693206
8	0x3ff7a8b2603594c3	1.4786857374358966
9	0xbff0b9dd5eba63a5	-1.0453771305385342
10	0xbfe93f65e9623c0d	-0.7889890249515489
11	0xbff42f89b7395a62	-1.261605945319069
12	0x3fe202d742ee1abd	0.5628467852810314
13	0xbfcf25508b0da9f7	-0.24332625188556253
14	0x3fed3d5d258cae84	0.9137407048596775
15	0x3fd44f7a3ea082d7	0.31735092273633597
16	0x3fc04b795094cd00	0.12730328020698067
17	0x400133fbfc3637f0	2.1503829673811126
18	0x3fe366b77829c594	0.6062886568962988
19	0xbf9b6a07049b5cf3	-0.026771649986440726
20	0xbfef7e3ec077024b	-0.9841607817725814
21	0x3ff30d20f8c96849	1.190705272505982
22	0x3fee7d969f22234b	0.9528306110451948
23	0xbff1651886116a4d	-1.0871815907509188
24	0xbfc29648f23b969c	-0.1452113325860197
25	0x3fce72202a44042c	0.23785783828501061
26	0xbffa39ba0343388c	-1.639093411201915
27	0xbfd1ccf4b712d037	-0.27813451650877447
28	0x3ff66347d35edd88	1.3992384201681904
29	0xbff9d77b729ad5e7	-1.6151079632521659
30	0x3fdf6a71b0c9fb42	0.49087183250951594
31	0x3ffe48ac109678cb	1.8927422187767202
32	0xbfe3df10d31d98fc	-0.6209797023155086
33	0xbfdd0a476d7a8d60	-0.4537523812416193
34	0x3fcbd574bae65662	0.21745165945019368
35	0x3fe07561c9878d1f	0.5143288551447859
36	0x3fd96c66e2628fa8	0.3972413264075336
37	0xbff8349d145f5576	-1.5128451152607716
38	0xbfe872f75e16d59f	-0.7640339696578627
39	0x3fb9ecd11169b102	0.1012697856437548
40	0xbfd44e15ee65c7e0	-0.31726597100271015
41	0x3ff2369cb6aef4f6	1.1383330474921514
42	0xbfd49dac8aff18da	-0.3221236569774085
43	0xbfd7affb58cbc1c6	-0.37011607810475444
44	0x3ffd980358a1fe07	1.8496125662057936
45	0xbfb4e71dcb649746	-0.08165155616424355
46	0xbfef5e683f65ac55	-0.9802743185258672
47	0xbf6392265a5a3fdc	-0.002389025600514556
48	0xbfcdc021878d15ee	-0.2324258720274623
49	0x3fe6c04e368645fe	0.7109747948581455
50	0x3fdd008cfbf0bb33	0.4531586132388156
51	0xbfd54a8f55c18f3a	-0.33267577528589565
52	0xbfd89af467f2519a	-0.38445768500357647
53	0xbfe0f8712ef7b04c	-0.530327407582726
54	0x3ff59ada75c1da49	1.3503059959308692
55	0x40001f2c188e4527	2.0152208250443837
56	0xbfad74e298c15967	-0.057532387873538586
57	0x3fe211a5de9c2775	0.5646542880869975
58	0x3fd70293bec6c095	0.35953229551797367
59	0xbfe062049f083f65	-0.511965094194221
60	0xbfe0bdc2e12d7bee	-0.5231642148972904
61	0xbfdececa0e0454a5	-0.48137141579474935
62	0xbffec95b6b224cdf	-1.9241594490929896
63	0xbfe83d0e8c04bddf	-0.757453225587536
64	0x3fdd05d5575381f1	0.45348104026746144
65	0x3fed83d7e00d728d	0.9223441482568703
66	0xbfca8a6f56777181	-0.20734969827652708
67	0xbfd80f1298d3a420	-0.37591996120915105
68	0x3fe479edf44f22eb	0.6398839732802036
69	0x40006df6b82f3d92	2.0536932362953815
70	0xbfedb4ec1352864a	-0.928335225810039
71	0xbfe8ca03d679cee5	-0.7746600331288077
72	0xbfdbfa31c5af6411	-0.4371456556814915
73	0x3fe1888bfa94946e	0.5479183096073379
74	0xbfeb55239a67b0b7	-0.8541429534648363
75	0x3fddcd5718384194	0.46565797200403236
76	0xbfe7126de83a9cd3	-0.7209996734353815
77	0x3fe1fe0c42ea02d0	0.5622617060581323
78	0xbfd426a27cf7bcb0	-0.3148580761325759
79	0xbfdb836f0cd16e26	-0.42989708186880404
80	0x3fea147152cc286f	0.8149954430712237
81	0xbff2f779b69608c8	-1.185418809153406
82	0xbfe89897b1a2175f	-0.7686270207784495
83	0x3fe75552d33e4414	0.7291654706806434
84	0x3fe88257e3822995	0.7659110492252689
85	0x3fca993130a00671	0.20780005335113885
86	0xc0017f364ad96f69	-2.187115273247333
87	0x3fe71a5676cd74f7	0.7219650574076287
88	0x3fd651ee02c831a0	0.3487505938690223
89	0xbfd5abebe5cc9772	-0.3386182541020083
90	0xbfff2051fab11067	-1.9453906815188249
91	0x3fea96c7764a4a41	0.8309056578021413
92	0x3ffbfce4f5931c71	1.749241790081012
93	0x3fe009511491fe9b	0.5011372949374676
94	0x3ff548fa6607d1f7	1.3303169236725105
95	0xbfe50a61a72a2ab9	-0.6575172676978901
96	0x3fc7ac4f143b29f5	0.18494595039221876
97	0xbfe4d574659e8f1c	-0.6510564789536804
98	0xbff1ed989cf899d9	-1.1205068713840005
99	0xbfd62ece3c45ac79	-0.3466067875476209
100	0xbfed29bc87e9ec6c	-0.911344781357355
101	0xbfe7e057099313cc	-0.7461352526666984
102	0xbfe8abc63109044e	-0.7709685285300425
103	0xbfda7e37b7bc8a05	-0.41395371382728313
104	0xbfd2ad09ab80cf12	-0.2918113875232261
105	0x3fc03a16dc4fa571	0.12677274472597902
106	0xbff3f516c1fe7efb	-1.247336156644393
107	0x3fd44c876de80e15	0.31717096074155054
108	0xbffd18410f41388d	-1.81842142065901
109	0x3fac83afea87caa9	0.05569219339294779
110	0x3fb4b3a58281817f	0.080866188394344
111	0xc0028f0c3c0e7318	-2.319847554388968
112	0xbfd5d4ede4b2d09c	-0.34112117132031883
113	0x3ff1700279ca5866	1.0898461110532707
114	0x3fdcd580ba220ec9	0.45053117920927527
115	0xbfdfa296cb41f9e9	-0.49429864739786794
116	0xbfe17d8e81cdfa3b	-0.5465767417188724
117	0x3fd2b08fdfd56091	0.29202648981800744
118	0x3fc3bcf9e13d459b	0.15420459268584072
119	0x3fea275de7628574	0.8173055190310792
120	0x3fc26696e3ae5e08	0.14375578038446712
121	0x3fecf72a4a88b8c7	0.9051715331786675
122	0x3fd9a4a32b490e92	0.4006736681660438
123	0xbfe8778d9fa9d0a3	-0.764593898622952
124	0xbff045a3ea7ad840	-1.01700202554413
125	0xbfe0dd1891086b6a	-0.5269892532991041
126	0x3fda27769846cad5	0.40865864630465626
127	0xbfebc5041e12a573	-0.8677998149261569
128	0x3fec8993eb3bed27	0.8917941660323877
129	0xbff8a001b2d38637	-1.5390641198540729
130	0xbfd0e96df95b138e	-0.2642474112620271
131	0xbfedd5e31839a2a7	-0.9323592637202481
132	0x3fd4063476123f32	0.31287871866605876
133	0x3fc1825864c35cbf	0.13679032249522113
134	0xbfc36ae9707599c8	-0.15170019141369395
135	0xbff3ca16544b1298	-1.2368377011017966
136	0xbfec3d5c7d5e29a5	-0.882490391596822
137	0xbfe523e6c405e149	-0.6606324986051187
138	0x3fefc63d3ed22647	0.9929491259546886
139	0xbfe499fc49333431	-0.6437970571220203
140	0x3fe00990d19af5d4	0.5011676877836018
141	0x3fed7084a87692d5	0.9199851312920041
142	0xbfeb05f366aed614	-0.8444764142538497
143	0xbfe086b327b72a6c	-0.5164428497021851
144	0xc001a7a9ef8e4f83	-2.2068670954994913
145	0xbfd9ccdd9061b847	-0.4031289968469349
146	0x3fe6d38fd4603b38	0.7133254192320697
147	0xbfee4ad88c245701	-0.9466364609859
148	0x3fd67cb510f643be	0.35136152893488404
149	0x3fe93bf8284cbe73	0.788570479116926
150	0x3fd70ac2c450b931	0.36003178759974036
151	0xbfdc0b7e0a92b75e	-0.43820143730669325
152	0x3fcd3a1685d55983	0.2283352044566521
153	0xbfe59cac27203866	-0.6753750576188053
154	0xbfdad5293ee27122	-0.4192603220087837
155	0x4003180e2ea811c6	2.386745800499031
156	0xbfe0445906ff9351	-0.5083432327925071
157	0xbfe5f5a61e3579b7	-0.6862364377992013
158	0x3fc3d3e18bdc3dc4	0.1549035962020594
159	0x3fd1c8114d5c39a1	0.277836156413196
160	0x3fe8268b1e68690c	0.7547050088790299
161	0xbfe850f9e238c125	-0.7598847788231394
162	0xbff0dfe03447307e	-1.054657177172913
163	0xbfef494f6c985371	-0.9776990052219913
164	0x3fe7ea77d61a6125	0.747371595544824
165	0x3ff135fdd7225923	1.075681534164297
166	0xbfe83d40a058b67b	-0.7574771053093196
167	0xbfe058b042381447	-0.5108262341824535
168	0xbf9a42e0e04f0b22	-0.025645745936127125
169	0xbfeeb0743c64d02e	-0.9590398006025731
170	0xbfdfdec33f865076	-0.4979713554723796
171	0x3fee07de3fcaa174	0.9384604688575977
172	0xbff391dda00de171	-1.2231117488973633
173	0x3fd7970fd3f62f25	0.3685950822771125
174	0x3ff2dd538901de0e	1.1790347434852069
175	0xbff137abaf52afc6	-1.0760914658121563
176	0x3ff182269b376593	1.0942750991001489
177	0x3f72e606aa7cd512	0.004613901175436712
178	0xbfe12038ef0f6b65	-0.5351833981652417
179	0x3febc9bfa1ba449e	0.8683775099508642
180	0x3fb2af8c4172359a	0.07299114797407072
181	0xbfceba4f3b36b52f	-0.24006071463865328
182	0xbfe27dadc91c6c01	-0.5778416564893406
183	0xbfeaeef9259ac9f4	-0.8416715368715004
184	0xbfe1b57967f7ba66	-0.5534026175135522
185	0xbfcee9a56542c931	-0.24150531238917375
186	0x3fe86431e4dc9dd4	0.7622308225590424
187	0xbfd0293f87b9233c	-0.25251758817880776
188	0x3fd2aa3cf5fb1018	0.29164051076463826
189	0xbfd8f01dba311209	-0.3896555250433101
190	0x3fde6979a95f1c7a	0.47518769779384906
191	0xbfb286645601cca6	-0.07236315822392445
192	0x3ff44e0fdd24ac2b	1.2690580976875576
193	0x3fd076c487e4cf04	0.2572490050399525
194	0xbffaa0cb5b50949a	-1.6642564360602479
195	0xbfbf2ac635f687cd	-0.1217464334245328
196	0xbfdc41bc846fc03f	-0.44151223119024857
197	0x3fee916182f47ee5	0.9552466924396553
198	0x3f947341eb3efc15	0.01997092245414585
199	0x3feb9c322c8575b3	0.8628168935353443
200	0x3fe7cb1f66676de8	0.7435452461317569
201	0xbfe533dd6a582dfa	-0.6625811650314397
202	0xbfd388160137e9d7	-0.3051810275934747
203	0x3fa53898099b13aa	0.041447402165011596
204	0xbff11247a097b6d0	-1.0669628403806435
205	0x400b3576ea4a1578	3.4011057189806557
206	0x3fe0cf80054f5ba5	0.5253295997343811
207	0xbff46e1777063dd6	-1.2768778466596493
208	0xbff6a0606f036e0e	-1.4141544662915098
209	0x3fc038b089e07e1f	0.12673002941390707
210	0xbfd8a15de92121d1	-0.3848490502028002
211	0xbff8d0b83460c7ec	-1.5509569211976624
212	0xbffb8860d0aebdec	-1.7207954551375861
213	0x3f9269e8e857d93f	0.017982138806439393
214	0xbfddc9cb13086cd9	-0.4654414831035872
215	0x3fd9a16be4e47263	0.4004773841168456
216	0xbfbe0368664ecb1b	-0.11723949907063196
217	0x3ff19d067ca857b2	1.100836264556602
218	0xbffd49214cd34716	-1.830354023073999
219	0x3fe3430e61cce11e	0.6019355688249879
220	0xbfea0877f495f092	-0.8135337616981977
221	0xbfedf3585d692c91	-0.935955221598663
222	0x3feed1272e8c902b	0.9630313786660784
223	0xbffed89652f86ead	-1.9278777352364316
224	0xbfb68d7a24852448	-0.08809626952746996
225	0xbfd728845c32fbee	-0.36184796336959735
226	0x3ff31ed2ed6d5274	1.1950253748410917
227	0xbff76253ea6af0a4	-1.4615058094923734
228	0x3fd669e459e2e45b	0.35021313455542263
229	0x3fde4d6cc0260b81	0.47347563519013397
230	0xbf92dd2aaf1dbe8a	-0.018421809137576996
231	0x3fbb9090c4f7ad02	0.10767464455391365
232	0xbfc3f13eada882b2	-0.15579970816999872
233	0xbff76a67a6f1a815	-1.4634777566193453
234	0xbfe11263103874f0	-0.5334945027167617
235	0xbffeeaee206b6167	-1.9323560015091858
236	0x3fee144f4cdfbc03	0.9399792195744116
237	0x3fee6b5f5cf3fa83	0.9506069961060607
238	0xbff69473276ad261	-1.41124263188717
239	0x3ff346a15cc8f1b6	1.2047437309657716
240	0xbfc6d2bba8d13016	-0.17830606215500272
241	0xbff85f15380dc89f	-1.5232135953524801
242	0xbfe76d05b4f851b3	-0.7320583853311774
243	0x3fe267a2ff8cd437	0.5751509658063075
244	0xbfba6c8934629751	-0.10321862725194576
245	0xbff143a2d0f959b6	-1.0790126956031663
246	0x3fe4fcd15301103d	0.6558615323233493
247	0xbfccc248c6044739	-0.22467908543381457
248	0xbfe0700f5f15aa1f	-0.5136792046662925
249	0xbff41db617a7be49	-1.257253734973249
250	0x3fe012b99fb18dd8	0.5022857779517222
251	0x3feadaac66a6ed90	0.839193535320577
252	0xbff0e3fa959670f9	-1.055658897711565
253	0xbfd3bc6eaa9541ad	-0.308375994286531
254	0xbfd22ec1b9e6af0d	-0.28410380510716565
255	0x3fc3344d9787485e	0.15003366373872756
