weights/init_z/17.npy (npy, 4224 bytes, 1 tensors)

array f8 [1, 512]
000000 d6 14 a9 20 57 ae d1 3f db 79 0b 7e 8e ac fd bf
       0.27626589002131874 -1.854628078806505
000010 51 b6 a2 76 ff f6 e3 3f 38 3a 47 ee 31 53 f2 3f
       0.6239011113263563 1.1453112895720903
000020 db 2f 4c 08 55 98 f0 3f f0 5b 6c 4d ac 2f fe 3f
       1.0371904682278827 1.8866389297816077
000030 8d 46 1f 57 42 98 bc bf 62 c0 90 17 ab 2c d7 bf
       -0.11169829012876616 -0.36210133839904846
000040 e2 ae 19 ac c8 07 c3 3f 6c 91 b2 a0 a3 04 dc bf
       0.14867504504524393 -0.4377831525146323
000050 79 04 1c fd bb 5e 01 40 f4 62 94 df dc 6f f2 3f
       2.1712569975066427 1.1523102506236542
000060 d9 de ad f7 da 19 fd bf 26 7f 17 ce 99 ab c1 bf
       -1.818812339302829 -0.13804934084964166
000070 d2 53 d3 b9 5d 46 e1 3f 88 c5 44 66 8e 67 fc bf
       0.5398396138576749 -1.7752822871082987
000080 b0 24 7e fa bb 09 f5 3f b1 70 a2 09 f9 4c de bf
       1.3148765358803693 -0.47344804707405347
000090 aa 62 75 0f c6 79 f1 bf 9a 6f 57 19 73 00 d0 bf
       -1.0922299007271854 -0.25002744173775115
0000a0 c4 dd 9d 76 f4 6e ef bf 41 2c 19 05 14 80 f0 3f
       -0.9822943035823575 1.031269092479093
0000b0 62 3d 50 38 03 72 df 3f de ec 7a a3 db 95 dc bf
       0.4913337755142121 -0.4466466042028524
0000c0 87 c6 92 a8 b3 cd e9 bf 2a 5c 8d c4 61 cd c0 3f
       -0.8063600819061357 0.1312677583434561
0000d0 8f 9b 84 90 a5 66 f3 bf 03 a4 b3 8d 94 7a c4 3f
       -1.2125602383837053 0.1599908534911095
0000e0 f5 9e e7 7f c9 2a e8 bf 5a 11 1d 29 b2 64 d6 3f
       -0.7552230356349968 0.3498959924220536
0000f0 3a 98 87 aa 05 48 ef 3f 4f 71 e0 55 29 bd c1 bf
       0.9775417643220472 -0.13858524983596474
000100 c4 ee 10 aa 53 96 ba 3f 02 0d 57 2f e2 3c d3 3f
       0.10385630514150096 0.30059103606272697
000110 c9 45 0e ac 89 fb ee 3f 0a ab 2d 61 f5 d3 eb 3f
       0.9682052956069863 0.8696238420501186
000120 78 de ab 70 47 2b e2 3f 56 f1 30 98 2f c7 dd 3f
       0.5677830887425008 0.4652823435060517
000130 d7 3e fe 3e 5e a5 f2 bf de d8 13 a3 b7 49 00 c0
       -1.1653730831784992 -2.0359947910720697
000140 7c 2b aa a6 92 7c f2 bf 44 a5 58 e1 e1 c2 0a 40
       -1.1554132948246822 3.3451573949029427
000150 cb 0d e8 e5 98 38 c0 3f cb 3a 39 a9 b6 36 e6 bf
       0.12672721124555006 -0.6941788964412238
000160 46 85 50 0c 78 d8 e1 3f 31 bd 69 ec ab 61 b9 3f
       0.5576744308965906 0.09914659997752008
000170 85 c5 f3 26 e4 69 e4 3f b0 7f 8f f8 e1 7f e6 3f
       0.6379261742387575 0.7031106810281837
000180 77 c5 f2 96 a2 50 ed bf 29 5d 74 4f 07 27 e9 bf
       -0.9160931537827953 -0.7860142280432331
000190 75 ab df 2b 2b e8 f1 3f 98 d4 f5 1d fb 77 ef bf
       1.1191817964379116 -0.9833961091195702
0001a0 ed 62 b2 9a 6e 4c cf 3f 9c d3 86 98 e8 9a e2 bf
       0.24452002099567186 -0.5814097384487584
0001b0 54 5e f4 97 f9 7d db 3f 2d e7 a0 53 82 8c e9 3f
       0.42956390227616237 0.7984019883508374
0001c0 9b 82 69 9f b1 85 e3 bf 08 79 e2 66 6a f7 f2 3f
       -0.6100700486677683 1.1854042071277622
0001d0 6a fa ca f4 26 bf e6 bf b0 ae 51 19 02 ff e8 bf
       -0.7108340054617888 -0.7811289305222626
0001e0 88 65 3c 9b dc 7c cd bf 24 e4 03 de 1a c5 be 3f
       -0.2303729780185615 0.12019508285801855
0001f0 2b 77 9e 17 25 3b e9 bf 55 91 89 c4 54 ae 07 c0
       -0.7884698354061802 -2.9601226191027004
000200 3e 13 54 87 66 75 e9 bf 56 92 f5 77 98 36 d2 3f
       -0.7955811160214592 0.2845822497822942
000210 33 bb 1f 1b a0 b8 e0 3f d3 83 03 f4 d2 63 b5 3f
       0.5225372819676067 0.0835544439064642
000220 a2 ff 61 7a 30 c4 05 40 4a c0 28 67 60 8d e3 3f
       2.7207955895573415 0.6110078825786414
000230 b3 c1 31 9f 0d c0 ea bf cc 7b 02 d0 28 47 6e bf
       -0.8359439954056626 -0.0036960408325081625
000240 53 23 e1 96 76 28 d9 3f df 9e 19 3c 62 e7 e5 3f
       0.3930946801597674 0.6844950841741272
000250 7b 75 85 c2 73 ce e8 3f 87 74 8a 90 c6 ca e1 3f
       0.7752016829723937 0.5560028861106198
000260 cf 88 4b 14 b5 4f e1 bf 81 0c fd 56 03 64 f8 3f
       -0.5409799000156229 1.5244172475802602
000270 ec cc 88 a5 8b 55 f3 3f e5 49 e1 26 04 41 aa 3f
       1.2083851305185886 0.05127728438005245
000280 58 97 f7 fc ec 4d db bf 1e 0d f5 76 a5 da e9 3f
       -0.42663120940993826 0.8079402278312136
000290 ae ed 60 df c5 53 ad 3f 94 9d e3 f2 8a a4 f0 bf
       0.05727976180829884 -1.0401715743881583
0002a0 8d f0 b5 86 8a e4 ed 3f fe 4f 0d 6f 95 ba be bf
       0.9341480856960672 -0.1200345417140056
0002b0 b0 52 aa 2a f8 a7 01 40 a1 64 8b e8 0e 33 0b c0
       2.2070163090923742 -3.3999307792224305
0002c0 8f 40 ba cb 88 bc f3 3f d2 0e 22 7a eb cf e2 bf
       1.2335288961512878 -0.5878808389101897
0002d0 d3 ac ad 37 11 43 ef bf 03 a5 80 21 dd f4 dd 3f
       -0.9769369208783253 0.46807029983263265
0002e0 f2 31 8e 64 11 f8 06 40 3f 64 6b a7 51 54 f3 bf
       2.8711269241232396 -1.208085683805862
0002f0 6f c4 4e 35 c2 0e f0 3f 5c eb 42 9d 74 17 f2 3f
       1.003603180153984 1.130726446440085
000300 04 aa 4d 5c d8 eb e1 3f 6b 2e c9 22 e9 c9 e3 bf
       0.5600396921921065 -0.6183973006640832
000310 ba 27 8f 55 34 c6 cc bf 0c b6 2d 8a 2a ba 01 40
       -0.22479871919341382 2.215901450653069
000320 2c 7b b2 ef bc be c3 bf 8c ea f7 2d 28 68 d2 3f
       -0.15425836280788852 0.2876072358045938
000330 ba a7 50 25 20 8a e2 3f 95 e8 3b 9a 2f dd ed 3f
       0.5793610314187767 0.9332502376921804
000340 8b d9 50 a9 c1 b6 fa 3f 78 80 fb 1f d0 79 fb 3f
       1.669618283643646 1.717239499026645
000350 09 a7 de 54 cf 3b d0 bf 44 82 23 d7 d8 9b f2 bf
       -0.2536505059057253 -1.1630485919814797
000360 7d 73 ce f2 39 1a e1 3f d7 d7 37 f1 63 8b f6 bf
       0.5344514601052733 -1.4090308592399106
000370 c8 c3 b9 51 d1 f4 f0 bf 0b 90 4a 5c 45 8d dc bf
       -1.0597699348838763 -0.4461224938661423
000380 73 90 6f 22 64 99 f2 bf 2c 4f 11 63 5c e7 e3 bf
       -1.1624490113399844 -0.6219922957338659
000390 6f e6 84 44 a4 7f e3 3f f4 7a cd 0d e1 af e3 3f
       0.6093312586082912 0.6152196187575485
0003a0 fa 77 0f 9f 35 23 e0 3f 90 b4 e8 0b 5b 9f e5 bf
       0.5042980295800128 -0.6757025940511472
0003b0 e4 60 99 86 29 04 f5 3f 8e 6f 86 11 72 e8 ec 3f
       1.3135161645678233 0.9033747045791516
0003c0 67 77 fe 59 f6 c8 00 c0 72 14 db 2b 5f 7f d0 bf
       -2.0981261282712924 -0.25777415545264326
0003d0 cf ff 53 6f c4 60 f0 3f b8 c7 8c b1 66 23 d4 bf
       1.0236248348955888 -0.3146607145200693
0003e0 da c1 b7 8b 9f 2a f1 3f 72 06 e2 d4 39 b1 a0 3f
       1.0729060609556798 0.032602126347239926
0003f0 a8 d0 06 c2 b8 33 04 40 dd 95 ed a9 3c 63 c6 bf
       2.5252547415094178 -0.17490347192067093
000400 ba c3 2b 9f 52 f1 ea bf 42 ac a6 f9 1b 9c b3 3f
       -0.8419583424384804 0.07660078854557731
000410 84 30 9d 41 bd 7a e5 bf 2a fc 73 fb 56 4c d4 bf
       -0.6712328225635393 -0.31715941005672
000420 33 2d 54 a9 ec 02 e4 bf 34 7d bd 36 10 ec f0 bf
       -0.6253569895938312 -1.0576326502121676
000430 8c fc af 08 f1 e5 f0 3f af fb b7 8e f0 65 72 3f
       1.056138070998517 0.004491748502458855
000440 80 c2 b8 32 c6 5e cb 3f 75 0a 90 03 a7 21 fb bf
       0.21382977940222148 -1.695715917507781
000450 a9 d2 4e 13 bb 91 f5 3f c8 e9 5e 6a 97 6c ff bf
       1.3480787996497077 -1.964011588583718
000460 8a ee ac f0 e2 a6 cd bf 70 ca 8e 4b a9 b9 a6 3f
       -0.23165547134145853 0.04438523337684763
000470 90 82 43 36 87 65 fb bf 9c db ff 91 39 cb f9 3f
       -1.712287151305791 1.6121154502013502
000480 37 fc 54 e5 da 2d e5 bf 2d b7 33 6c 8c 88 e2 bf
       -0.6618475417270763 -0.5791685212441046
000490 83 28 67 a9 4e 52 c6 3f 04 4c 13 3b 5d 90 e9 3f
       0.17438681861523628 0.7988725808921804
0004a0 c7 a2 96 70 5a 32 e1 3f e5 12 3d 47 24 5d ea bf
       0.537396640681515 -0.8238698378923713
0004b0 e5 a9 be af 69 b5 c2 3f 46 ff c0 3e a9 33 b7 bf
       0.14616128045356827 -0.09063203603818434
0004c0 4d 25 f8 76 9d 1f ee 3f 9d 68 20 b7 60 d6 f2 3f
       0.9413592647189631 1.1773383286841075
0004d0 58 8e 89 32 c2 7f 99 3f 46 53 6c b9 1d 85 d3 3f
       0.024901422819665647 0.30499976260880535
0004e0 2d 0c 74 6d de 8b ee 3f 51 a4 ee f9 59 72 7a bf
       0.9545738351592995 -0.006456710309898987
0004f0 6c 75 b6 2e be 80 cb 3f 5e 49 58 6a f9 e0 f3 3f
       0.21486642151732427 1.2424253610702958
000500 a2 3c 9d 3e d6 cd c2 3f 4d 14 a1 4c 47 b9 d2 3f
       0.14690664346060084 0.29255850299188496
000510 fb 6f d0 0c 91 31 e4 bf d7 dc 48 e4 d2 2d da bf
       -0.6310506105687631 -0.40904686253948114
000520 c3 67 58 6f 1d 23 a3 3f 60 f1 97 04 43 e2 ed 3f
       0.0373772810382458 0.9338698472707101
000530 ca 95 68 d7 c0 0e f6 bf a3 25 6e 97 a2 fd d4 bf
       -1.3786018766780779 -0.32798065937148574
000540 a0 28 78 0c 59 13 d9 3f 72 3f e3 76 40 f2 e7 3f
       0.3918058988352957 0.7483217546486982
000550 d7 4f fc 4e 6d 8c c4 3f 16 de df a2 43 96 e3 bf
       0.16053549153059407 -0.6120927983419644
000560 e7 a1 45 eb 27 08 e6 3f 9f 3e 5b 8d 91 4e c7 3f
       0.6884955973774226 0.18208522226494936
000570 a8 59 d6 45 aa f4 dd 3f 37 d2 59 4e 1b e7 e6 bf
       0.46805817432450647 -0.715711262730628
000580 35 7a 96 bd 3e 9b cc 3f e3 1b 1d ff 05 62 cd bf
       0.2234877038690272 -0.22955393749927486
000590 ee 05 9d 0b 2b 3c da bf 6e 50 45 7d 9d 1d f3 bf
       -0.4099223721896966 -1.1947302716626171
0005a0 b8 5c 3d 1d ff 6e f3 bf 3f 6b 1e 55 a8 9e fa bf
       -1.2145987646270395 -1.6637347531274853
0005b0 74 55 f6 76 ea 9c f4 3f b5 2d e4 4a 27 02 e4 bf
       1.2883095404589229 -0.6252628767701284
0005c0 d2 89 0c f4 ce 48 ff 3f 3a b5 c9 60 10 51 fe bf
       1.9552754910624697 -1.8947910099771677
0005d0 d6 ee 45 88 47 d3 cf bf d4 1d 3d 92 32 b8 f4 3f
       -0.24863523630107548 1.2949701034975662
0005e0 a9 19 31 cf 2d 6f f4 bf 24 04 36 58 e6 b0 f3 bf
       -1.2771432965688325 -1.2306884237043585
0005f0 9a c4 6a 64 82 a6 d5 3f cd 58 4f 5f 42 54 e0 3f
       0.3382879238734603 0.5102855550310551
000600 60 7e b1 56 ce cf a9 3f 89 51 e0 6b 78 fe e9 bf
       0.05041355903881306 -0.8123132807691472
000610 84 ae 8b ca 36 ca c2 bf d7 40 6e 67 1e 6b 00 40
       -0.1467960824005453 2.0523040848275786
000620 b4 81 b9 05 72 53 f2 3f ca 1c ee 1b 30 94 b3 3f
       1.145372412072999 0.07647991830718862
000630 a2 c6 a2 54 7d 8a eb bf 78 c5 4c 61 0f d0 d8 bf
       -0.8606554654163185 -0.38769897939626885
000640 e0 dd 37 ae ea ad f9 3f 56 fd 72 2d f0 94 f1 3f
       1.6049601369285185 1.0988618636473197
000650 c2 63 9f ae 9a a6 f9 bf a0 18 37 63 25 46 ea bf
       -1.6031748601146636 -0.8210627496526008
000660 8f c7 eb 5d 64 e2 e1 3f 53 fc 93 bd 1d 1a fd 3f
       0.558885749282341 1.8188760190385167
000670 9d fa 21 9f d2 7e f8 bf d2 d7 86 e9 ab 65 b6 3f
       -1.5309625831720617 0.0874888844617481
000680 99 c5 1c 97 3f 68 f5 3f 9c 17 aa a8 16 16 f2 3f
       1.3379512694194544 1.1303927029088987
000690 84 e0 69 6d 9a 11 f7 bf 2a 5f 13 b8 4e fa e5 bf
       -1.4417976640670824 -0.6868051142909952
0006a0 fa a6 46 2d 1e d5 dd 3f 8c 04 b5 d2 63 a8 e1 bf
       0.4661326830051703 -0.551805411851221
0006b0 9c e3 d9 ff 9b eb e3 3f 5b be 2a bc 34 cc 9b bf
       0.6225109097568864 -0.027146171555328596
0006c0 f4 9b eb 9d de e0 f3 3f c6 78 9c fa 54 76 fa bf
       1.242399803997384 -1.6538896359921167
0006d0 1d 7f e1 0c 83 a8 d5 bf db d7 d5 71 62 7d f6 3f
       -0.3384101510800848 1.4056114622776394
0006e0 29 5e bd d0 56 0b f2 bf aa b7 95 9d 2f b2 e4 3f
       -1.1277683404822574 0.6467512204960617
0006f0 ea 9d c9 ba d6 c1 e6 bf 1c 9f 07 ad 5e bb de bf
       -0.7111619613833089 -0.4801861467117179
000700 05 61 3b 9c 8c ed f4 3f c7 f8 f9 cd 64 9b ee 3f
       1.3079954245386614 0.95646896581436
000710 23 62 54 c3 01 66 f0 3f cb 61 bd f2 fa b8 f4 bf
       1.024904025083864 -1.2951611978552247
000720 d2 09 f8 61 ce 96 d5 3f 2e 19 fb 71 32 01 d1 3f
       0.33732947890544296 0.2656980622381465
000730 28 90 35 1a c2 e2 ef 3f 3d e9 63 c9 c1 1b f4 3f
       0.9964304458521882 1.256776606255314
000740 67 df ea 52 9f ba 01 c0 05 6a 85 c0 92 09 d5 bf
       -2.2161241987159204 -0.32870930481809096
000750 2b c7 64 19 cb 1b bf 3f 85 cf 6a e6 29 2f e0 3f
       0.12151784296000005 0.5057572841965202
000760 c6 d4 a2 e2 f7 b6 e0 bf fd 66 cd 0b cf ef e2 bf
       -0.5223349977956324 -0.5917735319628431
000770 8b d2 44 f5 a2 fb 80 3f 00 37 7f e0 1e b5 d9 3f
       0.008292458639155306 0.40167972491768467
000780 e6 b0 ee ca ab 0a fe 3f 17 f5 13 3b 56 6d e1 bf
       1.877605240540157 -0.5445967820993783
000790 a4 9b 69 9e 85 13 d8 3f 54 83 eb 30 f7 c1 e6 bf
       0.37619152517293686 -0.7111774402111259
0007a0 0f c5 b5 37 76 37 ff 3f 31 b9 77 32 a9 49 e8 bf
       1.9510404754804005 -0.7589918122955962
0007b0 85 fa 61 fc c4 58 cd 3f 6f 3c 9b 3d 64 82 f6 3f
       0.22927152942061838 1.406833878183331
0007c0 d6 02 5c 93 50 1c f1 bf 16 4c cb d6 cf 82 f3 bf
       -1.0694127804019238 -1.2194364920039837
0007d0 d2 10 9d 80 38 53 e4 3f 1a b0 2c 70 0e 7a e4 bf
       0.6351587783797419 -0.6398994627866188
0007e0 88 9e 7e 03 d8 99 f9 3f 06 fa cf e2 84 60 e7 bf
       1.6000595222957674 -0.7305321149759159
0007f0 a4 ce 0b 9b 65 27 f0 bf 91 89 e1 f7 97 0a f0 bf
       -1.0096183830727705 -1.0025863345004817
