weights/init_z/2.npy (npy, 4224 bytes, 1 tensors)

array f8 [1, 512]
0	0xbfdaac291b3d4d7e	-0.4167578474054706
1	0xbfaccf016d92d330	-0.056266827226329474
2	0xc00116edfa85e943	-2.136196095668454
3	0x3ffa3e8c9a6aed31	1.6402708084049886
4	0xbffcb1e9831e501d	-1.7934355851948631
5	0xbfeaef982bdf9a02	-0.841747365656204
6	0x3fe0179ac50eb7b9	0.5028814171580428
7	0xbff3ecb33361393e	-1.2452880866072316
8	0xbff0ed5f4e4be8fb	-1.057952218862339
9	0xbfed1697233d9ffc	-0.9090076149268493
10	0x3fe1a582f3d25cbb	0.5514540445464243
11	0x4002567127955aea	2.2922080128149576
12	0x3fa544a6bcd900cd	0.04153939299840346
13	0xbff1e305caa20f8e	-1.1179254451135168
14	0x3fe13ff73c30ff5c	0.5390583205807888
15	0xbfe313bd81bb951f	-0.596159699806467
16	0xbf9396f1e3a88997	-0.019130496521151476
17	0x3ff2ccce142838cd	1.175001219500291
18	0xbfe7ee8f0e9b0f44	-0.7478709492938624
19	0x3f827bd4ae26241e	0.009025250973325124
20	0xbfec1975b97a748f	-0.878107893240342
21	0xbfc40608eee3b15e	-0.15643417038462365
22	0x3fd06ba6791dcacb	0.25657045200129563
23	0xbfefa413f5adefbc	-0.9887790487696217
24	0xbfd5af4253d0c1ae	-0.33882196602919634
25	0xbfce3b47402cb867	-0.23618403085260128
26	0xbfe467ab7c180478	-0.6376550124843012
27	0xbff30075bda5a42d	-1.1876122863852843
28	0xbff6bd4e467c8743	-1.4212172273041268
29	0xbfc3a5bb06c3476c	-0.15349519567694914
30	0xbfd1383aaf38e493	-0.2690569602160135
31	0x4001d9d6d4bd3022	2.2313667888866044
32	0xc0037a676c54270a	-2.434767576521044
33	0x3fbcdba4eb9473e8	0.11272650481664892
34	0x3fd7b55d007cd467	0.37044453666323424
35	0x3ff5c10f6feb6844	1.3596338626725961
36	0x3fe00f36d84c67a1	0.5018572067813133
37	0xbfeb03cc751918e0	-0.8442137038298618
38	0x3ee478a670c58230	9.761471596093479e-06
39	0x3fe15af3c809028b	0.5423525721490291
40	0xbfd41084af4755e1	-0.31350819699340887
41	0x3fe8ac20cefae340	0.7710117380694115
42	0xbffde3b306b50897	-1.8680906545637634
43	0x3ffbb2eeb13b9090	1.731184665980468
44	0x3ff77b9bf00789d5	1.4676780105734129
45	0xbfd57bbccdbdf7bd	-0.33567733852384746
46	0x3fe3901a89df5e4c	0.6113407795737174
47	0x3fa88f99f67cbd6a	0.047970591868188375
48	0xbfea8846bac8e53c	-0.8291352890147787
49	0x3fb6742d4796bba3	0.08771021840833142
50	0x3ff0017fa8ec4efa	1.000365886550695
51	0xbfd863d1dedea399	-0.38109251751534995
52	0xbfd80af7c38ed054	-0.37566942307899365
53	0xbfb3108413234815	-0.07447076289398098
54	0x3fdbbe6764275a68	0.43349633007657085
55	0x3ff4743dc79e7407	1.2783792302718682
56	0xbfe44f4af966300b	-0.6346793051793623
57	0x3fe044c8327781ff	0.5083962426834318
58	0x3fcba9b07585b6f1	0.21611600626368202
59	0xbffdbce057657484	-1.8586123861234976
60	0xbfdad614cc614093	-0.41931648215268885
61	0xbfc0f027418cfe8d	-0.13232889843674336
62	0xbfa4428ceac2017b	-0.0395702396936057
63	0x3fd4dd3d8131f891	0.3260034333869806
64	0xc0005294e3fc84ce	-2.040323048728715
65	0x3fa7aecdce4e50b1	0.046255523141696904
66	0xbfe5af84b13d7fdb	-0.6776755773280415
67	0xbff707f13786dade	-1.4394390267386181
68	0x3fe0c7094e89ba5f	0.5242964300103486
69	0x3fe787690893bcbd	0.7352795760652026
70	0xbfe4e76d1b08a421	-0.6532502677920357
71	0x3feaf566e03513da	0.8424562815713401
72	0xbfd86ac41b0439c3	-0.3815164817650862
73	0x3fb1056c77d37db8	0.06648900914614486
74	0xbff1946f4a43085b	-1.0987389469960565
75	0x3ff95a0f198279ce	1.5844870563956763
76	0xc005468d6fc441a9	-2.6594494563834883
77	0xbfb769706872e468	-0.09145262289065814
78	0x3fe63e6b784f874a	0.6951196050469914
79	0xc000448a1bc8da86	-2.0334665461226136
80	0xbfc8408763c4b741	-0.18946926471238082
81	0xbfb3c49a3a54eb8e	-0.07721866535295716
82	0x3fea63f78ea878cd	0.8247030054369816
83	0x3ff3f8ae1c868ae1	1.248212920597034
84	0xbfd9d95ef5fa79a1	-0.4038922693379395
85	0xbff626fd0b9791b1	-1.3845186665358649
86	0x3ff5e032407b31f4	1.3672354239271245
87	0x3ff37c75a543eb9e	1.2178856330562904
88	0xbfdd917ee13955d2	-0.46200534815338046
89	0x3fd674f503a99263	0.3508884940877463
90	0x3fd8707f12c1557c	0.38186623412669696
91	0x3fe21eedacb0bef9	0.5662754414424561
92	0x3fca237caf8259e6	0.20420797891411197
93	0x3ff681d3eb157799	1.4066962416613704
94	0xbffbceaea011aa58	-1.737959504384568
95	0x3ff0a737048b4e45	1.0408239533907289
96	0x3fd859a71b478f2a	0.38047197021500045
97	0xbfcbcb16a708a17a	-0.21713526874487937
98	0x3ff2c6c8f6edc984	1.1735314984949534
99	0xc002bfb307a12b2b	-2.343603190999962
100	0x3ff295978f055318	1.161521490740773
101	0x3fd8b580b30a4d54	0.38607804760359454
102	0xbff221505b073ba1	-1.1331332736769826
103	0x3fdbb7c9d5990fa6	0.43309255465669094
104	0xbfd37626f773c2a8	-0.3040864388013156
105	0x4004aeaf1366d4bc	2.5852948680645493
106	0x3ffd5d85d85fba97	1.8353327228648249
107	0x3fdc34434b6ce23c	0.4406898724151096
108	0xbfe70420a1ce65fb	-0.7192538414266773
109	0xbfe2ab5515773adf	-0.5834145945790076
110	0xbfd4cd9cf4de82a8	-0.3250496283817861
111	0xbfe1ed70ea4c39b9	-0.560234506237797
112	0xbfecdf332569d62e	-0.9022460680705018
113	0xbfe2e93eb07f7cb1	-0.5909722754694454
114	0xbfd1acecbfc2bd4e	-0.2761794922507378
115	0xbfe08a50176d23a2	-0.5168838937325868
116	0xbfe65ad94f89506b	-0.6985899499363887
117	0xbfedb97b8eab254e	-0.9288919245238192
118	0x4004674c296c918f	2.55043823587966
119	0xbff7921e1c8a4824	-1.4731732477998856
120	0xbff057b6f8f3eb3a	-1.0214147305220664
121	0x3fdbac5f04a8db9c	0.4323957009796062
122	0xbfd4b5892ea76d81	-0.32358007007652395
123	0x3fdb1ff1aae15356	0.42382470786588067
124	0x3fe992e1ecc95ee4	0.7991799950350154
125	0x3ff433aa627767dd	1.2626136633248202
126	0x3fe810189663d2cf	0.7519648492148806
127	0xbfefcce3d5511fff	-0.9937609831185908
128	0x3ff1bf0d06806c27	1.109143281361648
129	0xbffc3d1a5f313323	-1.7649177282757555
130	0xbfbd4ab6d0b5d444	-0.11442129703012066
131	0xbfdfe21603a6ba34	-0.49817419392175855
132	0xbff0f908690aae2b	-1.060799036330432
133	0x3fe2eeeea0953b4a	0.591666520727679
134	0xbfc774f38f948523	-0.18325657377958135
135	0x3ff051533154fd27	1.0198547293692373
136	0xbff7b82db88b287d	-1.482465477822671
137	0x3feb14fcad35af14	0.8463118918420798
138	0x3fdfde405b2674de	0.49794014836682077
139	0x3fc03149efdfdbcb	0.12650417530650623
140	0xbff6b372b146716b	-1.4188105511485343
141	0xbfd01d1131182b0b	-0.25177411836982405
142	0xbff8bf2de08ef268	-1.5466746112644163
143	0xc000a9456b07ce22	-2.0826519357449493
144	0x400a3ceb2827d6c2	3.2797454011113993
145	0x3fef114bc250c795	0.9708613200402733
146	0x3ffcae75d7c180f6	1.792592852398284
147	0xbfdb74f4472315f5	-0.42901331850984487
148	0x3fe64740fc3f1da6	0.6961979796114306
149	0x3fe6513bee2415a8	0.6974162722769295
150	0x3fe33f9e1777474b	0.6015158136671998
151	0x3f6dfa821e098420	0.003659490714469374
152	0xbfcd37374aeae8f3	-0.22824755819403428
153	0xc0008e90dfbc63ae	-2.0696122626654505
154	0x3fe3864ce41edc4c	0.6101440864066574
155	0x3fdb1a92be570227	0.42349690044287275
156	0x3ff1e2dd330cdbb0	1.1178867334508418
157	0xbfd18d2eb0b6c1a7	-0.2742420888635259
158	0x3ffbde76751432ee	1.7418121884722342
159	0xbfdca3dab70b70c8	-0.4475008761926458
160	0xbff4163ad9d4dc02	-1.2554272183458584
161	0x3fee056fd1cd5e29	0.9381636712741442
162	0xbfddf96297006b0b	-0.4683462595582319
163	0xbff4135599cad41f	-1.2547203071128548
164	0x3fbff47146fea2c0	0.12482364638584453
165	0x3fe83543fb7877d0	0.7565021430525523
166	0x3fcee77e66eaae64	0.24143962884169234
167	0x3fdfd5d26394b157	0.49742564892473723
168	0x40106f4d1e823d34	4.108692623805201
169	0x3fea469f4a43c278	0.8211208773119116
170	0x3ff882171afe4565	1.5317603163169562
171	0xbfffc60637d56d77	-1.9858457737926452
172	0x3fd75d096c99ce2d	0.36505351644084066
173	0x3fe8c547af3c9e9c	0.7740820334046989
174	0xbfd753a01ca35687	-0.3644790916126585
175	0xbfec08061d1147f3	-0.8759794776653947
176	0x3fd960961670e7bc	0.39652015868670865
177	0xbfd422b12b3930e0	-0.31461743565593103
178	0xbfe3000bb5498af9	-0.593755582882607
179	0x3ff2645ab511508f	1.1495005677179824
180	0x3ff55e7aa16aadcc	1.3355661683407218
181	0x3fd35e476f6c7ced	0.302629336178099
182	0xbfdd1211b53c0718	-0.45422785471611027
183	0x3fe075b9943117d2	0.5143707174654486
184	0x3fea8aec681c084a	0.8294584306133939
185	0x3fe42e0e1eb30570	0.6306219672771203
186	0xbff740faf9ef2be5	-1.4533643496567887
187	0xbfd5a21550cd8afc	-0.33801777735622784
188	0x3fd6fc0a5ebd4e5b	0.3591333317938045
189	0x3fe3e93ac9616304	0.6222204144679329
190	0x3feebeb9c6f60bcd	0.9607819448432281
191	0x3fe84491e3eacc53	0.7583703471667697
192	0xbff2262b233dd65f	-1.1343184830306183
193	0xbfe6a3312113000f	-0.7074208875637867
194	0xbff38af94ee77877	-1.2214291650957685
195	0x3ffcdf22e61fb181	1.8044766415797258
196	0x3fc717ab264808ba	0.18040980691154634
197	0x3fe1b385905a5923	0.5531642741578121
198	0x3ff087497c5f9fff	1.0330290659276213
199	0xbfd50e603a56029b	-0.3290024347007063
200	0xbff26a82102af9a4	-1.1510029441411485
201	0xbfdb4c24e7d5479e	-0.4265224708552696
202	0xbfc2f67cb68ce60f	-0.14814719117730177
203	0x3ff805e2b7008bc7	1.5014369152565779
204	0x3febd3bf9963b6fa	0.8695981975449449
205	0xbff164b9162bcf5e	-1.0870905748424415
206	0x3fe5414d43fac9bf	0.66422141339563
207	0x3fe7842cd9c8ef53	0.7348846677409518
208	0xbff0fb5aa574714c	-1.0613657439308382
209	0xbfbbc7c231cc3e84	-0.10851682391898448
210	0xbffd9b41327d2a52	-1.8504039737914764
211	0x3fd526b768a5ff76	0.33048806399892017
212	0xbfd434514b74755c	-0.31569321030277364
213	0xbff5999bce07ad0c	-1.3500021026655444
214	0xbfe6576ab4344b87	-0.6981709975828928
215	0x3fceb6b88a9be95a	0.2399511982728864
216	0xbfe1b1c305e87f88	-0.5529494395632222
217	0x3fd32b7282b89185	0.29952681318015834
218	0x3fe1af6bc649cf20	0.552663695604199
219	0xbfeae4e8be99afb4	-0.8404430124914968
220	0xbfd3fc3e1e6bc4ed	-0.31227066965864375
221	0x4001284cfc696ffb	2.144678089111037
222	0x3fbf00c6803df282	0.12110558157832865
223	0xbfeb19389c5ce4cb	-0.8468287519418934
224	0x3faef4ef223507d0	0.06046244900291209
225	0xbff56adc2c5d317a	-1.338588879868523
226	0x3ff21fba596ce5a3	1.1327460759333483
227	0x3fd7b313154996a3	0.3703048427472401
228	0x3ff15f768930ff0d	1.0858064040220967
229	0x3fecdea752d15b39	0.90217939544059
230	0x3fd8fa9df5eba7fe	0.39029644981076206
231	0x3fef375f83cec7a2	0.975509412228565
232	0x3fc8857c397a59e3	0.19157364660777806
233	0xbfe530d0f418ba97	-0.6622090117942488
234	0xbff060513faac690	-1.0235149847980303
235	0xbfdcaee57449e5a2	-0.44817482334436864
236	0xc0040b2da2160de0	-2.505458132074395
237	0x3ffd3745f6c1217f	1.8259944571346691
238	0xbffb6cd1f31cbfe5	-1.714067411096033
239	0xbfb39ea684f2ca40	-0.07663956399736893
240	0xbff514c16addfa45	-1.3175672697540375
241	0xc000346a69bf5573	-2.025593591834587
242	0xbfb50e086c03b986	-0.08224537503313031
243	0xbfd37fa846874014	-0.30466658484965703
244	0xbfc471d71da06f85	-0.15972413012138645
245	0x3fe190f86036134c	0.5489465598226189
246	0xbfe3c9bb62a330e1	-0.6183754850876789
247	0x3fd83e2b24878105	0.37879446570697467
248	0x3fe06c8e4afdde02	0.513251444309333
249	0xbfd56e160e064fd4	-0.3348441254577186
250	0xbfd2252f0aa3b8d7	-0.2835195163633108
251	0x3fe13ac58501e034	0.5384242627906191
252	0x3fad4ffefdf2493a	0.05725094652111058
253	0x3fc45d02f3aa9a07	0.15908848665021955
254	0xc002fec6d59ccb1f	-2.3744026840662538
255	0x3fadf65330639824	0.05851993528067137
