weights/init_z/20.npy (npy, 4224 bytes, 1 tensors)

array f8 [1, 512]
000000 95 3c 7b 35 da 48 ec 3f 1c 7f 0a e4 1a 12 c9 3f
       0.8838931126173458 0.1958650220376449
000010 0a 99 b6 d6 e0 e1 d6 3f af 7f 15 19 00 bf 02 c0
       0.3575365158852867 -2.3432619056402113
000020 af 9b 42 6a 79 5b f1 bf 0a d6 55 31 08 e9 e1 3f
       -1.0848325873173328 0.5596962894039177
000030 53 3d a7 06 22 10 ee 3f 46 fc 74 79 b7 4f ef bf
       0.9394693498560777 -0.9784810421186954
000040 69 ad 5f 8b 5e 19 e0 3f 6d 8f 21 d5 b1 02 da 3f
       0.5030968401091914 0.4064144688948009
000050 c0 9a c7 ce 95 b3 d4 3f 95 81 52 3c 0b 94 df bf
       0.3234610099156434 -0.4934108819088803
000060 f6 aa c8 98 33 58 e9 bf 26 5d 0a 99 ad f4 ea bf
       -0.7920167907771816 -0.842367934138484
000070 bb 52 70 c8 d7 78 f4 bf 9e 46 97 3c 98 73 cf 3f
       -1.2795026616706042 0.24571516951123312
000080 a1 c2 2d 6f b3 a0 a6 bf 1c f1 2c df 05 15 f9 3f
       -0.04419480068361748 1.5676325528903083
000090 75 af b7 55 57 d1 f0 3f 31 c6 8d b6 f0 01 da 3f
       1.0511086796131768 0.40636842563171444
0000a0 bc f0 b6 08 32 96 c5 bf ba 75 5d e5 82 84 09 c0
       -0.16864610124128443 -3.1897027892252625
0000b0 39 d9 c9 cd 0f ec f1 3f 45 15 0c 3e 0f 53 f5 3f
       1.12013225923654 1.3327782081335766
0000c0 f2 c4 28 85 b9 25 cf bf a9 9a 46 aa d8 a4 c0 bf
       -0.24333876611630206 -0.13003071130989
0000d0 c8 f0 96 fc 8f e8 bb bf c2 ec 71 c0 23 e6 f8 3f
       -0.10901737133730471 1.556186439264636
0000e0 03 58 b4 1e cf 7b c0 3f 28 82 72 69 1c 89 00 c0
       0.12877835273019408 -2.066948722655315
0000f0 b9 23 7d bd f5 55 ec bf a0 3d 54 89 5b ac f1 bf
       -0.885493154616703 -1.1045794834534277
000100 c4 56 47 86 0a da ed 3f cb f8 9c 58 8c 7a 00 40
       0.932866346610091 2.0598380015281683
000110 53 e4 37 02 03 eb ed bf 64 09 b7 d4 ce ce f9 bf
       -0.9349379580809319 -1.6129902180842572
000120 50 ed 3d 50 c1 dd e0 3f 6d 1c 2f 01 4f d1 f8 bf
       0.5270697180962234 -1.5511007353068422
000130 3e 69 0f 8c 62 18 d5 3f 0a 13 0c 74 36 2f f2 bf
       0.32961333921197766 -1.1365265400974658
000140 34 71 23 7f d4 a9 d5 bf 4f 78 83 0b c9 8a d4 3f
       -0.3384906045519245 0.32097078441973265
000150 9b e5 f5 76 1b 46 e3 bf 50 af f2 15 35 b7 f8 3f
       -0.6023080180595345 1.5447283608763946
000160 4c 8c 95 d2 80 b4 e4 3f b1 53 ee a9 a2 fb e2 3f
       0.6470340836498365 0.5932172125782157
000170 57 d2 62 e6 97 08 dc 3f 54 fc 67 f9 80 b9 f5 3f
       0.43802449701914753 1.3577890150479748
000180 6a 0b 5e 9d ad 45 f3 3f d5 ef e9 09 f5 a0 f5 3f
       1.204511275020844 1.3517961871393613
000190 94 8e d7 c5 79 94 df 3f 3b 81 34 3f 8a a2 05 c0
       0.4934372360278101 -2.7043652475259967
0001a0 3c 7d 1a 01 15 c4 e1 bf 8d 40 5d 3e 5c b7 58 3f
       -0.5551857968857017 0.0015085602585323294
0001b0 55 92 24 03 50 6d eb 3f 9a 82 31 ae c3 b2 f7 3f
       0.8570938168891852 1.4811436466626788
0001c0 73 36 60 0c db 1d cc bf ac 0e b0 39 eb 0d f8 3f
       -0.21966112236298194 1.5033981564928736
0001d0 6b 8b e6 62 d9 b7 f7 bf 43 68 93 80 b2 65 eb bf
       -1.482385050134975 -0.8561642180677683
0001e0 ea d5 52 b3 a6 84 ea bf 26 6c 5d 46 39 32 bd 3f
       -0.8286927702344518 0.11404760330098948
0001f0 6f 3d 1f d1 26 e3 e0 3f d9 bc ac c1 81 f2 c3 3f
       0.5277284702696486 0.15583822209143852
000200 a6 72 14 a2 a7 d2 f4 3f f0 2f 62 cf 6a d5 ef bf
       1.3014293986554235 -0.9948019075832217
000210 f5 07 99 e6 df c1 00 40 fc 72 91 77 e2 00 d7 3f
       2.094665338082445 0.3594289939554043
000220 11 f6 99 79 b0 1c e6 3f 2e 11 8f ec 81 c5 f7 bf
       0.691002118590122 -1.4857196083622273
000230 92 9b 7c ed 35 4a b9 3f 40 34 e3 9f 9f 39 cd bf
       0.09878861473099068 -0.2283210306835901
000240 40 ee 71 1f 52 5a eb bf e3 3d 05 49 af 6b e0 bf
       -0.854775487342927 -0.5131451059514202
000250 1c f3 12 2d 79 ca ee bf c7 a3 78 c9 79 e0 de bf
       -0.9622159843780511 -0.48245091128279366
000260 97 0f 05 ec f1 a6 ce bf dc 4d c4 0c 73 6c dd 3f
       -0.23946975731280126 0.45974422690161787
000270 97 95 b6 50 8e af e4 3f 2a 4a 46 30 9c 31 df 3f
       0.6464301659040527 0.4874029609137859
000280 97 14 74 98 f6 8d a3 3f a7 8e 28 b7 df a9 ef 3f
       0.03819246874812981 0.9894865586579343
000290 7f 5f 0e fc 39 62 c2 3f 0f 6d 23 cd 70 02 e8 3f
       0.1436226349585432 0.7502979284867325
0002a0 da 57 1a 11 6b 36 da bf 0d aa 8a 4a 94 28 f7 3f
       -0.40957142515378353 1.4474070464881408
0002b0 92 5d c2 ac e2 e3 d9 bf a6 15 f6 31 ff 61 f2 3f
       -0.4045340239622074 1.14892501369591
0002c0 ba f9 91 03 8e 0b ee bf 80 68 ca 91 65 6c fe bf
       -0.9389104909640118 -1.9014640517184773
0002d0 a3 69 2f 1f e5 86 f1 3f d2 cc d7 09 c8 58 d5 bf
       1.095433351342401 -0.3335437866327996
0002e0 39 54 97 cf cf 11 f7 bf bb a6 9b c0 aa aa f6 bf
       -1.4418485745457146 -1.4166667484045508
0002f0 ab 97 11 2f 70 12 fa bf a8 ea 9a ac 49 0b fd bf
       -1.6295015181180854 -1.8152558081043626
000300 03 0c 22 77 11 e6 f0 bf ca af cb c8 9e bc e1 3f
       -1.0561690000183723 0.5542749330320416
000310 f4 71 75 2b 8c 66 ee bf 96 3e 20 0e bb 74 eb 3f
       -0.9500180100254156 0.8579993511102255
000320 b9 6d d6 0e cb 06 e1 bf f9 fb cf b7 1b 03 f2 3f
       -0.5320792474553208 1.125758855836237
000330 76 84 bb e5 f9 fc cb 3f ad bc db 5d fa 24 d9 bf
       0.21865771977812515 -0.39288195768217343
000340 74 6f 1a b5 f3 45 cd bf 4b 44 f0 08 57 38 f9 bf
       -0.2286972650807645 -1.5762548779641914
000350 a3 98 a2 1b 04 3a c5 3f 41 5f 69 d1 d2 3d e9 3f
       0.1658330092370238 0.7887968149252417
000360 1c 0c c9 1e e9 63 ff bf 52 94 61 da f2 a1 fd bf
       -1.961892242675055 -1.8520382433428222
000370 b0 e4 c8 18 5e 78 f1 3f 1c e9 bb 14 2b e8 ed 3f
       1.0918866127160918 0.9345908551179352
000380 2a 70 fa 80 f2 c6 e6 bf 53 44 7f 35 de 16 f7 3f
       -0.7117855567080416 1.443083008740605
000390 ce 7e 97 62 f3 12 e8 3f c0 55 c4 e0 d5 5b f5 bf
       0.7523133206959416 -1.334920766826471
0003a0 5d c3 fa 3d 08 a7 e5 3f 65 f6 12 25 6b 98 ea 3f
       0.6766396723306617 0.8311057781317684
0003b0 34 06 e2 e5 19 5d d7 bf 9b 31 12 6d 15 cb df 3f
       -0.3650574440908685 0.4967702450892603
0003c0 42 e0 3c 1a 23 88 d2 3f a2 ff ac ed e8 17 de bf
       0.2895591503361211 -0.47020934305691686
0003d0 e2 9f 8c 56 25 b2 f9 3f 6e 9f cd dc 30 ab c3 bf
       1.6059926396210291 -0.1536618307247823
0003e0 85 43 cb 8f 25 94 fc bf 47 44 82 9e 92 95 bc bf
       -1.7861686341240965 -0.11165729875416829
0003f0 39 43 29 91 30 9a f8 3f 93 2e 49 1a 91 81 f0 bf
       1.5376439733847305 -1.031632521323364
000400 a7 b7 6b 6f 90 16 bb bf 2c 17 e6 4b 47 14 00 40
       -0.1058130523703925 2.00990161224299
000410 25 83 dc 21 75 00 87 3f 71 7a 1c 98 4d 6e f1 bf
       0.01123134145342559 -1.0894294683309023
000420 e7 2f b2 d9 6f 3b f8 bf 70 de 99 8b 90 e9 e1 bf
       -1.5145109657050797 -0.5597613073905006
000430 5b 44 3e 59 92 ee ea 3f b9 de aa 4b 71 19 d0 3f
       0.8416225188285681 0.25155289067650305
000440 46 21 82 95 e9 67 ea 3f 1e 78 e7 e2 c0 27 fd 3f
       0.8251846237263087 1.8222054351276777
000450 6f ff 11 b2 dc a3 d5 3f d0 a2 89 ce 89 eb bb 3f
       0.3381263483970462 0.10906277935431352
000460 ee 04 35 3c a4 4d d6 3f 5a 17 02 0d 5a be dc 3f
       0.34848886375046007 0.4491181494744204
000470 23 85 85 43 fa d5 f1 bf f0 3a 35 28 ea 8a ed bf
       -1.1147406232415242 -0.9232073579131264
000480 3f d3 a0 f2 c3 e1 95 3f 77 e0 60 83 73 05 e3 3f
       0.02136903923401978 0.5944154325470795
000490 53 65 2b c1 f8 3b fd 3f c4 ad da c7 51 62 f1 bf
       1.8271415277179883 -1.0865037733845933
0004a0 a3 7e c7 f9 60 ef f0 3f 25 10 36 c4 c6 e8 e7 3f
       1.058442092609689 0.747165091729134
0004b0 a5 ce a7 56 72 84 e3 3f 74 94 5b b4 32 c5 b3 bf
       0.6099178020944761 -0.07722775367035856
0004c0 9a 9c 0e 3e 6d 0f ff bf f5 30 47 f8 10 da d5 3f
       -1.9412662910561154 0.34143470998675635
0004d0 6f 94 a8 2f 41 ce fd 3f b0 9b 7f 5c 0e e5 d2 bf
       1.8628551351223697 -0.29523047478727005
0004e0 cd f9 68 d5 bc 9c de 3f af c0 b3 2d d7 e2 e6 bf
       0.47831650582147917 -0.7151904957409182
0004f0 93 a0 1b ab f3 cb f3 3f 7f 23 44 bb 76 e4 ea 3f
       1.237292927160557 0.8403886468450849
000500 3f 87 e9 f8 0c 2c e7 3f 9a 1b 05 ca 75 0f c7 bf
       0.7241272794310375 -0.18015930523162355
000510 57 c5 82 fc b6 87 c3 3f 99 ec 60 a5 d8 ad f3 3f
       0.15257918672208845 1.2299429378606759
000520 23 a9 3b 2e b5 69 d1 3f 62 ec 0f e2 0c 38 b3 3f
       0.27207688822695014 0.07507401007744499
000530 47 e4 97 a5 c9 39 b6 3f eb 19 14 10 72 1f 04 c0
       0.08681927006536326 -2.5153542762884533
000540 08 2c 2a 9c c7 99 fd 3f 47 9d 0b 73 d3 80 c6 bf
       1.8500438785729347 -0.17580645673226966
000550 bd 4f fa 3c 2b e9 ec 3f 75 4b 8d 02 f9 b8 f8 bf
       0.9034630003902674 -1.545159349411475
000560 b8 1d 54 20 4b 10 f7 3f 1d da ef 15 8c 34 d1 3f
       1.4414778960070702 0.2688322271564248
000570 c0 ce 4e 0f 9f 75 db 3f e5 2e da 9c c9 ed db 3f
       0.4290540360918662 0.43638840024571685
000580 e4 5f 78 7e 74 0c dc bf a4 96 b8 95 5c ba f6 3f
       -0.4382601962147403 1.4204984520414792
000590 1c be 9f 2b 73 49 ff 3f dd f5 26 56 92 0f d9 bf
       1.9554321006834305 -0.39157541669177737
0005a0 9d 9c ff 8e a6 e7 be 3f a7 f5 aa 1e 63 7f da 3f
       0.12072220793889916 0.4140250968447056
0005b0 f7 de 98 1b 35 dd f5 3f de 9b 1a c2 bf cf f5 bf
       1.3665057256711728 -1.3632199842629613
0005c0 ef fd cb 56 83 07 90 3f 71 cb 0d f8 f9 f2 ec 3f
       0.015653659985217002 0.9046602101137592
0005d0 38 53 49 3c 22 d2 e9 bf 94 65 c8 2b 18 9a e6 bf
       -0.806901090380598 -0.7063103537686168
0005e0 0d 3f de 31 a5 d8 f0 3f 12 06 b3 f6 bb ed b7 bf
       1.0528919170355409 -0.09347128651554495
0005f0 70 b2 7a 00 f1 05 f7 bf ec 66 6b 6f d4 eb d3 bf
       -1.4389505404207306 -0.31126891022505165
000600 82 b2 0b db 0a c8 e9 3f b6 f8 c6 83 4e b4 89 bf
       0.8056692388759787 -0.012550938984415044
000610 6f e0 5c 92 52 b1 d0 bf 61 a4 46 02 9a 76 ec bf
       -0.26082290929071567 -0.8894777340366425
000620 b0 7d fa 21 b9 da f9 bf 87 21 34 45 4b 43 eb bf
       -1.6158992125782383 -0.8519646026261832
000630 67 83 70 55 90 15 a5 bf 0a de 92 34 09 4d d1 bf
       -0.041180143766047554 -0.27032690176153606
000640 24 f1 f5 0c 4b 10 f8 bf 65 7b d8 21 03 06 f5 3f
       -1.5039778238561405 1.313967830857757
000650 2e 07 25 bc 60 d9 9e bf e1 74 5d f1 06 52 e4 3f
       -0.03012610576957469 0.6350130762254161
000660 31 50 7d 0c f3 13 e0 3f cf 17 e1 91 69 97 f2 3f
       0.502435230630459 1.1619659136208502
000670 dc 05 b8 46 61 91 d3 bf 55 00 57 9d 82 65 fb 3f
       -0.30574829012047444 1.7122827669227452
000680 f7 d6 34 91 03 b6 f2 3f c8 71 fe 6c f3 a6 d1 bf
       1.1694369957089614 -0.2758148731607233
000690 9f 5f d2 7b 20 18 04 c0 4b eb a7 d7 94 b4 da bf
       -2.5117807077003387 -0.41727181491994675
0006a0 fd 23 4f c1 8f 54 e1 3f c6 db b7 45 e0 92 c2 bf
       0.5415724540299603 -0.14510730175217484
0006b0 95 09 6a 22 67 58 f0 bf 83 71 aa 61 cd 39 de 3f
       -1.0215827316575077 0.47227797067332505
0006c0 fc 49 f3 9e f2 a8 e6 bf 59 e1 25 b8 50 a0 f6 3f
       -0.7081235031603792 1.4141394799499578
0006d0 0d c2 d8 30 e5 64 df bf da 72 c8 6c 13 e6 f2 3f
       -0.4905331589716589 1.1811708688102756
0006e0 0d 57 b6 8a 91 06 a8 bf b9 45 0c 4b 98 5c f7 bf
       -0.04692511385216678 -1.4601061755714524
0006f0 db 20 67 d1 1a 43 e0 bf d0 93 90 73 9d b1 df bf
       -0.5081914987468069 -0.4952157620012345
000700 2f 77 f5 3b 8d 60 e8 3f ff 06 db d3 78 59 fa bf
       0.7617860957213675 -1.6468437457664888
000710 c4 f5 87 5d 5d 53 eb 3f 42 37 3c 9b 4b 4d 80 bf
       0.8539263560084511 -0.007959929156210802
000720 38 fb 2f a7 94 76 ec bf 93 00 77 7b de 9f d6 3f
       -0.8894751801852641 0.35350763375391486
000730 f9 ee 7f 4d 04 43 e1 bf 8c 52 17 38 8f ea e2 3f
       -0.5394307626406479 0.5911327453164446
000740 d0 6f f4 75 7b 48 be bf 2a af 16 3a fd 11 d7 bf
       -0.11829349164730663 -0.3604729716559968
000750 33 91 81 fd 1d 19 f1 bf 17 be 35 c0 c1 80 ec 3f
       -1.068632116564072 0.8907173875904303
000760 a8 85 7d 73 b9 1c ce 3f 1f a4 b8 99 ff b1 b7 bf
       0.2352515996854383 -0.0925597906394988
000770 f3 6f e4 2c a1 5a e0 bf 89 f6 69 69 98 00 e3 3f
       -0.5110631825259574 0.59382267559677
000780 d7 13 6c 95 38 c5 e8 bf a9 83 84 87 7f 22 f1 bf
       -0.7740748327638539 -1.0709224027307107
000790 2e 79 10 e4 de 0f e4 bf 63 29 d0 20 e1 3c f1 bf
       -0.6269373373395746 -1.0773631364596319
0007a0 c1 51 4c 69 82 6e f4 3f 30 4c 44 25 6c 2c d6 3f
       1.2769798386772069 0.3464613307889435
0007b0 01 6b a8 f1 18 50 bf bf 48 4a e8 9b bf 0d cc 3f
       -0.122315939901835 0.21916957008996207
0007c0 be a2 7f 12 21 5d c2 3f 9f c1 07 c8 1f f5 f6 3f
       0.14346707728625135 1.4348447621997378
0007d0 d5 d1 73 c6 c5 e2 f0 3f 45 dc 4b 66 3d d8 f1 3f
       1.055364394383209 1.1152929302168257
0007e0 97 ba 82 15 ec d0 fc 3f b5 d9 70 54 b7 e2 c8 bf
       1.8010063972721235 -0.19441882727705964
0007f0 12 d4 5f 3a 32 f3 ea bf 0a 87 cf 69 ec 5e f2 bf
       -0.8421870365260722 -1.1481746800640757
