weights/init_z/24.npy (npy, 4224 bytes, 1 tensors)

array f8 [1, 512]
000000 e3 92 af fb 73 44 f5 3f 5d fa a5 31 1d a4 e8 bf
       1.3292121726491863 -0.770033452004849
000010 f6 3b 3c fa ef 3d d4 bf 12 1f e5 fb b7 b4 ef bf
       -0.31628035962142975 -0.990810386640961
000020 2d a0 de 39 10 22 f1 bf ca 61 53 37 f8 04 f7 bf
       -1.0708162556202396 -1.4387132798348028
000030 d5 d1 d2 ed b3 0f e2 3f 37 28 03 7f 1b ed d2 3f
       0.5644168515196336 0.29572188762233814
000040 56 53 02 72 c0 05 fa bf a6 3a fb 61 b6 1a cc 3f
       -1.626404233310685 0.21956519874807617
000050 a8 c6 85 d7 c4 b8 e5 3f 9d 73 2a 0b 76 3a fe 3f
       0.6788047990250634 1.8892727314152815
000060 91 7d 05 2d ec c4 ee 3f fc 27 e1 4b 7a a0 ba 3f
       0.9615383986783163 0.10401119568373923
000070 6e 3f 6c 9d 69 cb de bf aa 0b f8 76 12 35 eb 3f
       -0.481165317281003 0.8502285312282443
000080 0f 9f 16 39 3a 41 f7 3f 5e 36 d9 16 7e ec f0 3f
       1.4534246664060821 1.0577374355811098
000090 cd e6 1b 6c 1f 31 c5 3f 36 9e 50 d2 07 7b e0 3f
       0.16556160715827276 0.515018378039662
0000a0 c7 af 74 ac 16 64 f5 bf 29 25 cb 5b f5 02 e2 3f
       -1.3369356857829062 0.5628611367075439
0000b0 da ea 1b 24 22 49 f6 3f 27 8c d7 41 43 36 b0 bf
       1.39285482506846 -0.06332798345060607
0000c0 69 b3 bf 61 a8 25 bf 3f 9b 1b 02 0a 57 52 f3 3f
       0.12166836153455808 1.2076025381991033
0000d0 fe 59 20 0a a4 b6 60 bf af e6 f1 8c 73 0b fa 3f
       -0.0020402149102765046 1.627795744482153
0000e0 c5 13 56 82 02 b0 d6 3f 2c 18 34 93 b6 99 f0 3f
       0.35449278572224 1.0375276327263334
0000f0 75 76 7c e6 09 af d8 bf 48 b4 27 5c 59 a2 e0 3f
       -0.3856835127679468 0.5198180007843201
000100 ed 90 79 56 3e fc fa 3f 49 09 ac 21 25 37 f5 bf
       1.6865828874516027 -1.325963145762744
000110 41 c5 2e 03 1e dd f6 3f be e8 1b 60 ff b6 00 c0
       1.4289837002109638 -2.0893542774693676
000120 6b fb d1 90 f0 9d c0 bf 41 2f c6 9d 6f 35 e4 3f
       -0.12981993743229778 0.6315229493643316
000130 1b 32 80 79 eb c4 e2 bf 4a bc 05 66 28 9b d2 3f
       -0.5865380642949874 0.2907200809776823
000140 fb 51 5e 73 c4 39 f4 3f be 69 b7 0b ee 8f d2 3f
       1.26410336557194 0.2900347818773773
000150 8b ee 3b 3b 4d 86 ff bf 39 e5 c1 d7 98 b9 e9 3f
       -1.9702884973366135 0.8039058889400287
000160 17 63 d3 58 22 7d f0 3f 23 ef d3 93 aa 3b be 3f
       1.0305503339533908 0.1180979357631569
000170 a5 4e d2 f8 b7 60 96 bf d7 f8 52 8c 81 fb a7 3f
       -0.021853327333316703 0.04684071386280813
000180 12 68 73 28 5f 0f fa bf 30 59 17 98 6f 1c d9 bf
       -1.6287528591260565 -0.39236059048325256
000190 7f a0 d2 27 2f 37 fb 3f c0 14 d0 e8 34 fb f0 3f
       1.700972705419218 1.0613297552347802
0001a0 2b 46 4a db 05 44 e6 3f dc 37 a8 9a 3c e7 db bf
       0.6958035738954939 -0.43598857024414683
0001b0 c9 0e ab 5e ea 4e d5 bf 36 4e 2d b4 af 44 e3 3f
       -0.33294162030163627 0.6021345633584534
0001c0 c2 80 b4 dc 97 d9 bb 3f 57 2a 0b 68 1d d3 a2 3f
       0.10878895891483167 0.036766928625713895
0001d0 f3 36 a2 2f 30 3f e1 bf 65 f9 3c cf 87 f2 df 3f
       -0.5389634065956826 0.4991778873262745
0001e0 c2 bf 0e 0d 4f c8 e6 bf 2f 30 15 3a 0c 56 ce bf
       -0.7119517569571985 -0.23700096927712042
0001f0 42 7c 86 51 85 6d eb 3f 4f 47 b0 05 1d 1e fe bf
       0.857119235257308 -1.8823518964968178
000200 e9 be 9c 06 d5 ec da 3f d0 d5 15 99 57 1b f1 bf
       0.42070508619052177 -1.069175336827687
000210 1d 9c 8c 25 68 9d 04 c0 8d 61 ab 52 49 99 f3 bf
       -2.576858800271579 -1.2249234418178248
000220 80 fa fa 3c 0e 82 f2 bf c2 3a 41 9d 3e cd ed 3f
       -1.1567518598600657 0.9313042708762043
000230 32 c1 9e d8 08 7f ef 3f b8 29 d0 a4 2c cf 01 40
       0.9842571478712101 2.2261593700434013
000240 d6 3b 04 a5 c4 c8 da bf ca 51 2b 07 9d 5c d5 bf
       -0.41850391497513095 -0.33377767276877235
000250 e4 9d 54 36 e2 de c2 bf c3 f1 b7 c0 1d fb f8 3f
       -0.14742686894281498 1.5613076713626561
000260 63 c5 31 f0 24 e9 e5 3f 04 5f c8 da 61 2b 9e 3f
       0.6847099963471631 0.029462365129886883
000270 f1 f9 f7 7b 79 47 eb bf fe 5a 8b 7c e2 b3 ff 3f
       -0.8524749203932612 1.9814171662343933
000280 e6 06 fc 28 4b 15 fa bf 7b 87 db cf 9a 15 ce bf
       -1.6301986313778172 -0.23503432416242362
000290 b5 02 ce 7d 49 00 c5 bf f0 8f 72 d6 43 12 e5 3f
       -0.16407126086052917 0.6584796131542117
0002a0 53 29 43 49 20 ed f4 bf 05 d2 33 80 1a a9 f5 3f
       -1.3078921186266441 1.3537850387484707
0002b0 c1 01 7d 23 6e 73 c0 bf 43 68 c6 65 1a 25 ef bf
       -0.12852265103175678 -0.9732791888993763
0002c0 2e 9a de a7 ec 38 e6 bf b7 54 f0 b1 bf 01 a9 bf
       -0.6944487837507205 -0.04884146735290911
0002d0 25 99 83 9f 26 8c e2 bf 5a f5 ac ed 19 e0 eb 3f
       -0.5796082606800935 0.8711061136342935
0002e0 af c2 ba 12 dd 0c ef bf a9 d0 55 33 52 18 db 3f
       -0.9703202596484369 0.42335944188313107
0002f0 a8 04 21 67 81 96 ff 3f 0d a0 83 37 64 9c d3 3f
       1.974244501922195 0.30642037793450144
000300 8d 9f 95 28 f4 f9 ef 3f 1b 50 bd 64 2d ea eb 3f
       0.9992619316735599 0.8723360984390668
000310 f7 16 4a 4e 3f e3 fd bf 56 ab ec b6 20 b1 f3 3f
       -1.867980295007724 1.2307440896499506
000320 02 e0 1c 12 2c 73 c0 bf 78 2f c4 5b 42 ef ea 3f
       -0.12851477512754178 0.8417064468680868
000330 23 02 ea e6 2b ac f1 3f bc 84 02 c4 5c e6 dd 3f
       1.1045340557176437 0.4671852029951642
000340 f5 bb e8 f0 55 43 ca 3f 7a 8e c1 20 1d 86 f4 bf
       0.20517992270603683 -1.2827426223310838
000350 31 8b 72 ce 28 fb e9 3f 76 88 cd 23 c9 ef b7 3f
       0.8119091064621441 0.0935025894555411
000360 23 c4 03 de 92 70 de 3f f3 58 fd 35 2b b3 ef 3f
       0.4756209533798616 0.990621190498841
000370 ef 94 18 53 71 e6 f1 bf 34 39 3c 10 7c c5 ef 3f
       -1.1187604185045605 0.9928570096106228
000380 31 da 29 d6 8a 3a f6 3f 93 a8 a2 ac 32 74 d8 bf
       1.3892925611268192 -0.38209215983318606
000390 75 37 ea 4d 33 18 fc bf 44 a2 de ff 9c da 00 40
       -1.7559083026457902 2.106744765264269
0003a0 25 16 b9 43 74 6c e5 3f 40 55 2e be 4f 72 df 3f
       0.6694890330042581 0.4913520200000967
0003b0 06 07 02 59 30 6f 7f 3f e5 d9 e7 9a b2 c6 e3 bf
       0.007674397333291122 -0.6180050874234523
0003c0 ec f5 52 1b 80 f7 e4 bf c9 1a 74 18 3f ff c0 3f
       -0.6552124532387871 0.13278950399418069
0003d0 5b 21 24 bf 73 a7 b1 3f 41 30 6b 19 56 a5 d6 bf
       0.06896136681109992 -0.35384132845206656
0003e0 e4 f4 8e e3 72 cb ec bf 4b 21 f3 cf c4 35 c3 3f
       -0.8998350567341302 0.1500783934955144
0003f0 ee 37 e6 aa 5a 7b f2 bf ad 50 dd 9e 9b 35 fa bf
       -1.155115764212947 -1.6380878644604693
000400 f9 53 21 80 7a 03 f7 bf 69 bd 10 19 ec a8 fa bf
       -1.4383492474637463 -1.6662407855145267
000410 cb 1e 0e 28 0c 40 e2 3f 6b c2 a3 05 e6 50 e9 bf
       0.570318296654443 -0.7911253080511192
000420 3a 88 85 51 ef 82 e7 3f 47 60 24 ae ed 11 d6 3f
       0.7347332565516418 0.3448442650419605
000430 ff b8 d8 48 a5 42 fb 3f df 05 40 00 c8 2e e6 3f
       1.703770908886838 0.6932106022724688
000440 a5 49 b7 8d 3c b4 e7 3f 02 38 e9 ae 2e d7 e2 bf
       0.7407515304460516 -0.5887673774939233
000450 c4 43 fa b4 79 15 fd bf 13 1e 44 67 64 49 e3 3f
       -1.8177430219113697 0.6027090088763906
000460 89 1c 0b 53 08 23 f2 3f d8 bd 9d 82 e2 42 dc bf
       1.1335528606303191 -0.44158232455717217
000470 0c b6 ba fe e4 ae e1 bf ae e7 16 58 2b 50 db bf
       -0.5525994277174404 -0.42676814653861583
000480 c7 7d 1b fe 1a 8c e7 bf a2 eb ff a6 28 53 f2 3f
       -0.7358527148280068 1.1453024409699784
000490 c4 46 8b 75 c9 54 c6 bf f8 44 1d dc 1f 7f e7 3f
       -0.17446249236541267 0.7342681216343001
0004a0 05 6f 8d 32 e8 cf d3 3f a6 dd 1c f6 74 f9 ec bf
       0.309564637534763 -0.9054512793435847
0004b0 3a 12 e6 28 2f 1a fe 3f fc de 03 57 53 fa cc bf
       1.8813926313024596 -0.22638932942185608
0004c0 85 be 40 f4 a5 c4 e9 bf 2e 99 a6 07 63 80 f6 3f
       -0.8052549143375961 1.4063444422586815
0004d0 9b f8 eb 90 50 bd e4 3f 96 d2 31 45 f6 59 d7 bf
       0.6481097059729736 -0.3648658443192202
0004e0 3d dd 52 8d cf 57 f0 bf 9e 23 6d 4b 6a db f7 bf
       -1.0214381714302612 -1.4910681673374948
0004f0 9b fd aa 58 76 e5 ef bf 18 99 eb 66 f6 0e da 3f
       -0.9967605335040618 0.4071632390099622
000500 a1 63 db c7 92 45 ed bf 38 b0 f6 0e 38 0b f0 3f
       -0.9147428420502487 1.002739008380571
000510 db 8d 0b 7d bd 89 dc bf c7 bb 0e e1 3f 70 ea 3f
       -0.4459069939750557 0.8262023349433257
000520 6e 37 41 90 a0 80 eb bf 34 59 a2 bd 41 ec c0 3f
       -0.8594515626407266 0.1322099853466142
000530 02 26 4b e6 2a 9a b4 3f 30 c2 d7 9b ef c4 c4 bf
       0.08047741053010074 -0.16226000890266468
000540 cf 72 93 f6 91 2a 93 bf 57 d3 b9 f3 99 23 e0 bf
       -0.018717079806139843 -0.5043458709975351
000550 58 b1 76 63 b0 bc c5 bf 0e f5 b3 e6 55 7b fd 3f
       -0.16982083183882923 1.8426112186273857
000560 7b ea 21 47 63 d9 cc 3f 06 b7 91 88 d4 35 f6 3f
       0.22538414929643466 1.38814214083999
000570 ba 91 43 b1 9d b8 f6 3f 8f ec ad 39 0d 09 e2 3f
       1.4200722622273205 0.5636049391317942
000580 ee 58 32 df e4 a6 f3 3f 85 80 db 9f d5 f4 de 3f
       1.228245612966528 0.48369351016118173
000590 2f fa 41 54 eb 97 a0 3f cd 6b 30 04 2c f2 cf bf
       0.032409051928869885 -0.24957800106571285
0005a0 90 c0 9d d1 28 4b e5 bf a8 ed 6a 4a f7 53 eb bf
       -0.6654247373644626 -0.8539997533293233
0005b0 dd 75 eb 0c 47 ff fe 3f 39 f3 54 ac 88 9e 84 3f
       1.9373236183813483 0.010068004378462102
0005c0 23 2e fc 13 34 f7 ae 3f c5 aa ed 9c 3e 45 ee 3f
       0.06047976249655231 0.9459527077682074
0005d0 76 f7 de f1 f4 f5 06 c0 6a b7 76 25 6b 82 d6 3f
       -2.8700961013955135 0.3517101159912871
0005e0 28 06 aa 6b c8 fd d0 3f bb 19 4d a6 f4 0f bb 3f
       0.2654896785171297 0.10571221408927205
0005f0 7e f7 eb fb 80 7c e2 bf b8 9a 6f 73 c7 f1 d9 bf
       -0.5776982231470666 -0.4053820254616016
000600 2c 3d 28 a8 cf 71 f1 3f 46 29 e5 ab 1a d6 f6 3f
       1.09028592764282 1.4272715296416023
000610 c3 4d c1 36 e6 2c e6 3f ba 61 a9 e2 a5 b4 c7 3f
       0.6929808682856947 0.1852004391428304
000620 81 d2 08 fc 9a 80 bb 3f ec ae ca c6 90 4a cb bf
       0.10743111279664143 -0.21321305948855895
000630 d2 85 de af 8f 1a f2 bf 19 c8 3c 17 00 ea d3 3f
       -1.1314846868411803 0.3111572482040415
000640 ae 53 83 41 b3 ac e9 bf 36 cc df 2b 16 67 fc bf
       -0.8023315696287818 -1.775167628654129
000650 a9 2c 99 e3 9a b2 c1 bf 17 b6 98 47 cc 22 de bf
       -0.13826309312057575 -0.47087389938209995
000660 24 b9 de 10 d5 16 d4 bf 9a 52 a3 46 b6 b8 d3 bf
       -0.31389357230627213 -0.3081489267181411
000670 0f 51 1e fb a4 cf f4 bf 3a 1e e8 ff ec d1 e2 bf
       -1.3006944474519206 -0.5881257055452302
000680 d2 d8 99 ee b0 03 e5 bf 64 fe db d4 83 c7 fa bf
       -0.6567005787062732 -1.6737097086733224
000690 9b e3 c9 8b d8 77 d4 3f b5 0f c4 fb 84 cf e9 3f
       0.319814812195142 0.8065819661428494
0006a0 ce f1 d0 8e db 85 ce bf 72 d5 d7 09 bf 7b d0 bf
       -0.23846001122900734 -0.25755287133446025
0006b0 e6 4d 16 65 b3 a5 c0 bf d0 fc d3 00 45 cd c5 3f
       -0.13005678592581588 0.1703268293422071
0006c0 97 09 c8 34 ec 47 f3 bf 4f 91 1f 65 ac 5b bd bf
       -1.2050592481396956 -0.11468007534819445
0006d0 bc bc f1 b9 38 f0 e0 bf 91 6e f7 ad c5 ce f1 bf
       -0.5293239242290819 -1.1129814906661617
0006e0 a8 f6 c6 ea 07 9b d0 bf f7 15 25 4f 56 c0 ef bf
       -0.25946233680211117 -0.992228655414407
0006f0 bf 19 78 b3 b9 82 dd bf 7c 01 44 28 63 62 e7 3f
       -0.461103844893298 0.7307601725042754
000700 13 7d 9e 2e 1e 5c fa 3f b0 e6 45 1d d7 cb e1 bf
       1.6474897213991582 -0.5561328479518206
000710 6d 51 32 c4 34 cc f4 bf 57 f6 48 a7 f6 fc f1 3f
       -1.299855009453576 1.1242586645670565
000720 95 9f 63 07 06 81 f1 bf 71 06 d2 11 12 2e d2 3f
       -1.0939998901976413 0.2840619253184747
000730 93 9a c8 30 92 e8 93 3f 48 d8 c4 46 1c 86 c3 3f
       0.01944187567473905 0.15253022628320623
000740 61 c7 08 42 2c 56 d5 bf 40 67 4f 5b 47 a1 f5 bf
       -0.33338457535420757 -1.3518746916583524
000750 09 a7 f7 25 71 42 e5 3f 86 91 6d d5 c4 be d0 bf
       0.6643605939436564 -0.26164360849932
000760 59 38 51 9a 94 37 f0 bf 1a 6d e0 82 d3 23 c0 3f
       -1.0135694530504422 0.1260933293386664
000770 12 be 70 55 8d 7d e9 bf 76 25 41 bb 36 b5 01 40
       -0.7965761822469537 2.2134832982307513
000780 f4 4e a1 9d 69 6f e0 3f 64 41 98 38 fa 2c ee bf
       0.5136001661980729 -0.9429904084554832
000790 53 b4 7d b7 87 74 c7 bf e5 52 37 ed 5d 46 e6 bf
       -0.1832437177612599 -0.6960897095801469
0007a0 96 29 89 72 b0 70 ee bf 8f 5d ec fd 42 ad ed bf
       -0.9512560116793789 -0.9274001082839493
0007b0 ba 80 ec 9b d9 12 d6 bf f3 cd ae cb 11 d4 cf 3f
       -0.3449005148595564 0.2486593479676312
0007c0 68 55 20 8c 06 db b2 bf 31 58 4e 0b b6 02 d9 bf
       -0.07365456505825352 -0.3907904730234604
0007d0 65 49 02 8f 94 34 d4 3f a6 bf dc 81 9a 70 ef 3f
       0.31570924726215416 0.9824955498097452
0007e0 b4 a5 29 8e 5a 90 e1 bf 71 6e 6a e8 3d 48 f5 3f
       -0.5488713051428733 1.330137164949431
0007f0 51 09 a9 6b a8 2c f7 3f 25 1d 6e ca 69 7c ef bf
       1.4484028058510214 -0.9839371637071151
