weights/init_z/28.npy (npy, 4224 bytes, 1 tensors)

array f8 [1, 512]
0.4463323778700458 1.6691200510079733 -0.26427996182377783 -0.9678349293737798 0.059188425297189665 1.5146199891809016 0.3368704439473176 -0.30236870196778015
-0.838641803575626 -0.5177312510310029 0.2535078637970811 -2.4847039860387983 -0.6514198681046239 -1.7754691520095647 0.234285827021381 1.2393998588645518
-0.6503342749455817 -0.2662149259177863 -0.5387197708014494 0.4207405283608752 -0.09528632594099248 -0.7698760981379379 -0.18372453368830574 0.17680894649065493
0.737056190505862 0.6938626422156343 -0.815530330059005 0.3876804541976694 0.10653700578986429 -0.3145769234612008 -0.6997128553310978 0.052988279611467834
0.9341078434725953 1.4598721347420383 -1.5788771165879707 0.952266433562546 -0.6024594416987342 0.4614449233389358 -0.003959146814871652 0.777348026060828
-0.4931128059547933 0.6085308646238607 0.3142341829166473 -0.7113037646184401 1.0052960444339158 0.21125896828592608 -0.8731488378408899 0.9841570691238846
-0.07020317217219083 1.7787220159391033 -0.04265609203658275 0.046480154794840446 1.0008995686322566 1.3210466567202714 1.1710962945146826 -0.7851948367076599
0.5037158199535633 -2.209686928480258 0.2218390352386404 -2.2044528160199093 0.6681716263117294 -0.45268081846262287 -1.4862624639850814 0.9367801669775256
0.31401692321886904 0.21869421153373822 0.6581880846423186 0.4394821009433764 0.2565541530545515 0.2248761599555041 1.4576876721474772 -1.5422559671543707
-1.4858282972912433 -0.4868576588328663 0.23442597258940556 -0.05697023907903364 1.514249806063117 -1.3743752937176354 -0.4227515260315041 -0.050472564987916316
0.7348802572484017 -0.7020803350143991 -0.31016571087381595 -1.1982389773157316 0.804448651646918 0.18561045472395526 -2.8774226651402866 0.29969372099301983
-0.5620629842854186 -0.6951357409897 0.0860073002589315 1.3798628634629857 -0.6274185244218139 -2.1896371008383255 1.148200701545873 2.098817978651245
-0.09021629471879893 -0.41717311184030065 -0.034392456393707665 -0.8513075860641266 0.08729701390214746 0.08950132764882128 1.4159204238348881 -0.8416151493748211
0.6123955022406152 0.4209253364133008 0.647174082451123 -0.06248269397486647 -0.03936926917489769 2.272766915940227 0.5882204556012576 -0.7038230248849786
-1.2301887741297735 -0.5450440618253786 -1.0500214156420882 -0.6340959477898052 -1.0389922093561161 -0.25690718116262984 0.48731485724246554 1.1150186881201223
0.8658604491972962 0.7697157116680319 0.3764213279713585 1.3329298621775767 -0.11814452030985372 -0.34357633163744755 0.8547147964165915 -0.29330598502104543
-0.2466967335490956 -0.3070289811221615 0.02363316168127733 0.5914463167782517 -1.6006306087512168 -0.027688809657142405 -0.3937419308025085 -0.5229330861288183
0.9016743063923514 0.2005820139409988 1.5255637106871935 -0.014732469643287343 0.28755545427250084 -0.9597583185669626 0.01884706982161754 0.8863718963398032
1.7656123816017673 -0.3113810815640663 -0.0821661604570623 -1.8539222308667769 -0.21475391990805542 0.25771035929772573 -0.26975890476743225 2.1977911713418523
0.30214187992415853 1.429529154147113 -0.8597176967694854 -0.57955129264439 2.1789526049744157 0.1218349054665966 -0.8251940944552822 1.5003014473226548
-0.9290281336183519 -0.957612710822282 0.13465257392093774 -0.6204534275127146 -1.3184358096707238 0.07778961765323174 -1.3598386012003951 -0.15870461388603915
-0.9485330492876478 0.5039496194073987 3.9966026385775546 -0.514234260742518 -0.565637686487742 -2.807462041315097 -0.219307064066224 -1.5247928527819306
0.9047805602373279 0.5006660651897183 -1.2106748229085473 0.7775964009079072 -0.437398644649179 1.9338320483856504 -0.33258567144212153 1.4419879665849833
-2.236566545173362 -1.727799085584972 -1.3665789433046696 -0.055964886838537 2.4809269607954683 1.9680891164659622 -1.0597172721045474 -1.020201287081375
-0.4722074463238236 -0.9332814688494673 0.3229779539647967 -0.6407317321883478 -1.5501938129534543 0.26982528609406975 0.18863447174440942 0.413298950886131
1.300776185283456 -0.3266267492051708 -0.288519548539013 -1.0712927670830565 -0.16634031140015548 -0.6173594667066605 -0.6812438639605168 -0.2990270204835296
-1.5832783204681775 1.2111424210400885 0.8131291857349333 0.08047770193570092 0.18248457595104184 -0.2526399329869447 -0.0605331658372058 -0.7424096708282008
-0.6713176320837044 -0.16341057310718393 1.1317051801942062 -0.9535737322810014 1.1595425708289275 -0.33290657949269076 -0.2791384299842278 0.8025662809083193
0.8785337115934083 -0.44589036719236186 -1.082094945837205 -2.506639762082344 -0.31839997165322936 0.4170516893070378 -0.3110803530508326 0.6475951039310015
3.04006854743084 0.23074346627191708 0.07184969992219133 0.556795091618876 -0.38757615735326023 -0.09109613484426198 -1.6306311011974401 1.1502470848838826
0.423201810370477 0.1317850991263246 -0.6127535273870368 -0.19541323436606128 -0.9781365988241156 1.137320904139263 0.012714301734415982 0.6735594596888624
-0.37565309759701654 -0.5755600452572044 1.1424308535619652 1.1711372946404288 -1.3293133468254723 -1.3895824127654723 0.2446798114532537 0.4566028736404154
00000000: b741 86ad b590 dc3f 64d5 023a b7b4 fa3f
00000010: 3b5c 4180 f6e9 d0bf 82c7 32f5 80f8 eebf
00000020: ba05 e8fd f14d ae3f c565 762b e23b f83f
00000030: e488 ef0c 498f d53f 0d47 9241 025a d3bf
00000040: fc4d ed55 27d6 eabf 4b73 e920 4191 e0bf
00000050: e462 120c 7939 d03f 4738 c27b ace0 03c0
00000060: f42a af7a 6ed8 e4bf c601 6f57 5268 fcbf
00000070: 0090 7cf6 13fd cd3f 21d8 47f2 94d4 f33f
00000080: 1f7e 4bd3 89cf e4bf 7a88 2154 aa09 d1bf
00000090: 7da0 a93e 313d e1bf 9d59 5aae 69ed da3f
000000a0: d62c ac45 af64 b8bf 592f ef32 d3a2 e8bf
000000b0: ff01 d517 4984 c7bf 5ca6 68f1 aca1 c63f
000000c0: 4b2f 31dd f695 e73f fd6e 876d 1f34 e63f
000000d0: 01fc 0f10 d318 eabf 62f4 04ae c1cf d83f
000000e0: 1365 ae5b 0246 bb3f d4e5 953f 0722 d4bf
000000f0: 6c9c c736 0c64 e6bf 464f 01a0 4721 ab3f
00000100: 3cdc d421 36e4 ed3f aef0 30e2 a25b f73f
00000110: ac5e c2a6 1443 f9bf a359 a774 f778 ee3f
00000120: 4166 e805 5947 e3bf 5957 a949 5088 dd3f
00000130: 0f61 7061 7737 70bf 3f53 b1f7 08e0 e83f
00000140: eb22 b403 298f dfbf 9250 45b8 1579 e33f
00000150: d462 bab0 691c d43f 2cda d11c 00c3 e6bf
00000160: f144 1a4e b115 f03f 212b e3ab 880a cb3f
00000170: 1b25 e2d4 d5f0 ebbf 1c75 40f7 367e ef3f
00000180: 9615 8ec8 d5f8 b1bf 6323 7237 a575 fc3f
00000190: 7569 8bf0 04d7 a5bf cd82 8331 3fcc a73f
000001a0: 61b2 1d44 af03 f03f c6a8 b1d1 0123 f53f
000001b0: 7d84 d677 cfbc f23f fdb7 14ec 5020 e9bf
000001c0: 47b5 a5a3 701e e03f 6dc5 2157 70ad 01c0
000001d0: 5abf a9b4 3865 cc3f 800b 7328 b8a2 01c0
000001e0: e6f7 6376 a961 e53f deb3 b4f7 b8f8 dcbf
000001f0: b069 4126 bbc7 f7bf 6fb7 9666 1afa ed3f
00000200: c165 e76f da18 d43f 1f53 2e03 2cfe cb3f
00000210: fdfa 4475 e00f e53f c3aa ae88 7920 dc3f
00000220: fd6c 411c 626b d03f a358 54f4 bdc8 cc3f
00000230: 187e fa4e b052 f73f 6cd2 cf97 14ad f8bf
00000240: 6665 85e4 f3c5 f7bf 63a2 9f06 ad28 dfbf
00000250: e85f cd96 ab01 ce3f ff26 6103 342b adbf
00000260: 343f 3001 5e3a f83f 8729 aff2 70fd f5bf
00000270: faeb a86a 5c0e dbbf a2c9 ef3f 8ad7 a9bf
00000280: 5874 eb99 2384 e73f 72a6 c12d 7177 e6bf
00000290: daca 2248 c1d9 d3bf 1dd1 45a2 fc2b f3bf
000002a0: 5c50 4419 0bbe e93f cae3 6a58 15c2 c73f
000002b0: 9f5f 9c2c f604 07c0 06d2 9e92 2e2e d33f
000002c0: 8089 f982 6bfc e1bf 8d9b 3a4f 8d3e e6bf
000002d0: 2451 d40d 9304 b63f 709d f814 eb13 f63f
000002e0: 077b 6903 d013 e4bf c0ab d174 6084 01c0
000002f0: f823 e6b2 075f f23f ea82 9414 61ca 0040
00000300: 9b2f 6243 6a18 b7bf 21fa 07da f6b2 dabf
00000310: 3c52 e156 e39b a1bf 9a6d 1f68 e93d ebbf
00000320: c588 bfdb 1859 b63f c344 331b 8fe9 b63f
00000330: b5bf a12c 9ca7 f63f a141 cce4 82ee eabf
00000340: f5e8 ca73 be98 e33f b9fc 7cd2 70f0 da3f
00000350: c048 de6b a6b5 e43f 2c45 604e bbfd afbf
00000360: c0af 2577 3528 a4bf 0727 bb6b a02e 0240
00000370: eea8 74b4 b3d2 e23f 5ab0 41dd b785 e6bf
00000380: 07b3 8c6c daae f3bf 7968 8d3e 0071 e1bf
00000390: ad84 8441 e3cc f0bf 1811 c995 834a e4bf
000003a0: 9dbb 7f4b b69f f0bf e1dd 4cd1 2a71 d0bf
000003b0: e985 ada7 2a30 df3f da79 fed5 1dd7 f13f
000003c0: e378 06f9 20b5 eb3f 299c 1ad8 82a1 e83f
000003d0: 16d9 497b 4917 d83f b5a1 5e43 ae53 f53f
000003e0: b3b3 ee22 b83e bebf cbff 0395 27fd d5bf
000003f0: a687 40d8 d259 eb3f b2bb 5877 86c5 d2bf
00000400: 4ccb 4f31 c293 cfbf 3602 36e2 5ca6 d3bf
00000410: d1b2 16a2 4a33 983f 35df 7cd3 20ed e23f
00000420: 3e02 59d7 2e9c f9bf c837 c58f 745a 9cbf
00000430: 3415 f75a 1133 d9bf 936d dd2a debb e0bf
00000440: 0028 3313 84da ec3f 8f6d 05e3 abac c93f
00000450: bcda 557e b568 f83f 0336 759a 0e2c 8ebf
00000460: 92c1 f8fd 4e67 d23f c5e3 c913 57b6 eebf
00000470: 9e7f 0972 a54c 933f 43ef 5b98 285d ec3f
00000480: b546 c6c4 f23f fc3f 1c4a 7aea aaed d3bf
00000490: a33f 006c d708 b5bf 1767 6e5b aaa9 fdbf
000004a0: feb0 5873 0e7d cbbf 898b 4197 537e d03f
000004b0: 44fa 71da ba43 d1bf 6ace a289 1395 0140
000004c0: 96ad 41e5 4a56 d33f a6d8 5bf6 59df f63f
000004d0: 375b edaf ce82 ebbf c863 0827 af8b e2bf
000004e0: 6731 0fb4 7e6e 0140 4183 7d86 9230 bf3f
000004f0: 6e35 1172 fd67 eabf bc46 2617 3c01 f83f
00000500: 3a8d 5e35 99ba edbf 40e6 6669 c3a4 eebf
00000510: eb04 a8a8 4b3c c13f 8176 7b25 c1da e3bf
00000520: 9e93 c625 5018 f5bf 3dfa c937 05ea b33f
00000530: c4e7 ff1e e6c1 f5bf 43b3 2ecb 6e50 c4bf
00000540: 06b3 3bfb 615a eebf 30f7 c5f3 5a20 e03f
00000550: 1c62 decd 0af9 0f40 35e6 8b68 9b74 e0bf
00000560: d132 9b34 b419 e2bf 8dad a1a8 ae75 06c0
00000570: 5f1d f9fd 4012 ccbf 8af7 bd30 8d65 f8bf
00000580: 05d4 885c f6f3 ec3f 789e 06d7 7405 e03f
00000590: 8fb9 2790 ec5e f3bf 6360 ecd8 11e2 e83f
000005a0: 0a4f 85e2 56fe dbbf 725e bcdf f9f0 fe3f
000005b0: 4393 7d69 1549 d5bf 2654 5bf9 6112 f73f
000005c0: 43c7 3600 7de4 01c0 ac56 6aa7 10a5 fbbf
000005d0: 2c55 cee1 81dd f5bf 6747 64fd 6da7 acbf
000005e0: b80c 033c f0d8 0340 845b 6d03 4b7d ff3f
000005f0: 3620 2b19 9af4 f0bf 35a0 b595 be52 f0bf
00000600: 26dd b894 a538 debf 547b 5519 71dd edbf
00000610: 1fe6 66b9 abab d43f af44 68d5 df80 e4bf
00000620: c98b 1107 98cd f8bf 981a da46 d144 d13f
00000630: 452e 85a3 2c25 c83f 12bb 6171 7d73 da3f
00000640: 4c54 73b0 facf f43f af70 75e1 73e7 d4bf
00000650: ebd4 4eb2 1a77 d2bf 5902 71e2 0324 f1bf
00000660: 042d bcaa a34a c5bf 0932 eca3 68c1 e3bf
00000670: 79f4 89ee bfcc e5bf 9636 663a 4223 d3bf
00000680: ad06 eea5 1b55 f9bf a7a5 12e0 d660 f33f
00000690: e1f2 847f 2705 ea3f 88fe dec9 2f9a b43f
000006a0: b8f8 dd92 a75b c73f 7dec 75ae 402b d0bf
000006b0: 8f33 30ff 33fe aebf b31e 0eed d1c1 e7bf
000006c0: aee2 601d 6f7b e5bf c671 a83d a3ea c4bf
000006d0: cf5d 1ae4 761b f23f 0617 4f0f ad83 eebf
000006e0: e97a c082 7c8d f23f 52d6 e265 574e d5bf
000006f0: e6b2 f56e 67dd d1bf 5ff4 2b7b 9fae e93f
00000700: 1945 f7ba f21c ec3f fa53 2cc0 7789 dcbf
00000710: 5d9a 38ca 4250 f1bf a1f9 c725 990d 04c0
00000720: 9111 5346 aa60 d4bf 8d2d 9491 f9b0 da3f
00000730: 7003 b291 bde8 d3bf 30de 0d5e 19b9 e43f
00000740: 6c82 6675 0f52 0840 f3a7 b37c 0089 cd3f
00000750: 6daa 64ef bd64 b23f d671 a2f0 43d1 e13f
00000760: 9ea9 223a 0cce d8bf 6bb7 f287 1352 b7bf
00000770: 4dbc 37a3 1017 fabf 6d54 be7c 6967 f23f
00000780: 5e8c c90b bd15 db3f db80 6c89 55de c03f
00000790: d059 1449 ad9b e3bf 8866 6705 4d03 c9bf
000007a0: 470c df1f e54c efbf 545d 8567 7732 f23f
000007b0: ef57 20b1 f409 8a3f 93cd 6891 cc8d e53f
000007c0: 817f 344a b30a d8bf 7772 68e6 fc6a e2bf
000007d0: 10d7 1f93 6547 f23f 76b4 b975 fabc f23f
000007e0: 0007 6c12 de44 f5bf a8ca 9ec4 ba3b f6bf
000007f0: 2572 1706 ab51 cf3f a2e4 6242 fb38 dd3f
