weights/init_z/29.npy (npy, 4224 bytes, 1 tensors)

array f8 [1, 512]
000000 4d 20 c9 f3 06 b8 da bf bd e3 5c 9f d0 97 e6 3f
       -0.417482126304553 0.7060320961528458
000010 57 b2 4f 93 df a7 fe 3f 4d 82 91 b4 50 22 01 c0
       1.9159847025249712 -2.1417554957300013
000020 89 96 6c 98 83 02 e7 3f 54 63 36 8a 84 e4 dd 3f
       0.7190568902048692 0.4670726155978191
000030 7b f1 ec b0 fd 88 e8 3f b0 62 2b df 6b 39 ec 3f
       0.7667225318505609 0.8820094450739671
000040 ea 72 0c 10 49 e1 e9 3f 50 ea 5c a7 2c 4f ee bf
       0.8087506593179488 -0.9471648472602485
000050 85 79 10 d7 54 84 c0 bf fd a0 33 3b 02 30 e4 bf
       -0.12903843403996632 -0.6308604389460296
000060 f2 46 ec a9 c7 03 f7 bf c3 21 21 e8 dc de e4 3f
       -1.43842283607631 0.6522049459245455
000070 d6 85 7d a5 ac 84 ef 3f 9f 52 d2 16 7d 4f f2 bf
       0.9849456054909591 -1.144406403681536
000080 b5 d7 a8 a8 ed c1 d8 3f 7a 58 68 bb 2a 4d db 3f
       0.3868364474359354 0.42658489514850084
000090 dd 4b b1 5e 08 da 00 40 03 32 9b 5e a8 53 c9 bf
       2.1064612768036413 -0.19786553019947925
0000a0 46 2e 99 b7 94 cb cf bf b9 22 bb 4f cc 6b fb 3f
       -0.24840029682887826 1.7138178934566624
0000b0 17 0a 88 f5 1b 82 d1 bf 00 05 c8 f3 42 8f f5 3f
       -0.273566236283075 1.3474759600360926
0000c0 69 fb a5 43 4e f7 d5 3f 07 a3 bb cd 5e a9 ec bf
       0.3432193432453717 -0.8956750887128643
0000d0 5a 61 09 be 2d f2 00 40 b8 30 7d 1e 6d 4f d2 bf
       2.118251309071792 -0.286097793363989
0000e0 f3 98 fc 31 1f 22 cf 3f df b7 95 38 a5 ce e3 bf
       0.24322881642110125 -0.6189752679035755
0000f0 17 41 ad 2d a2 34 fa 3f 3a 7b 44 7c da c1 ad bf
       1.6378499778985025 -0.05811960951745339
000100 f7 20 69 7c 1b 64 fd bf 61 b3 52 88 7f e9 e8 bf
       -1.836940275172365 -0.7785031950530589
000110 e7 fd 27 87 93 a9 ea 3f f8 02 bb c6 e2 ac a6 bf
       0.8332002296228297 -0.04428776431951137
000120 59 3d 5d db 9a bd e1 3f ad 3a 0a e4 73 24 da bf
       0.5543951305825586 -0.4084748961403573
000130 05 60 69 c5 b8 b3 dd bf 4a af a8 96 a8 c0 da 3f
       -0.4640943458412042 0.4180089446333467
000140 01 d1 ff aa 9b 62 e2 3f 67 30 00 0b 6b f2 fb bf
       0.5745371188955063 -1.7466841153828
000150 ab b4 4f 40 db 1d f6 3f d1 90 15 5f 85 36 f4 bf
       1.3822891723787432 -1.2633107866504825
000160 4b de bf 62 9d 78 d0 bf cd a1 fa 99 8e f3 ee bf
       -0.2573617424345442 -0.9672310836222607
000170 07 e4 0b 3b 84 4e f3 bf cc 7a 94 4e 52 59 05 40
       -1.2066690737249262 2.6686140193045045
000180 dd ee b1 dc e4 c4 03 c0 ab 06 aa 77 fd 96 b2 3f
       -2.471139644794546 0.07261642619598756
000190 04 25 63 4b 56 16 da bf 8b 16 7c 44 55 52 f2 bf
       -0.40761334764518176 -1.1451008486923537
0001a0 fc 8c 43 24 62 96 02 c0 4c 07 27 ea c5 9c b5 3f
       -2.323429377852902 0.08442341772663758
0001b0 e0 e3 5b d9 7b bf e6 3f 89 88 f9 e2 00 7e ea 3f
       0.7108744855205451 0.8278812821483977
0001c0 44 27 f0 79 09 7d f9 bf ea a6 83 08 74 41 e0 bf
       -1.5930266154486654 -0.5079898992819072
0001d0 88 e1 76 51 be 68 04 40 17 45 8f 07 b6 f9 fa bf
       2.5511442531971547 -1.6859646125124692
0001e0 82 c6 8c 9c 96 9e de bf 6f be af 8d 31 df f2 3f
       -0.4784294632728249 1.179490617239846
0001f0 f2 08 bc b7 a3 8f 7c bf c4 b2 93 6d c7 9a ef 3f
       -0.006972922823253779 0.9876439228224503
000200 f4 f1 56 64 09 42 cc 3f 11 bc b9 92 86 8b af bf
       0.22076527976413696 -0.06161137143214302
000210 5f 56 55 f0 ba 9c f0 bf 0b 99 c1 88 69 1c d3 bf
       -1.0382642162343456 -0.2986091456899806
000220 30 9b 63 ed ae f7 d7 3f fe ee 70 f7 fa 22 eb 3f
       0.3744923895123291 0.8480200608096025
000230 70 ad 12 b3 bd 86 f1 bf b3 30 e2 d1 0a 6a da bf
       -1.0953957552945575 -0.4127223062175844
000240 b0 60 9b 14 bd a6 f3 bf 00 1b b7 d9 a1 94 ed 3f
       -1.2282076649626497 0.9243935825587357
000250 0f 73 ec ad 5e c6 cd 3f f8 ba 09 a9 52 a3 e4 bf
       0.23261626713146952 -0.6449368764423005
000260 8b 41 85 da 7a 3c d5 3f 15 21 dc 8f f3 46 f9 3f
       0.33181639995475426 1.5798221225287012
000270 00 63 a5 13 b8 16 f8 3f eb 19 7f 6a 60 82 dd 3f
       1.505546643011428 0.4610825576786783
000280 f9 1a 3c e9 0f 0b 0c c0 24 bd 6f da a5 cb c6 3f
       -3.5054014417140675 0.17808983960956326
000290 f6 16 cf a5 35 5e a3 bf 5c 2f 60 dc 27 99 ea 3f
       -0.03782813691172564 0.8311957649434407
0002a0 01 6a 17 64 c7 b3 e0 bf 55 0f 7e c6 4a db f3 bf
       -0.5219456629668572 -1.241038108216306
0002b0 bc d7 72 73 f2 ee cd 3f 56 95 22 77 f0 52 f1 bf
       0.233854586001767 -1.082748856898737
0002c0 4c ad 09 3a a2 30 cf 3f 29 45 92 86 0c 65 e5 3f
       0.24367168268086414 0.6685850742671039
0002d0 1d 1b a9 ca 5c c0 f4 3f 29 58 93 db 35 b3 ef 3f
       1.2969634930065645 0.9906262672982439
0002e0 df 16 89 1a 12 41 fe 3f dd 72 cf e7 eb 52 d4 bf
       1.8908864056151555 -0.3175611270687975
0002f0 da 22 ff 80 51 aa c5 bf 28 d6 b1 d9 74 7c 02 c0
       -0.16926020430243832 -2.3107697493931205
000300 23 39 4a 92 6b e7 e1 bf 35 af 7e ba 2b 3b c9 3f
       -0.5594995362496643 0.1971182499522627
000310 a5 e9 a3 9b c6 61 fb 3f 8b 6f db f7 98 40 d0 3f
       1.711371047944888 0.25394272045900185
000320 b5 fb 37 38 ed 19 fe 3f ed 4b c3 b1 7e 22 ed bf
       1.8813297458689082 -0.9104608032160947
000330 71 74 7c 34 23 be f9 bf d9 f2 7a 77 12 f2 e0 3f
       -1.6089202928772262 0.5295498212431894
000340 1b 36 7b db 00 24 dc bf 1c fb f6 55 25 83 bc bf
       -0.4396974700328841 -0.11137612675427672
000350 f1 7b c6 6f 6a 96 01 40 69 01 7b 34 b2 6b e2 bf
       2.1984451992461733 -0.5756464982041908
000360 1d de 65 91 71 4e d2 3f f3 b6 79 7e 41 9d f1 3f
       0.2860378188993041 1.1008925381133252
000370 ac e4 80 9e c3 3c ec bf 29 f2 54 e3 7a f5 f2 bf
       -0.882417497231605 -1.1849316482686254
000380 e7 df 5a a6 79 b0 ce 3f 05 bc 1c 48 d6 bf e6 bf
       0.2397605955391093 -0.7109176071588769
000390 75 f9 26 6a d8 e7 fb 3f 24 c8 de 0d 07 a9 e5 3f
       1.7441028734752682 0.6768832465079453
0003a0 5b 8a bf a8 a8 5f f2 3f 92 42 90 44 e4 bc f1 3f
       1.1483542052962068 1.1086161306631408
0003b0 f0 66 b0 41 e0 6b c7 3f 25 ba 9d c6 49 ea d5 bf
       0.1829796143290916 -0.34242481609445213
0003c0 8f ac 89 77 2c b5 b7 3f fa fe 85 5e 51 15 c6 3f
       0.09260824125674304 0.17252556910897693
0003d0 ce ac 94 a3 c4 27 e7 bf d0 fc 1a 85 73 bc cd 3f
       -0.7236045069634203 0.23231357573783962
0003e0 1a 7b 43 92 4e 6d eb bf 23 78 a9 13 61 1a f4 3f
       -0.8570931297980195 1.2564402359053097
0003f0 ae 2d 2c 67 c2 3f e3 bf 72 72 5a 50 04 79 e9 3f
       -0.6015331282700822 0.7960225648308337
000400 60 8b f1 6a 93 18 c0 bf 41 2b e8 32 bf fb d4 bf
       -0.12574999544002718 -0.3278654095781129
000410 65 37 1e 6b 94 27 b9 3f 4c 11 92 b9 fd 33 d1 3f
       0.09826018920122477 0.2687982856953297
000420 66 ca 58 19 53 4b f0 bf 51 25 41 9d e5 df df 3f
       -1.0183897962675927 0.4980405841530074
000430 80 3a 6b 3c 5a 47 de 3f 97 0c f1 b9 8c 81 db bf
       0.4731050100353187 -0.4297820869289323
000440 ff 03 0d 16 02 44 d7 3f 72 d2 90 5d 9a 56 e3 3f
       0.36352588799860536 0.6043216540770813
000450 c9 f6 e3 0b 38 24 f2 bf 50 50 9e ff 7a 5f ea bf
       -1.133842512557225 -0.8241553299471978
000460 f7 1a e1 de 23 4e f6 bf 18 ac 59 8d fc cf e4 bf
       -1.3940771776412342 -0.6503889809367847
000470 21 3b e1 a7 f6 99 e1 bf 07 a9 f1 45 bf 3d cc bf
       -0.5500443724539289 -0.22063437381013548
000480 a4 98 61 9c 9a 60 e2 bf ec ba 57 1e e0 36 e9 bf
       -0.5742924742051128 -0.7879486649161129
000490 68 e5 96 97 f7 1d a0 3f fd 45 4f 90 d3 35 ec bf
       0.03147863126236922 -0.8815706080005722
0004a0 54 48 a8 e4 21 c7 b2 3f b9 e1 53 07 f7 95 9f bf
       0.07335101921515391 -0.03084550840591913
0004b0 41 ee 60 63 dc 93 e5 3f bc 40 68 d6 ba 71 f9 bf
       0.674299425219438 -1.5902660727770543
0004c0 48 75 3b 9f 36 54 d1 3f 06 83 20 11 73 79 a0 bf
       0.27076497602486826 -0.032176585999200966
0004d0 20 c3 f1 af 9a 8c c2 3f cc 8e 86 31 bf da f2 3f
       0.144915901098579 1.178404992541732
0004e0 28 8d 1e 3b 14 f2 b4 bf cc 7b fc 5c 2e 27 e8 bf
       -0.08181883281081481 -0.7547828498971909
0004f0 aa 46 9e f5 71 d7 04 c0 06 15 55 6d ba 09 e0 bf
       -2.605197829144193 -0.501187528171301
000500 18 3d 5b 40 9e a5 e8 3f 8e d7 7e fa 34 34 e4 bf
       0.7702170617066342 -0.631372918366411
000510 cd 21 24 95 1e 62 ea bf 96 f9 7c 9a 05 c1 cf bf
       -0.8244774735367685 -0.2480780605637391
000520 03 05 aa 5a c4 f0 b5 bf bb de a8 09 8f 10 e3 3f
       -0.08570506299476581 0.5957713307061206
000530 69 36 79 8c 9c 94 e1 3f b5 b1 35 be 6c 21 f7 3f
       0.5493910544989379 1.4456603460376816
000540 f9 76 42 4a 1b 54 b2 3f 2a 22 1c c9 1c e3 d2 bf
       0.07159586489657589 -0.29511184348715125
000550 9e a2 c4 23 ef 74 c8 3f a1 d7 7c 88 c4 fb d8 bf
       0.19106854673852508 -0.3903666813742977
000560 43 2b 85 b4 36 e0 dc 3f 54 60 73 7d 43 ff e6 bf
       0.4511849177258009 -0.7186601114472162
000570 1f 68 45 a7 5c 1c d7 3f bb 99 bb 73 46 af d0 bf
       0.3611060746676475 -0.26069794942886987
000580 87 cf 30 04 27 31 ab 3f 1d 41 9e 75 7b 36 f7 3f
       0.05310937811046217 1.4508013338527868
000590 ca de 9b 2d 5c 23 c7 bf 97 b7 84 44 57 14 e6 3f
       -0.18076660372729797 0.6899830187082782
0005a0 1d 4e 0e e5 91 08 d5 3f 2e ab 51 95 d5 37 90 3f
       0.3286480652688811 0.015837990988454446
0005b0 2d 44 14 4a 31 18 fc bf 9a d4 1a 0e 32 90 e7 bf
       -1.7559063810078996 -0.7363519931301596
0005c0 51 f4 1f 61 ba f9 e5 3f 3b 20 89 23 26 90 fb bf
       0.6867343804330038 -1.7226926220046284
0005d0 a1 f2 ce 7a a1 a2 e1 bf 02 aa 75 f6 ce ef a2 3f
       -0.5511023901559221 0.03698584326305722
0005e0 ea 97 98 f5 b5 38 e2 bf 29 ac 4e 3d 89 b2 e2 3f
       -0.5694227024839595 0.5842939565094457
0005f0 4c db a4 3d 7b 61 d7 bf 3a af 62 fa 47 dc c5 bf
       -0.36532479305190146 -0.17078494764188595
000600 7e cc b9 02 19 1b 03 40 32 46 54 97 d9 e2 cb 3f
       2.388231297774438 0.21786041154023078
000610 64 aa e7 59 7d e0 e4 bf 3e c3 d3 09 3d bb e8 3f
       -0.6524035221057827 0.7728562538087329
000620 c6 35 c0 f1 30 7e ef 3f 09 94 6a c1 cb 09 c3 3f
       0.9841541978545869 0.148736447755397
000630 9c 5b 2e 1c ad 3a d5 3f 9c 82 de 11 8b ec d9 3f
       0.33170631172236553 0.40506245369946625
000640 9c fe a8 65 e0 39 f7 3f 9a 13 af 08 d8 c4 dd 3f
       1.4516300173853898 0.4651393971255914
000650 e9 9a 2d 10 fb 0a d6 3f 74 43 83 22 f6 5c d0 bf
       0.34442020969292614 -0.2556739174879603
000660 7f b6 72 5e b3 c8 e9 bf e6 ed 3e e1 0b a3 de bf
       -0.8057495922746084 -0.47870156284963483
000670 95 ea 62 ac 8f 19 f1 bf 72 41 ca 5e 07 f9 f8 bf
       -1.0687405332415996 -1.56079804446571
000680 95 ec 6f 5e a3 24 f0 bf 8a 00 75 fe 62 9e e3 bf
       -1.008944863219573 -0.6130843133796742
000690 3d f9 a8 11 16 9b 03 c0 62 d0 24 93 4a 11 f3 3f
       -2.4507256869975707 1.191721510677802
0006a0 d5 db 1a e1 82 69 ee bf 82 8f d1 7f 92 71 f5 bf
       -0.9503797909336479 -1.340227603236571
0006b0 17 b5 76 c5 2e 31 c4 bf 0c 81 54 3c 6e 21 d0 3f
       -0.1577509369066454 0.25204044238672973
0006c0 b3 22 0c 40 fd 0c e7 3f d0 e5 9b 3b ae 06 e4 3f
       0.7203356028486126 0.6258155025708962
0006d0 a7 2b 74 78 94 fc cb 3f cd 2b a1 e5 d6 96 f4 bf
       0.21864562875302093 -1.2868260354905374
0006e0 95 d6 cb f6 89 c7 f6 bf 51 18 03 70 3f 3d c7 bf
       -1.4237155571439974 -0.18155663461056062
0006f0 5f 00 19 6d 2b df de bf f1 22 ce ca f3 bf e4 3f
       -0.48237119344776674 0.6484316788711039
000700 ed 2d 28 a0 e2 f3 f6 bf 92 73 34 41 1e f3 ed 3f
       -1.4345422989016428 0.9359275125058153
000710 61 96 1a b0 3f 3c ba bf 8e 83 98 5b b7 55 f8 bf
       -0.10248182343874525 -1.5209268167456886
000720 d2 42 8a d6 5d ef de 3f 46 33 e3 68 29 ed dc bf
       0.48335977507762806 -0.45197520487709075
000730 c8 66 b6 0b b4 93 fb 3f 0c a5 3e a3 fa a1 e7 3f
       1.7235603768844374 0.7385228336690104
000740 69 44 ed 0a a1 46 f7 3f d7 af 23 f2 c2 ae f3 3f
       1.454743426020537 1.2301663836069474
000750 dc bb 39 23 21 de f2 3f 4f 05 af 70 16 08 cf 3f
       1.1792308212277396 0.24243431570179516
000760 6e ec 70 ed 8b 01 ee bf 2e 14 3e ac 12 57 dc 3f
       -0.9376887929460176 0.4428145105414981
000770 6a c6 8e 4e 97 8e ec 3f 6e bf 27 2c cb df f9 bf
       0.8924061331110356 -1.6171371197524098
000780 a1 f7 3d 13 0a 88 a8 3f e4 e7 7e 82 ad d5 e2 bf
       0.04791289791954446 -0.5885837124580999
000790 ab 10 77 12 21 fc ef 3f 9c 99 dc 94 14 7d cc bf
       0.9995274887701461 -0.22256715077055567
0007a0 0a 6a 9a 10 a5 66 ee bf ed 16 26 39 2d 9c d8 bf
       -0.9500298809319372 -0.3845322664350153
0007b0 34 ac a1 2e b8 7d f7 3f 23 ae 9b 8c 7e 87 fd bf
       1.4681932279152194 -1.8455796711449544
0007c0 0f b9 83 85 58 ea f6 bf 20 dd 46 e6 d9 a2 db 3f
       -1.4322133269702737 0.4318146466061581
0007d0 c2 3e 22 27 84 eb ff bf 12 a1 22 f9 cd c7 d0 3f
       -1.9949990776694198 0.2621951039277671
0007e0 0d d1 33 4a 82 27 d9 3f 5f f4 ec 1a 3c 31 c8 3f
       0.39303643461541143 0.18900252642370938
0007f0 c3 00 e8 5e 63 f0 ed bf 53 a6 24 99 25 66 dc bf
       -0.93559425865535 -0.4437345500506115
