weights/init_z/31.npy (npy, 4224 bytes, 1 tensors)

array f8 [1, 512]
000000 bd 66 bf d7 61 8b da bf 43 07 5c 8a e9 55 d5 bf
       -0.41475721425159034 -0.3333686686674932
000010 87 f9 f7 c1 71 c2 b4 3f 55 58 5d c1 17 50 e9 bf
       0.08109198556483053 -0.7910269524243271
000020 05 e1 78 f3 12 fb cb bf d5 7e 58 c9 1b 6c e8 bf
       -0.21859967125215732 -0.7631968433888355
000030 db 2e 82 46 2b de e8 bf 42 70 78 dd f6 96 fd 3f
       -0.7771202447051694 1.8493565226736028
000040 e6 33 64 1a 47 94 e6 bf 06 8e 42 c8 d9 06 b6 bf
       -0.7056003108460771 -0.08604203356895121
000050 b4 1e 0d cc 7f 6d d2 3f c1 16 78 06 46 d1 c0 bf
       0.28793330122833116 -0.13138652149080168
000060 e0 de 67 dd a3 72 ef bf 35 1d 0c fc bc 66 ed bf
       -0.9827441524821232 -0.9187912867354614
000070 09 57 5a 38 e2 30 f3 3f e9 a3 8c 58 13 d9 d5 bf
       1.1994344903263843 -0.34137424132728583
000080 f3 ef 76 6b 41 23 fc bf f7 94 3e ab 11 2c aa 3f
       -1.7586073110423939 0.051117469934334574
000090 ab 56 68 07 3e 4d e2 bf 1e 7c 88 79 09 6b e6 bf
       -0.5719289917639875 -0.7005660413450447
0000a0 5a a7 c7 ec 63 ec ed bf 52 c0 2e 30 41 8d f8 3f
       -0.9351062416655893 1.534485996449821
0000b0 dd 32 06 df 91 a3 ff 3f 61 bf e2 1d 1c d9 db bf
       1.9774340354808182 -0.4351263324597224
0000c0 0d 5a 53 1b ff 38 c1 bf 6c 92 03 77 04 d3 ca bf
       -0.13455189546830618 -0.20956474124172375
0000d0 fc d6 9c 55 09 8a e8 bf 68 36 87 44 01 77 a4 3f
       -0.7668501541254211 0.03997043572927056
0000e0 73 12 b4 62 af 93 e3 3f 0e 81 45 8f 83 e2 d0 bf
       0.6117779662896069 -0.263825311578345
0000f0 e7 f4 26 44 8e 8d e0 3f d9 5e 6d 9d 7f f9 e5 3f
       0.5172797518822819 0.6867063593626553
000100 2d e4 0d 9a 77 9b f1 3f 3c 14 c6 7c 9f 94 b7 bf
       1.1004558580155035 -0.09211155697092094
000110 99 4e 89 7a b4 aa da bf af 40 fa 7d fe 22 cc bf
       -0.4166690060276124 -0.21981793547866377
000120 71 56 ca bf 86 2e 92 bf bc 3b fa 98 ae 0b f3 bf
       -0.017755608993488218 -1.1903520560915544
000130 4c f0 5b e6 90 5e f1 bf 27 c1 08 ba ef 32 f1 bf
       -1.0855874060062147 -1.0749356524430114
000140 02 72 44 6f 39 76 8d 3f c6 ac b8 b1 83 d4 b6 bf
       0.014385651310072415 -0.08918021286870034
000150 74 c9 2c 96 89 9b e5 bf eb 81 7d 10 1b 6f f9 3f
       -0.675236504850814 1.5896254200125621
000160 f3 ee 2f 82 a6 a3 dc bf 35 9a 40 89 e7 a8 e0 bf
       -0.44748842919919624 -0.5206182175359745
000170 a5 7c c2 94 30 32 e6 bf 10 eb 00 93 b6 4c f4 3f
       -0.6936266808951542 1.2687288038566216
000180 7a 92 e5 8c 22 68 f6 3f 0b fc 67 ff 07 ef e3 bf
       1.4004235748081144 -0.6229286182787076
000190 c9 96 91 43 c9 bd d8 3f cc 4c 53 5a 86 35 e2 3f
       0.3865836295939116 0.5690337909858498
0001a0 de b3 1a 41 9d d3 f6 bf c7 43 21 15 4e 4b fd bf
       -1.4266636412751192 -1.8308850121868419
0001b0 9e 57 3d cf cc df f8 bf f9 dc 34 f9 e8 4d 03 40
       -1.554638680963286 2.413042017865902
0001c0 0f 9f 7c d2 6d 7a cd 3f 5b 2f 7c d7 32 76 d0 3f
       0.23029873635936624 0.25721427005259095
0001d0 df b6 94 4a 0e dd cb bf 27 d6 c1 ea 74 8b e0 bf
       -0.21768358842512378 -0.5170235238171629
0001e0 20 dd b5 65 1a 03 fd 3f 8a fb 93 3a c8 a1 ec bf
       1.8132575963080129 -0.8947487968542742
0001f0 e8 9c 9e a9 47 e8 d0 3f c7 09 87 e5 ab 52 02 40
       0.26417724193966174 2.2903669292292963
000200 a5 d5 f9 41 b9 3c d8 bf 7c 06 dc 84 4a 04 bf bf
       -0.37870627825699393 -0.12115922683372021
000210 60 f9 16 d5 6f 9b d7 bf 35 2f 8c 29 95 6f f3 bf
       -0.36886211213631803 -1.2147418616249983
000220 e5 fa 0e 93 21 3d ce bf 2b 6b ef 65 76 2f f4 3f
       -0.23624057465163797 1.2615875226826556
000230 22 1f b0 ec 82 0b d5 bf ef b5 60 91 10 89 9d 3f
       -0.3288276015668875 0.02884317290607002
000240 5f 1f 2e bd 14 7c f4 bf 30 de 7b 4d 04 5d 03 c0
       -1.2802932157373659 -2.420418362944268
000250 ef 5f ce 01 8a 0a f0 3f c1 56 29 ca bd 77 f8 bf
       1.002573020034102 -1.529233731931001
000260 6a 07 ab 7e 32 19 e2 bf e8 0f a7 eb dd f4 db bf
       -0.5655758356080984 -0.436820488099555
000270 06 75 81 31 95 6a f7 3f a8 cf 5b 20 97 ed f5 bf
       1.4635211881462182 -1.370505453492095
000280 02 0a 26 dc 1d 82 e8 3f 32 66 fa bf 32 7d 00 c0
       0.7658833789612915 -2.0611319540301105
000290 ee 40 ed 41 14 e4 e5 3f 96 89 b1 41 89 f2 f0 3f
       0.6840916907913461 1.059212929358727
0002a0 69 04 d2 8f 50 14 c7 3f 2d de 9c 35 76 30 d1 3f
       0.18030745527724726 0.26858287082311244
0002b0 ee 1b 32 34 6c ef bb 3f 1e 04 e3 26 f1 4d ec 3f
       0.10912205004034067 0.884514404249902
0002c0 da b7 e4 59 a2 e6 e5 bf f9 50 84 ca 72 8a 04 40
       -0.6844035869341909 2.5676017591123323
0002d0 b6 be c2 1b e0 d5 e2 bf 1f 69 33 1a b6 d3 cd bf
       -0.5886078397943126 -0.2330234172757821
0002e0 9e 3d 31 10 64 76 d4 bf 35 dc 1c f0 3b 3c c3 bf
       -0.31972600537570794 -0.15027569984678882
0002f0 dc b9 51 04 28 45 ec bf 82 31 bb 00 d3 3a e0 bf
       -0.8834419330940437 -0.507180692127392
000300 f4 48 e0 2b 71 9a ff bf 1b e5 23 40 19 b7 02 c0
       -1.9752055848990127 -2.339403630347659
000310 29 e8 32 34 17 b1 f9 bf 40 d5 db f6 68 47 b0 3f
       -1.6057350195901654 0.06358963038276944
000320 7f d0 1b dc cc 83 f6 3f 9d d6 4f ab 3a 48 fd bf
       1.4071777914041659 -1.8301340762967933
000330 de 6b 51 1d 39 38 d4 bf 41 0c 05 02 2e 50 fb bf
       -0.3159315859135726 -1.7070751265425914
000340 95 d3 e3 d0 fc d2 e2 3f 34 db 6c fe b9 9a e0 bf
       0.5882553176767141 -0.518887516903169
000350 0b 23 a3 cd 05 35 07 40 9e c8 ea 3a 60 21 ed bf
       2.9008899751100947 -0.9103242064213821
000360 c1 7b 37 af 67 4d f2 3f 54 35 19 9e 91 6b d7 bf
       1.143897709312782 -0.3659404796533938
000370 25 92 de 80 73 8d d8 bf 15 b4 00 65 1d 5d e0 3f
       -0.38363349518684436 0.5113665554723662
000380 db 87 53 21 73 78 f3 bf 59 e0 cb 30 0a 40 e8 3f
       -1.216906671696498 0.7578173592619449
000390 62 0c ab 46 9f ee e3 bf 4f 37 2b 5b 01 e5 e2 3f
       -0.6228786831128554 0.5904547482148049
0003a0 81 8d b4 b6 9a 5e e4 3f 07 24 05 0c b6 09 01 c0
       0.6365483826124746 -2.129741758257754
0003b0 28 f7 45 fd b9 b6 e7 bf 7b 0b c1 bd 77 56 ad bf
       -0.741055483507556 -0.05730032149633409
0003c0 3e 56 1a 8f 9b 5a e6 bf c7 96 33 a1 13 f8 da 3f
       -0.6985605044344039 0.42139139883361704
0003d0 38 15 42 28 77 c1 d1 3f 4e 70 f8 0e c1 7d d6 bf
       0.2774331944604742 -0.35142542325934734
0003e0 3b b5 d7 17 d5 5a e5 3f 11 f6 1d ed 90 55 ab bf
       0.6673379388500175 -0.053387192673636126
0003f0 2e 86 33 6c c0 14 e5 bf ff b9 4c c7 76 80 ea 3f
       -0.6587831605249386 0.8281816380093118
000400 8e 73 c2 6b b2 03 cf bf 14 e9 5d df 37 68 e8 3f
       -0.2423003221673778 0.762721954596858
000410 dd d0 38 25 22 f6 e5 bf 36 ee b8 5b c1 df e2 bf
       -0.6862955786696393 -0.5898138801052883
000420 d0 fb e8 bc 29 f7 e0 bf 97 48 ef fe 06 34 7f bf
       -0.5301712693834535 -0.007617976500983079
000430 8f 13 95 27 25 fa ff bf 47 50 76 76 30 90 cb 3f
       -1.9985705896553758 0.2153378084591415
000440 b8 bf 75 e8 99 c4 d5 bf df 77 93 ff 59 e3 dc bf
       -0.34012458516280786 -0.4513764377460329
000450 4d 1d 3a 59 9b 1f f7 bf 75 4a 16 d1 b2 29 9d bf
       -1.4452165112905562 -0.028479379665052613
000460 ff c4 41 06 4c c1 bc 3f 08 f3 45 28 2c a4 e5 3f
       0.11232447769886632 0.6762905870997153
000470 66 ae a7 81 9d 78 cf bf cd 2d 60 79 a0 71 d9 3f
       -0.24586838560877594 0.3975602326688346
000480 5c b1 f0 96 93 ad dd 3f 4b 68 0d 25 d1 95 e1 bf
       0.46371927013639946 -0.5495382045439866
000490 4e 60 cd ad 6e 69 81 3f de f4 33 3d e3 37 fd bf
       0.008501877478622213 -1.8261444464435992
0004a0 89 dd 1c 47 03 30 f5 bf 01 e0 bb df a9 81 ca 3f
       -1.3242218759386069 0.2070820181322688
0004b0 1c 12 5f 08 76 a7 cf 3f f7 c2 48 c4 12 ab d5 bf
       0.24729800614126496 -0.33856648605710354
0004c0 67 9e 3a 20 33 f2 a9 bf 25 af 4c 26 38 4c f3 3f
       -0.050675962146951296 1.2061082359386515
0004d0 90 24 ae 3a e5 41 f4 bf e5 4d 0c 29 0f 7b d3 3f
       -1.266087750644406 0.3043859387264248
0004e0 52 7e 58 de 8f 9c ff bf ef ab 28 8b b5 fa e8 bf
       -1.9757231412294414 -0.7806041448542355
0004f0 f1 5f f5 4a bf 41 d8 3f 52 4b 76 32 b1 8e c0 bf
       0.37901289291539714 -0.1293546196362408
000500 7b f1 88 95 7e 48 f2 bf 4e 86 e3 99 79 58 fb 3f
       -1.1426988450249087 1.70910034287262
000510 04 a2 c3 49 e9 7a f4 bf 14 3d c8 02 ad d3 f9 bf
       -1.2800076371587474 -1.6141786678961738
000520 fe cb 46 c1 ed 96 b1 3f 6b ed 69 d5 8f b0 ef bf
       0.06870923966089035 -0.9903029602277632
000530 f2 0e 40 a2 d3 d5 e6 3f d9 7a 3b 2d 29 75 c0 bf
       0.7136018914174811 -0.12857546528444777
000540 c4 13 4e 92 3b e3 c3 3f c9 30 c3 87 3b d6 da 3f
       0.15537209171102806 0.4193257165723137
000550 e6 36 a9 d9 6b a7 f0 3f 4f 4e ff b4 52 9f a9 3f
       1.0408743383772445 0.05004366359176215
000560 11 5a 91 2a 6a 19 da bf a1 67 e7 58 83 71 e8 bf
       -0.40780119091996975 -0.7638565765766893
000570 e5 ba 8d 37 68 e1 c5 bf a4 da 42 68 64 85 e0 3f
       -0.17094137871341455 0.5162832294798432
000580 65 c3 1d dd 86 a9 da 3f f2 88 12 93 0c 47 f2 bf
       0.4165970954264167 -1.1423459763541897
000590 2c 63 f6 a9 70 a8 d2 3f 8d 84 0f 0b 84 6c eb bf
       0.2915307674207266 -0.8569965568568861
0005a0 a4 b6 4e 63 8d 7e e1 bf c6 73 51 46 27 a0 02 40
       -0.5466982783888921 2.3281999105078937
0005b0 c7 98 11 f0 e9 c8 e5 bf cf 37 d8 4b 9a 7c f6 3f
       -0.6807756127207306 1.405420585887885
0005c0 47 91 ec e6 07 5f e7 bf 1c e0 1b 37 bb 4d f1 3f
       -0.7303504476772468 1.0814773705187752
0005d0 b4 cb a5 0f 2b a2 b4 bf 46 d3 3a 37 32 2b c0 3f
       -0.08059949047110032 0.12631824204222591
0005e0 a7 fc 78 89 ed 47 fe 3f 81 b7 07 61 ba 33 e1 3f
       1.8925605173133506 0.5375644583816525
0005f0 dc 60 f6 95 80 3c df bf d0 f2 ab ab 5e ce e4 bf
       -0.48806776661650786 -0.6501916268312815
000600 5e 51 a2 3a ff 45 e6 bf 3b 2b f9 8b 39 6a f7 3f
       -0.6960445542522782 1.463433787127271
000610 8e 02 45 03 d5 42 ed 3f 54 7e a6 88 8e 4d e1 bf
       0.9144082130297464 -0.5407173794701046
000620 71 7e e1 5b 25 f0 b7 3f 0c 1e 08 71 47 8a fc 3f
       0.09350808613953078 1.7837595382023919
000630 09 a4 b9 1c 5d 1b be 3f 19 14 91 8e 7e 68 d6 bf
       0.11760503722474892 -0.3501278297665649
000640 ee a0 30 35 8b 6b ff 3f 2e ca 06 36 e9 03 d1 3f
       1.963755805753006 0.2658637073138007
000650 a4 0d c6 02 10 4a d0 3f 6b 10 e8 7b 51 f3 f6 3f
       0.2545204188429244 1.4344038810823132
000660 ca fa e5 d1 f5 fe f8 3f 3d ac 7b 54 9d 5e f3 3f
       1.5622461508898362 1.210599260341737
000670 95 1d fe 93 3f 89 e6 bf a4 4c 41 5b 10 33 e7 bf
       -0.7042539492112377 -0.7249833853078553
000680 aa 1d 8a a4 b7 d3 e0 bf 6f 2f f7 fe 6f 8d d7 3f
       -0.5258444036161809 0.36800765894871906
000690 4b da 81 48 4b 05 ea bf 1d 7a f7 ce e2 6b e5 3f
       -0.8131462494046188 0.6694196741407868
0006a0 34 0c 58 bd e6 70 f0 bf 66 94 10 98 a3 8f c1 bf
       -1.027563800453902 -0.1371960155967457
0006b0 aa 85 45 66 c0 aa a3 bf fa 74 e7 83 60 00 e5 3f
       -0.038412106022188766 0.6562960220577729
0006c0 5d 26 8c 96 e4 14 f1 bf f1 75 2e ac 94 d2 a4 3f
       -1.0676008110771342 0.04066910363983912
0006d0 02 17 89 ba 42 ed f4 3f e7 f8 aa f5 06 8a e8 3f
       1.3079249655287986 0.7668490217399978
0006e0 71 e9 a0 75 d9 31 f9 bf b6 ab 60 e8 2b 41 ea 3f
       -1.5746702761522011 0.8204555071473496
0006f0 81 0d 44 0d 5b 25 f4 3f ab 9e e1 90 e7 78 e9 bf
       1.2591200369068647 -0.7960088567460465
000700 74 f4 ef 09 98 34 fa bf 17 67 ab d5 5a 15 e3 bf
       -1.6378403080155097 -0.5963567898972738
000710 eb 92 31 af 3f db dd 3f d2 4a 19 f3 ee 84 ff bf
       0.46650688275103275 -1.9699544426008981
000720 6b 75 64 7e 02 d5 b5 bf aa 25 0d 17 54 e1 fb 3f
       -0.08528152070762977 1.7425118351405708
000730 57 65 03 3a b4 d7 e3 bf 4b 27 51 09 e5 d9 e0 3f
       -0.6200810559341033 0.5265984708760042
000740 19 b4 6e d6 8c 18 e5 3f 9a 09 e4 f2 38 b3 d8 bf
       0.6592468441136844 -0.38593887061883836
000750 a8 01 0d b8 ae c3 00 c0 b4 38 db 2e 3c f7 dd 3f
       -2.0955480936974773 0.4682150323468577
000760 01 f6 30 1d bf b9 a5 3f 2e 6e a3 40 34 15 f1 3f
       0.042432758630166496 1.0676767849862574
000770 27 28 aa ab 10 54 f0 bf 18 cc 33 31 85 bc ef 3f
       -1.0205237107898115 0.9917627297385279
000780 0a 90 19 a4 e6 f6 e3 3f 0f e1 a9 6a a9 a5 d1 bf
       0.623889275081184 -0.27573619285932777
000790 fd b8 80 76 88 dc e3 3f 2c bc 03 ac 4c 59 e7 bf
       0.6206705393322235 -0.7296508178386651
0007a0 7f 7a 78 d6 99 10 f3 3f 20 38 d0 86 ac f2 e9 3f
       1.191552961135727 0.8108732827256553
0007b0 1b 85 5a 47 99 81 eb 3f 0c da 66 14 16 1c d4 3f
       0.8595701593041299 0.3142142485843642
0007c0 d1 fc a4 9d 9a 32 cc bf f1 43 64 f5 4f e3 f2 bf
       -0.22029431054577356 -1.1804961763011728
0007d0 3e 18 a7 c1 41 c8 dc 3f 13 fa 17 f4 df 81 e2 3f
       0.44972270881078547 0.5783538596586503
0007e0 14 d8 3d 62 6d bd de 3f df 15 ef 8d 1d 6e c7 bf
       0.48031172365097174 -0.18304795675628235
0007f0 95 03 df ed 12 67 f8 3f 3e 92 4c f3 af 9f f2 bf
       1.5251645366517768 -1.163986158740172
