weights/init_z/33.npy (npy, 4224 bytes, 1 tensors)

array f8 [1, 512]
00000000: 81e1 2988 1868 d4bf a4d6 71f0 cea5 f9bf
00000010: ca27 3c9d 4090 f8bf ff38 9c60 b940 e2bf
00000020: 2580 e0c2 c0bd cbbf cdd7 7f4c dc4f d03f
00000030: d476 0ef0 2c21 c3bf 6a14 882c 1516 0040
00000040: e043 b6ba d8c6 b8bf 5a6c 051d 5a05 db3f
00000050: eff9 a7ac ecdb ccbf feb7 41a2 076a e4bf
00000060: 14d7 fb56 5bad 90bf fa2a 11a7 1cb5 f03f
00000070: aae9 b879 ab5b f1bf faa6 70ea bba5 01c0
00000080: 4d1d d9d6 6270 eebf 08d4 dd62 b7a7 ea3f
00000090: 62e1 1d47 da00 f0bf 7c69 c529 4bfb d53f
000000a0: e44b 973a 8abc f83f 6164 85a2 2415 e63f
000000b0: 0871 535e e85d 00c0 d444 ca8f e767 d53f
000000c0: c5cc cb57 d486 e4bf b88c a4f7 c57a ccbf
000000d0: 135d 4b11 9daf f3bf 1e62 d135 3c59 ca3f
000000e0: 4714 4baf ac48 ea3f d484 e30f 199a dfbf
000000f0: 9670 cb11 6b8a f6bf 8c2f 93f5 0f76 f3bf
00000100: 60ec e35c b0bf fb3f 5920 6d16 1778 cabf
00000110: c9b6 78e3 4776 e7bf e0ea 1f4b f1c5 e83f
00000120: 0a43 b417 44e0 e8bf 4e04 3998 6189 dabf
00000130: d854 32dc 8b54 f2bf 5da6 e2aa 76cd d43f
00000140: 24d9 9f68 3079 433f 18c2 f35c 89b2 f63f
00000150: ded3 0ebc b70c c3bf 1262 442d 9066 e3bf
00000160: 0511 92a7 0af9 f2bf 9962 032c fb26 dd3f
00000170: 78c6 1ac6 fccd eabf eef5 3dfe a1cf c2bf
00000180: 0df6 d20f cfd5 e5bf 08e6 d8af 7ecd f73f
00000190: f696 e53a ef83 f1bf 5a4a 17eb ad79 fabf
000001a0: 37f1 2572 0c6a 98bf da7b eaa7 7947 d7bf
000001b0: 988b 943f 8ae8 debf 5b17 8780 9daa e73f
000001c0: 811a d601 608f e33f 00c3 634a b079 df3f
000001d0: ce81 7eef d0af fc3f 3fac 05b8 2ce1 e5bf
000001e0: 75bd 9aa4 a5dd f03f 0f68 ef04 b0b2 e3bf
000001f0: fb45 a107 0fff db3f 309f 65e0 a379 06c0
00000200: 8af3 5aea f6e9 e4bf e409 4db0 a0e3 e03f
00000210: 8683 ce3a dbd8 ed3f b3b9 06fb 2484 bcbf
00000220: be97 3e43 75ee f1bf 6756 772c 63b7 ef3f
00000230: 91e0 b8eb bd17 fa3f 9b91 e6c5 c466 febf
00000240: d3ac cfe0 dee7 af3f 31b2 559b 47b8 de3f
00000250: d2eb 7861 844b d83f b711 f4c8 2732 f8bf
00000260: 1321 2636 4d7f d23f 30bb fcf8 4a74 b83f
00000270: 9fe0 a9e3 94bd d2bf 759e 277b 1f69 eb3f
00000280: 29ad 66cb 02df ed3f 5c8b 1fdc 66f2 dabf
00000290: 1213 fe3a 6672 f93f 4e14 6bbc 5305 f1bf
000002a0: 5d12 2ea8 cdd6 0040 cc7d 2c27 aa72 f1bf
000002b0: aef7 d385 99c0 f73f 3e0a dd65 7b6d f1bf
000002c0: 80f0 d7d9 8157 e33f 3434 4c08 6123 ee3f
000002d0: 9f62 e045 36d8 e3bf 235e 4251 6013 ea3f
000002e0: 01b4 3ac0 20cd ecbf 3fee 6c00 07bf debf
000002f0: 71da b5c1 1579 cd3f 0073 a747 76fd c83f
00000300: 9a33 1866 9725 e13f 0961 dabc c7e5 e53f
00000310: 372f 88e5 fa91 0640 d35d 9c4e ff53 ed3f
00000320: 15b4 20e2 de4a c33f 9739 714b 432c 923f
00000330: 0846 35bf df33 7c3f 210a e937 e70e d53f
00000340: ee34 5edd c8cb e2bf c37e 552b 7006 fc3f
00000350: 81c5 4004 c1ba d33f e06d b803 f89d ecbf
00000360: 75b5 cb11 ee9c e8bf 21b4 b902 76d0 eb3f
00000370: 5599 02f8 b3c4 d73f df9a 6912 8a1b e4bf
00000380: fd14 2d1c ef84 edbf 7d99 6f2b 95e8 ecbf
00000390: f12e b1f6 56fe d93f 58e8 1f6d 8ab0 d5bf
000003a0: 6070 623f 8a7d fabf 8b42 76cc e3c8 dc3f
000003b0: 5915 7e30 63c0 04c0 df75 850b 72c9 e7bf
000003c0: 8fc6 6be8 f34d f83f 3f53 8106 25ff e73f
000003d0: 7e04 3134 1727 02c0 8d50 328d d456 e8bf
000003e0: 1f1c 2836 7993 eebf 41c8 3319 0291 ed3f
000003f0: 39cb 5139 8a2b d43f b5c5 8405 5e74 f53f
00000400: bc87 e97f 4dba e53f a4be ef27 2904 e33f
00000410: 2fb6 4fda 05e7 f1bf fd8c be46 737e e1bf
00000420: 25d7 f274 4550 e1bf 5423 5818 4d78 f7bf
00000430: 7a94 e354 7e2e f53f 6ff5 d587 6a0b d63f
00000440: 2f3b 135b 65f2 febf d911 f8cd 2ffb ec3f
00000450: bfd0 68f7 ae1d eebf 31b2 e5ec c1a1 e63f
00000460: 07a2 f984 6f77 e5bf 8365 3be7 2dba f2bf
00000470: b63d 7518 cad3 f3bf 81a5 88db 8530 fbbf
00000480: 3b5e 2998 4331 eabf 30dd 579e 529b fdbf
00000490: 9d10 69ca c66a d93f 0e5f d92a 7a47 eebf
000004a0: 0bd6 cf42 2b8e d6bf 95cd 8d0e da91 d13f
000004b0: 9eac 49ff 412d f6bf 21d1 1a03 1e67 fcbf
000004c0: 91b4 8baf 1cf1 fa3f 531b 4eca 89f2 febf
000004d0: 17db eb7f 7453 efbf ddfc 2497 a0ba d83f
000004e0: c940 3a59 b828 d63f 0a07 af44 9ac6 dcbf
000004f0: 9ed8 ec0a 6eb1 f5bf 1b74 1597 9a12 f33f
00000500: 35bf a36b de81 e23f bf32 b39d 108e babf
00000510: 1596 1361 169d c4bf d1e2 6b6f 14a0 ec3f
00000520: 59cb bf37 e6a6 f43f 7092 04f7 21ae bb3f
00000530: d2f9 e6cc 6cd3 ab3f ee3f 0d38 dcbf e63f
00000540: 7ade e98b b3b7 03c0 0a80 3214 3219 fb3f
00000550: 0016 7c82 ccf0 f3bf fe35 9adc 23aa c8bf
00000560: 04f9 cb7a 9404 e33f 8af9 ce36 6649 c5bf
00000570: 76f3 e557 9e5c f43f 091f a311 ae9b 0040
00000580: e6aa d1ed 44df aa3f a145 619f c7b3 e73f
00000590: 3573 095a 5269 e33f ed1a e7cf 5681 f33f
000005a0: 2b63 74e1 8e04 4c3f 3c50 b391 e8b4 c2bf
000005b0: ceb0 179c 37c4 d0bf caba c03b 78dd bb3f
000005c0: 890d e57f 3e49 f03f 681a 7534 0f50 f2bf
000005d0: a1b2 e943 3705 e93f 4c98 7bb1 fd44 c6bf
000005e0: c7de 6b2a 8cdb d5bf acb2 91e7 ab12 febf
000005f0: 4073 c3d7 5ece efbf 268b cbbb 8359 f03f
00000600: f91c 7fd0 e267 e4bf fe48 5a9e b91c f83f
00000610: 712c 12a6 f648 f0bf 2d61 1493 4523 f7bf
00000620: b230 870c 449f cb3f 3052 7bbc 930a f2bf
00000630: c4c7 13ec f71a dc3f 0067 9b1f 71f3 ef3f
00000640: b7f8 28a6 0d04 dc3f 1140 854e a6de 9bbf
00000650: 036a 368e 7990 f0bf 6db5 49f1 7321 df3f
00000660: abb4 79d2 e652 de3f 7988 d7ec 0c29 d3bf
00000670: c3d1 6cdc 315c c8bf 7354 5e17 c72e e4bf
00000680: 8104 aa43 372e c93f 6d2d 4028 cd51 a53f
00000690: 5166 4899 08c8 ccbf a9e6 eb1d 2bad db3f
000006a0: fb79 a104 fc74 e33f b089 d082 50ee d63f
000006b0: dea5 aeaf ad15 ad3f 9d0f 3c96 a948 cebf
000006c0: d04e cf5d 5a12 ec3f a959 c225 1c4b ad3f
000006d0: edff 091d 0f1a f23f 5b07 7386 40e4 e23f
000006e0: d01e d398 f610 fc3f ecef db54 9107 863f
000006f0: 20c5 6ca5 2099 9bbf 7f1d 4373 292f e03f
00000700: ecd5 549b 850e db3f 70c8 9490 df05 a43f
00000710: be28 d10e 0707 c53f a3cb 6f9a 10dd e73f
00000720: e8d5 16e9 2d51 bb3f 68f5 8fc4 47cf f4bf
00000730: 8ba9 c85f 6e32 eabf 82c4 d263 7a99 f93f
00000740: 9919 dfe7 c14c e3bf a9e0 3433 08ce b8bf
00000750: 484e 471d ca69 d0bf b310 cb29 c7eb d0bf
00000760: 0970 ea43 d04f 963f 0975 0d45 6de6 f13f
00000770: c11e 45f7 0933 b63f 2e73 916e 2143 d9bf
00000780: 573a 5fb0 3c25 bf3f 0aec 0eb4 e789 e33f
00000790: df8e 74a3 8c78 f9bf 8da4 7c53 681a fb3f
000007a0: 411c 62bf bdd8 f3bf dde1 72e5 c8a5 d43f
000007b0: 694d 289c ff97 f73f 6b47 16f7 ac60 ee3f
000007c0: 7681 4dcd b1d1 f33f 99ce d7b3 9115 e73f
000007d0: b315 c337 9928 d2bf b9a8 46c8 f1ad 0140
000007e0: 011c ca3d d9e3 0d40 9275 5a91 1a45 eb3f
000007f0: 154d 5ddd aebb df3f 5de1 24ca e85d d83f
-0.3188535051081303 -1.6029805557604186 -1.5352178709022035 -0.5704008948248712 -0.21672830119587264 0.25487430067675804 -0.14944993707188436 2.010782573607277
-0.09678415830991538 0.42220166048145347 -0.22546156340099752 -0.6379430932117882 -0.016286303695742424 1.0442167783791647 -1.0848803286340662 -2.2059248271588077
-0.9512190052272814 0.8329731875406887 -1.0002081659314048 0.343462744514589 1.5460302628241545 0.6900809454192648 -2.0458533639158567 0.33446682970050046
-0.6414586748855063 -0.2224967440789436 -1.2303744006692952 0.20584824207141222 0.8213714050003852 -0.49378038932452495 -1.408793515692229 -1.2163238137027035
1.734299052098116 -0.20678986163170768 -0.7331885760119913 0.7741629092482434 -0.777376219079174 -0.41463508477688016 -1.1456411935262647 0.32504049957296904
0.0005942808504631231 1.4185880309052035 -0.14882561380878107 -0.6062699207423654 -1.185801176617191 0.45550421999136287 -0.8376449460249225 -0.14696144975816544
-0.6823497113288696 1.4876696461709589 -1.0947105694444281 -1.6547068770638789 -0.023842043368390988 -0.3637375011257383 -0.4829431172276428 0.7395770559603351
0.6112518344751409 0.4918022848569734 1.7929238658181137 -0.6837371439154437 1.0541130475865803 -0.6155624481573357 0.4374425482284036 -2.8093946009647865
-0.6535601212741409 0.5277865832688886 0.9327217243736505 -0.11139136437007018 -1.1207172991503138 0.9911361568908433 1.6307963569543384 -1.9000900011534216
0.06231590742376061 0.4799975411358757 0.3796091987493898 -1.5122449731580738 0.28901987350447306 0.0955244882468207 -0.29282114250919195 0.8565823941580236
0.9334730122258509 -0.42104503151329253 1.5904295257943812 -1.063800560006047 2.1048844470081307 -1.0904943018175457 1.484521410718553 -1.0892290095367936
0.6044320349460719 0.9418187295974634 -0.6201430668616758 0.8148652636618333 -0.9000400309065527 -0.4804093841700911 0.23025772055162322 0.19523504732833175
0.5358387941392835 0.6842993439231871 2.8212793285546485 0.9165035758368795 0.15072237054246843 0.01774697444880643 0.006885408412317336 0.32903461894980707
-0.587376053199163 1.7515718167050387 0.30827355780919424 -0.8942833016075689 -0.7691564891407966 0.86919689686113 0.3713807985281126 -0.628361736261322
-0.9224772978128893 -0.9033914421423074 0.4061486634352454 -0.3389001908941558 -1.6556494213064283 0.4497613426874884 -2.5939391888120267 -0.7433405137086843
1.5190314368195776 0.7498955847791889 -2.269087226625344 -0.7605993993515924 -0.9555021341083182 0.9239511959297105 0.315157466865617 1.3409099784442848
0.6789920328412715 0.5942579059610194 -1.1189020660198243 -0.5466858274197929 -0.5410487445976498 -1.4668703986119072 1.323850947949977 0.34444678559505965
-1.9341786916372248 0.9056624434311359 -0.9411234695640117 0.7072457911395472 -0.6708295437975388 -1.1704539330006305 -1.2392064051999632 -1.6993464065111257
-0.8185136768251547 -1.8504205880434021 0.39714212195054605 -0.9462252461334815 -0.35242730640979464 0.2745270864608867 -1.3860492679766945 -1.7751751061706005
1.6838652474646418 -1.9342134382765905 -0.9789373873198625 0.38639082679942566 0.34623535836818725 -0.44962174136536304 -1.355817835499273 1.1920419599257517
0.5783531286560676 -0.1037302384385823 -0.16104392757476718 0.8945409942817496 1.2907468965247146 0.1081258037634798 0.054347419750672935 0.7109204382668375
-2.4646979265924616 1.6936512745815002 -1.2462887856539737 -0.1926922633323755 0.5943090818762191 -0.1663024680728536 1.272611945488476 2.076015603819432
0.05248465922416816 0.740695773400308 0.6066066511662941 1.2190769311143257 0.0008550355586605987 -0.14614588846473164 -0.2619761490193583 0.10884810885248011
1.017881869877643 -1.1445457505339167 0.7818867041038012 -0.17398043790962203 -0.34152511732780194 -1.8795584722203484 -0.9939417089586655 1.0218541465516835
-0.637681395740315 1.5070129571582238 -1.0178133475444862 -1.446111273317068 0.21579790698740947 -1.1275822985236452 0.43914602331562613 0.9984670274090774
0.4377473948151293 -0.02721652845622208 -1.035272174375337 0.48641680300973783 0.4738099151061969 -0.29938052300543166 -0.1903135610861125 -0.6307101684966611
0.19672289661324174 0.041639720118918123 -0.2248545406771876 0.43244436189670893 0.6080303278393439 0.3582955625044191 0.05680601853903132 -0.23659248195337748
0.8772403557036004 0.05721366845061777 1.1313620695436797 0.5903627992595192 1.754141423198167 0.010756621744341964 -0.026951322647794318 0.505757069703506
0.4227613465221498 0.039107309722013706 0.16427696441161815 0.7457354561178032 0.1067074483933862 -1.300605552503237 -0.8186561461237017 1.5999702357624135
-0.6031198052158288 -0.09689379930648791 -0.2564568792269921 -0.2643907459389638 0.021788839478730924 1.1187565514913465 0.08671629225602386 -0.3947223262564873
0.12166194253880157 0.6105841175807438 -1.591930998322759 1.6939471493917921 -1.2404153324039415 0.3226186981878792 1.474609003057447 0.9493012262266637
1.2386949557913716 0.7213829529341239 -0.2837279362250584 2.209933819443077 3.736254198770894 0.8521855200703377 0.4958302652132301 0.3807317709029315
