weights/init_z/34.npy (npy, 4224 bytes, 1 tensors)

array f8 [1, 512]
0.2438351006277329 -0.7473181815389045 -1.5611769945848735 -0.4642531217894702 -0.35206234403534614 -1.281491876841625 0.2892992398362853 0.980028504824327
0.47792422238907634 0.4508181332524882 0.7524434495065703 -0.5105717936302331 -0.705752137119978 -0.4243172524460694 -0.23216212590030655 1.8151404762972325
-2.094749366107952 1.0359561136833704 -1.4341406623082171 -0.278228697448582 0.059514489620658396 -1.3083121366417836 -0.001286302044782925 1.2610469287792594
-0.18632399899324484 1.4299277202655563 -0.7911019774140375 -0.29773922010205983 0.9619495966969802 -1.0704406686988208 -1.2054682146048854 0.644030710405074
0.056922161464855084 1.4185461106556954 -1.1429448197520193 0.2158195477403249 0.9256064022240367 0.40720440344436903 0.5576862501756037 -0.5453242949542391
0.20668702631525954 -0.6450553062114351 -0.52859619959527 0.8388514220380003 -1.300252073561735 -0.09694721623957908 0.21150597134424284 0.21898485411587557
-1.4639768946819773 1.1280664895918529 1.406321794567238 -0.13628968051003332 -0.25823007332100667 0.06429406377058604 -1.336499337533395 0.5374368480303457
0.48577204697676307 -0.001171568114424659 0.555231756564522 -0.613463731334847 1.3538119845896432 1.7849168857421018 -1.7534166644861098 -0.31526381984949287
0.8265946393908955 -0.21591376062885773 -0.5978249714311006 0.19516169132529 1.5931813901972243 -0.0019001019511994627 -0.08517389173462338 1.3926086069880705
-0.13358683835430607 0.6751202504409833 -0.13898041238048767 0.36586993869630324 -0.6791604253587492 2.0203515665645346 0.730774946358298 1.863378994489288
-0.207849774109935 -0.5014379407125111 -0.057217760727735954 -0.7944594923024106 -0.6640881345302055 -0.814092967735397 -0.07612593664320526 -0.06384630287808729
0.2092110692213575 0.3758874039813162 0.5953379089875941 0.4529061928052997 -0.19226641908659373 1.2356531240223991 -0.2669740266278483 -1.2855192779909752
1.4870847767218838 1.1496476867282706 -0.31867603994399607 1.317668034546598 -0.02373535214954 -0.5080691273558574 -1.229013157194354 0.803069159835749
-0.8616478723180755 0.133006090355512 -1.3590661349676343 0.05258517367232686 -1.4827481133334197 0.273181535956137 -0.016512428674497388 0.07486600071409072
-0.9305651780217115 0.7893368316233356 0.23606921964630959 -0.9865362075689128 -1.9827297132628128 -0.02080314289429041 -1.1279763578764965 -2.3347002372301087
-0.43257906655889994 0.2764541423016236 0.9316217307114556 0.6207798782658898 -0.3270964774637413 -0.9195885787407992 -0.22994357452750283 1.9894885581261095
-0.09240381070715864 -0.8054166780831737 -0.6033434172901642 1.0877911793513908 0.6487616980786621 0.034896301592186756 -0.9161073279376553 -0.401127246756231
0.517453875460325 -0.20912294784078825 1.8208361171533287 1.109752154860363 0.02490931577866189 -0.2288827050582487 2.3440292915869576 0.3952062927811529
1.2151027156025607 -0.3565974724979248 0.6045189598895583 -0.06736930262808859 1.5523363045221379 0.7915470481693595 -0.3003306197778085 0.8348494381766736
1.8227081589314926 -2.167595606743924 0.7581681091017899 0.23777369985575605 2.323509629876293 0.5754630731060588 -2.809924168846149 1.3798716641941808
1.2067568055261035 0.12423218458174569 1.5743399981180521 0.6880683948443201 0.3821499181976282 0.09824117571219629 -1.191365818871095 -0.12097603921407916
-0.05182311305747988 -1.3193362168957181 0.578477102467011 1.7173090573654868 -0.8632558072943219 -1.278893649951578 -1.3523113061524523 -0.20879715116331277
-1.0651681814179825 -0.6833630441663616 -0.16927638414375956 0.6151893575233133 -0.7544263805671274 0.44187948090090967 1.160980881611475 -1.578636782480643
-1.8374811064064913 -0.4062369651110301 -0.5711712650660299 1.626342626986146 0.620429806724737 1.0374409042919597 1.0851192020090372 0.8332475039721697
-0.49858048777248315 0.29699903032765196 0.2853969513448653 -0.9454233341509323 0.9983800708995014 -0.43983256804995186 -0.8338662333343165 0.7702224653197739
0.46723284604850146 2.4796181330452027 0.1952084171395533 -0.4119041955548472 0.893537562226571 -0.30284469400843705 0.9819687506193173 -0.2980556049514487
0.3557867711022116 -0.2462760184348408 -2.6833002820012104 -2.2081393335522357 0.34976773308391285 0.30107102206095 -1.0785274426615432 0.1564306810550459
-0.5289208614926946 -0.006673170831751923 -0.09152514396574976 -2.705108202750976 -0.8835653593550424 -0.6148234187211691 0.11227118293964278 0.34181996342364157
0.7505133391938011 0.5855200916181896 -1.5820186697825824 1.460956777752904 1.0096682038141722 0.2158088625793789 1.874781676738217 -0.5411597479741923
-0.33396578294257545 -2.0388883918756995 1.4303485675391914 -0.8571738808354641 1.1057679683736088 -0.8826494734386651 -0.274296816725985 0.6310975933724943
-1.4021518688483234 0.006345296196087609 -1.5269319589234445 2.1657307778660004 1.8757165078506872 -0.8153172572067378 0.6537375798599132 -0.36049031657685005
0.6848125450211845 -1.0120916896660417 0.6833814730300101 -0.5121036933816875 0.6460067774114095 1.4844440149721605 -0.28863702373801897 0.3166935932497136
00000000: ca0f 6813 fd35 cf3f 1e4e add1 07ea e7bf
00000010: 5327 70ba 94fa f8bf 1eb5 c9b9 52b6 ddbf
00000020: 013c 727f 3088 d6bf b4fd 51a0 fd80 f4bf
00000030: 39b0 76f5 e083 d23f cfc8 2bbd 645c ef3f
00000040: e925 487a 4f96 de3f 62d8 b04c 34da dc3f
00000050: 710b f748 0414 e83f 77dc 7ca8 9a56 e0bf
00000060: b065 8081 8595 e6bf bb9a 988c 0328 dbbf
00000070: 964a 0e11 7db7 cdbf c97a 75bd d00a fd3f
00000080: ca00 a6f4 0bc2 00c0 06c8 c5b7 4693 f03f
00000090: 23a4 a77a 3df2 f6bf f16b 16bd 7fce d1bf
000000a0: cd22 1ee5 ae78 ae3f aa61 fdb4 d8ee f4bf
000000b0: 2789 c44d 2413 55bf 2540 5d8b 3f2d f43f
000000c0: f165 11fd 76d9 c7bf 4ef3 a2e3 fbe0 f63f
000000d0: 446a 1918 b550 e9bf 0bcb 44cd 280e d3bf
000000e0: 6ed8 4685 4ac8 ee3f baea 0565 8620 f1bf
000000f0: 2387 e109 9949 f3bf eee6 d94a e69b e43f
00000100: 9280 d1cb e624 ad3f b825 1268 5db2 f63f
00000110: 097b df81 8049 f2bf 22ec b095 f99f cb3f
00000120: 9aa7 5051 919e ed3f 162b e50e a30f da3f
00000130: e4db bdd5 90d8 e13f eb5d 91ef 4b73 e1bf
00000140: 3609 4471 b874 ca3f 9942 8906 4ba4 e4bf
00000150: 7da6 c193 42ea e0bf da66 fbef ded7 ea3f
00000160: b80f 481e d5cd f4bf 74ee 2f63 88d1 b8bf
00000170: b786 eaae a012 cb3f 3d9e 5f19 b207 cc3f
00000180: c123 4c09 736c f7bf 242b 8872 8f0c f23f
00000190: d417 3548 4b80 f63f 3054 49b4 f071 c1bf
000001a0: 5679 f06d d786 d0bf 23bb 3865 9375 b03f
000001b0: 384e 1d21 4d62 f5bf be94 bec2 ae32 e13f
000001c0: 05e0 c4a3 e316 df3f 32a8 22af e931 53bf
000001d0: eea5 8463 75c4 e13f 86b0 ebb0 7ea1 e3bf
000001e0: 0ded 6bc1 36a9 f53f ac72 2502 058f fc3f
000001f0: feaa e3a1 fe0d fcbf 1d66 f74c 482d d4bf
00000200: 2d73 e799 7673 ea3f f122 54e6 0fa3 cbbf
00000210: 34eb a0d5 6121 e3bf 1e4b d6ec 0efb c83f
00000220: e4e2 f7c4 ab7d f93f 696f 53ef 9a21 5fbf
00000230: 0d27 79c7 f4cd b5bf 2445 72f6 1f48 f63f
00000240: 3c32 f49e 5f19 c1bf 015d 90c8 959a e53f
00000250: 91b9 fa32 1cca c1bf c691 52bf 696a d73f
00000260: a5e7 f4a4 aebb e5bf 4e89 0615 ae29 0040
00000270: 9a0a eb23 8262 e73f 5f28 167e 66d0 fd3f
00000280: 883e 2447 d29a cabf acae 8a94 c70b e0bf
00000290: bbe6 2676 a54b adbf 94f0 2d50 366c e9bf
000002a0: 1301 6fc2 3540 e5bf b677 0ab2 0c0d eabf
000002b0: 138b 4248 fd7c b3bf 1cf7 d436 3b58 b0bf
000002c0: 852a 22a6 6dc7 ca3f 7bff c40a 8a0e d83f
000002d0: b676 2516 020d e33f e74b 9041 6afc dc3f
000002e0: 1948 0c9f 2f9c c8bf e205 ce35 3cc5 f33f
000002f0: eadf 4f3a 1a16 d1bf 9194 95a9 7c91 f4bf
00000300: 3566 2668 19cb f73f 38b8 06f9 f464 f23f
00000310: 1802 6530 3065 d4bf b9cb b513 2b15 f53f
00000320: f61b f784 144e 98bf a938 c32f 1a42 e0bf
00000330: 290e 48b3 09aa f3bf b176 3d18 beb2 e93f
00000340: 93c5 088f 9e92 ebbf 9374 1ff4 5706 c13f
00000350: 0298 ac21 bcbe f5bf 02b0 5aa2 71ec aa3f
00000360: 5790 ef15 56b9 f7bf b95e b368 ce7b d13f
00000370: 15ba 8954 a2e8 90bf a43a a610 6b2a b33f
00000380: 16ca cc9f 30c7 edbf 2c37 ab50 3f42 e93f
00000390: dd8f fc24 8437 ce3f d481 7a61 b491 efbf
000003a0: fe56 b4ca 42b9 ffbf 5e3b 8a49 6b4d 95bf
000003b0: 17da fbef 300c f2bf 1fef 6651 77ad 02c0
000003c0: eb7f f31b 60af dbbf 78de 01b7 6cb1 d13f
000003d0: 80c1 3460 d8cf ed3f e656 65c3 6ddd e33f
000003e0: 0dfd 5510 26ef d4bf 77f0 ee06 456d edbf
000003f0: edae 4282 ca6e cdbf 74af 4ef4 f1d4 ff3f
00000400: 5855 03b1 c6a7 b7bf 68a5 8032 f9c5 e9bf
00000410: 9294 b0da 964e e3bf 5c10 43b9 9767 f13f
00000420: 22a6 84e4 a7c2 e43f 97f9 2d94 eddd a13f
00000430: 1ac8 a350 c050 edbf ec8f 969d 11ac d9bf
00000440: 354c 096e fb8e e03f cdde e86e 8ac4 cabf
00000450: 68c9 680d 2522 fd3f 10a7 bc79 8bc1 f13f
00000460: ed54 8ae2 d381 993f 402f 6c4a 074c cdbf
00000470: 33db e16d 92c0 0240 edc7 aa55 0f4b d93f
00000480: 5ab3 8c8b 0f71 f33f 0bc0 8d34 7ed2 d6bf
00000490: ed33 5125 3858 e33f 5fbe 8a57 1d3f b1bf
000004a0: a90e c597 5ed6 f83f 5f3f a479 5a54 e93f
000004b0: e2b7 7beb 9d38 d3bf 6eb0 412b 16b7 ea3f
000004c0: c935 cc07 d029 fd3f f258 8f5d 3c57 01c0
000004d0: 8dcb 2ec4 e942 e83f b95c 5d5c 5e6f ce3f
000004e0: f413 8237 8c96 0240 4e7a e188 316a e23f
000004f0: 3a79 cb85 b97a 06c0 f341 664f f413 f63f
00000500: 5a5c 5f39 e04e f33f c9a4 e331 aecd bf3f
00000510: 4f3a 4b23 7f30 f93f ef8f a802 a804 e63f
00000520: 20fc 34ee 2475 d83f eaf1 cd6c 5526 b93f
00000530: 51fa d99a d50f f3bf 572a 0624 49f8 bebf
00000540: af7f 841f 8f88 aabf 74ed ff4a 001c f5bf
00000550: b694 9269 e282 e23f 5026 e80f 197a fb3f
00000560: 7a28 8da4 ca9f ebbf 64aa 1930 5976 f4bf
00000570: 25f9 1e2e 11a3 f5bf 6448 df73 ddb9 cabf
00000580: 67e1 7eca ed0a f1bf 34aa bf2c 1cde e5bf
00000590: 64f8 f03a d9aa c5bf c11d 6d97 a1af e33f
000005a0: 96d0 f8ca 4224 e8bf 148b cfdf c047 dc3f
000005b0: 2dd7 5cb0 6093 f23f bf45 90a4 1842 f9bf
000005c0: 598a b096 5266 fdbf b100 e553 c9ff d9bf
000005d0: 16f4 fbf5 0847 e2bf 89f0 afd8 7f05 fa3f
000005e0: 4515 2b9c 8fda e33f 5477 37a2 5b99 f03f
000005f0: 363f cef3 a55c f13f 5717 61ab f6a9 ea3f
00000600: cd04 5a22 bee8 dfbf d0dc 8c38 0802 d33f
00000610: 0ce0 1993 f143 d23f 8db6 a16f e840 eebf
00000620: 88ba 2fc3 baf2 ef3f 0e60 df7f 3726 dcbf
00000630: 661b 2d3d 08af eabf 6d2c 6695 a9a5 e83f
00000640: de4c 5998 24e7 dd3f 56fb 1f08 42d6 0340
00000650: e557 c2e3 96fc c83f 8791 3f6a a35c dabf
00000660: 8d57 f015 dc97 ec3f a422 22b6 ce61 d3bf
00000670: 8a53 b3ba 496c ef3f 61fb e9d0 5713 d3bf
00000680: a0f0 8ee0 35c5 d63f f3bd 7bfa f885 cfbf
00000690: 9b57 6423 6677 05c0 d8f1 74f4 44aa 01c0
000006a0: 54a7 b233 9862 d63f d39a 6164 bf44 d33f
000006b0: 141e e1fd a541 f1bf 8d78 9ca9 eb05 c43f
000006c0: 8a10 4971 ebec e0bf a059 baa7 5355 7bbf
000006d0: da36 181c 316e b7bf 7ca7 f7c4 0fa4 05c0
000006e0: 5fde 49dc 2a46 ecbf 5f1d 8729 a2ac e3bf
000006f0: c04d 02e3 cdbd bc3f b390 01d7 60e0 d53f
00000700: 7b92 e18c 3404 e83f 63d5 94a1 94bc e23f
00000710: b60a 06cf f24f f9bf 9b17 d536 1460 f73f
00000720: 4016 b3d8 9927 f03f eb91 7bf3 9f9f cb3f
00000730: e4b0 4b12 1bff fd3f 88be 6e3f 2e51 e1bf
00000740: 5b2b ee04 b25f d5bf bb66 9ab7 a44f 00c0
00000750: 6161 f72d b5e2 f63f 1c8f 25eb f76d ebbf
00000760: 6f10 d2c0 39b1 f13f a105 c81b aa3e ecbf
00000770: 6d0a 4f3c 148e d1bf 3cd0 8394 f331 e43f
00000780: 4aa9 4bcc 366f f6bf 957f 547a 86fd 793f
00000790: ceb1 ac34 506e f8bf 3b00 77a8 6a53 0140
000007a0: 9393 1c50 ef02 fe3f ce27 7237 1417 eabf
000007b0: b643 b512 6beb e43f 7839 0efa 4512 d7bf
000007c0: 5f35 98ff fbe9 e53f 59b4 3a0e 8731 f0bf
000007d0: fc65 abd2 42de e53f 6d86 e748 2763 e0bf
000007e0: 4e3e bf67 16ac e43f 19c6 105e 48c0 f73f
000007f0: fda6 576c 0779 d2bf 460e 7734 b544 d43f
