weights/init_z/36.npy (npy, 4224 bytes, 1 tensors)

array f8 [1, 512]
0	0x3fe5a52d6edfdf5d	0.6764132657544725
1	0x3ff8566c1998ef37	1.5210991859339182
2	0xbfe0614a4a82b6ac	-0.5118762450490144
3	0x3ff267327d6fb3e0	1.150194635377595
4	0xbfe2e726eeb65cd0	-0.5907168066359194
5	0xbfe899b995c3e3f3	-0.7687652516461853
6	0xbfd570ca4902f6bb	-0.33500916605030867
7	0x3fb7cecfc086e412	0.09299944353450965
8	0xbff60a7521c984d2	-1.3775531120120843
9	0x3fcd2c6216248951	0.2279169662588836
10	0xbfe2e2a0eef43a07	-0.5901646296568409
11	0xbff4c0440aef6eb6	-1.2969398905906195
12	0xbff991a619051c44	-1.5980587937681472
13	0xbfd308bfcf298e83	-0.2974090121335637
14	0xbff73994d3e4d057	-1.4515579487897605
15	0xbfc995123a3575aa	-0.19986179201343407
16	0xbfe1b0179a2bd266	-0.5527456294208377
17	0x3fff55d9e9586cb8	1.9584597697310482
18	0xbffb46ffebd1a845	-1.704833909194819
19	0x3fed3acf88ae4256	0.9134290380043903
20	0xbfe6243a121a28b0	-0.6919222215231198
21	0xbfe57d5987f8c5ac	-0.6715514808367309
22	0x3fe16cae1ea3ab6c	0.544516620485735
23	0x4001e5f6a644430f	2.237286852796735
24	0x3fc410c47171e607	0.15676169909765766
25	0xbff9ec4f23d8fede	-1.6201926613138578
26	0xbfdfbdc842a27b82	-0.49595839030546796
27	0xbff05ad588e4fdbc	-1.022176298851135
28	0xc00193bb735d2bfb	-2.197134877472761
29	0xbfd02b4dd32767ac	-0.2526430666017585
30	0xbff0ffd694b1b0e9	-1.0624604996074203
31	0x3ffd7bc9e70f4ef9	1.8427218461774244
32	0xbfe099df7dc46312	-0.5187833267583264
33	0xbff186ade0aa8a4a	-1.0953806663534515
34	0x3ff6a4a2341d10b3	1.4151937518773081
35	0xbfb54d8b160b9974	-0.08321446693626006
36	0xbff4d9bdb23be936	-1.3031594240442934
37	0xc000569e0c3ca188	-2.0422936397555453
38	0xbfcfd99fbfc75d95	-0.24882885803411328
39	0x3fd391f6401da1ba	0.3057838083391534
40	0x3fee31f0cbd2e7d6	0.9435962658819743
41	0x3ff2947a032e4987	1.16124917261604
42	0x3fd890f25628ce9a	0.38384684003833913
43	0xbfd37e95708bc5dd	-0.30460105887240535
44	0x3fee5532474954d8	0.9478999512017721
45	0x3ff3a0be6aaa2bae	1.2267440954771973
46	0xbfe7611cc683fbf9	-0.7306045415169812
47	0xbfc60ff74bb0ee90	-0.17236224361282781
48	0xbfe633a11bc8619e	-0.6938024084693557
49	0xbfe3ff8ea3bf17f6	-0.6249459455655131
50	0x3fd94272b7b5e1d0	0.3946806711242319
51	0xbfcf4522611af10a	-0.244297311224621
52	0xbfe14f74dc971581	-0.5409492786790652
53	0x3fda94feac136ed7	0.41534392170227136
54	0x3ff2b22d4b6d7d9b	1.1685002275843093
55	0x3ff72a3a9dc3644b	1.4478098070742529
56	0xbfe08c2da6a458df	-0.5171116118169968
57	0xbffe846c18188231	-1.9073296490897855
58	0x3fda373260cb5206	0.40961894466934756
59	0x3fd4607d9ae5fa08	0.3183893215827145
60	0xbf1119eb2705ebf4	-6.523607021861872e-05
61	0x3ffd9e1e481c24d9	1.8511030976099418
62	0xbfb0111c6e9cf809	-0.06276109409824938
63	0x3fc6b05c6a7b32f4	0.17725711058883287
64	0x3fdca43e474f217a	0.44752461398868315
65	0xbffa9bd1d862c5c4	-1.6630419209071627
66	0xbfd267ac6ca97797	-0.2875777302887114
67	0xbfee27257188429a	-0.9422785966326785
68	0xbff3fee6609c1600	-1.2497314237419914
69	0xbfd2df5cda4eef11	-0.2948829776685083
70	0xbfa2650ab4e27bbd	-0.03592713792863076
71	0x3ff441d403c7b60e	1.2660713336621288
72	0xbfc62c81d107d98f	-0.17323324877333987
73	0x3fe24c3877094530	0.5718042683530822
74	0x40035a028a8a6123	2.4189501594047598
75	0x3ff0cee14959be5f	1.050507818723325
76	0x3fe816d628b47779	0.7527876658457294
77	0xbfe5fc1b9f2d918e	-0.6870248898454052
78	0xbfd5ae003c9f64a9	-0.3387451736467236
79	0xbfd39f5f471a6a1c	-0.3066023058287628
80	0xbff24f4fabe531e8	-1.1443630900058626
81	0x3fdddd1ba76315fc	0.466620362724228
82	0x3fea4a6e75635229	0.8215858738645397
83	0xbfdc6a2251b2e35e	-0.4439779088821093
84	0x3fc53b69f0edc136	0.16587566627596012
85	0xbfe972bff8d69b13	-0.7952575550196762
86	0x3ff7d8d9b19694aa	1.4904419838942808
87	0x3ffc0e04c5c7b8f7	1.7534225202357996
88	0xbffbfc0d822d6a6a	-1.7490363202147372
89	0x3fb1c66b6f81949c	0.0694338938934202
90	0xbfecf37eba9b48a8	-0.9047235150012698
91	0x3ff1533721a03894	1.0828162492285047
92	0xbff356848accc399	-1.208622495829536
93	0xbfc9bd8514d6c74a	-0.20109618680504077
94	0x3f9ce88af0e953ad	0.028230830148760756
95	0xbff7fc76ced7ec13	-1.4991367416212185
96	0x3ff89d7126552ea7	1.53843798612335
97	0xbfe1ca48264b77fc	-0.5559426067300133
98	0xbfddd5ed6f3b5b1a	-0.46618209707723823
99	0x3fddbc14e98c936d	0.464604595256154
100	0xbff94ce1d8b65b68	-1.5812700715375403
101	0x3ff98da0ed23b09c	1.5970772994287818
102	0x3ff1eb9356369648	1.1200135581688233
103	0xbfe1d9c97532f02c	-0.5578353203814053
104	0x3ff1aeb12c0c67ad	1.1051494331972933
105	0xbfe589f5021f546c	-0.6730904618695042
106	0x3fe23d51c1b56676	0.5699852736826887
107	0xbfc1dd68e5356460	-0.13956938926529272
108	0x4005a08cc980c1a0	2.7033935301225966
109	0xbff9503bb79ce895	-1.5820882007961121
110	0xbfda1cc9ec49d0ec	-0.40800712657006843
111	0xbff24a05f16125c2	-1.143072073830226
112	0xbfb807cb051974b0	-0.09386891245363205
113	0x3ff2eac7a3b6345d	1.1823192973127086
114	0xbfe3080e153a941d	-0.5947332777619782
115	0x3ff217c124b00377	1.1307994301898512
116	0xc0061553c7bd0219	-2.7604137043529247
117	0x3ff8bf51f5351a3e	1.5467090204634952
118	0x3ff2185605e4d70a	1.1309414129477227
119	0x3ff630fff322021c	1.3869628426911111
120	0xbfcc17b436779d5c	-0.2194733873322815
121	0xbff83d1c511807ce	-1.5149195831040632
122	0xbfda077607b23c25	-0.40670538665375694
123	0xbfe0fd8535929678	-0.5309473081913003
124	0xbfbfe1528fe37c67	-0.12453189862161339
125	0xbffd7063a2bf0ce7	-1.8399387700345018
126	0x3ffb55e71dab697c	1.708472362419882
127	0x3ffb137372b0115a	1.6922487716666041
128	0x3fd48d0eac4d9015	0.32110945536101215
129	0x3fc9ed2fd06f5945	0.20255086591232377
130	0x3feb89b0597562ee	0.8605577227818608
131	0x3ffe9c5b7b00cf9f	1.9131731800853016
132	0xbff9c9a99504166e	-1.6117339917122098
133	0xbfeebf60e15a678c	-0.9608616258076252
134	0x3ff5d340583d0550	1.364075035744765
135	0xbfc4c6910a065fca	-0.1623097704839423
136	0x3fb11cbd79fffae0	0.06684478977693287
137	0x3f9d09ee945d414f	0.028358199887692333
138	0xbff2c62e2cc60e36	-1.1733838795634148
139	0xbfe2ba314f58dc30	-0.5852285909412611
140	0x4000690f79c3e09c	2.0512990487005265
141	0xbfe803b40b794675	-0.7504520629974666
142	0xbfd74d71ca339998	-0.36410183664556817
143	0x3fb62c8923005be3	0.0866170607044832
144	0x3fe222420544ff5c	0.56668187169269
145	0x3fe68439ac329ae7	0.7036407817111837
146	0xbff0e3fbd828443c	-1.0556600993770777
147	0x3fd1fc2520b29aa5	0.281014711314507
148	0x3ff875504243f0cb	1.528640993928138
149	0xbff9e8c0fddba730	-1.6193246761635685
150	0x3fedc919112aa310	0.9307980857166473
151	0xbfe6250a593989fe	-0.6920215361281519
152	0xbfef8fed42c8492e	-0.9863191894858454
153	0xbff9fd51c86f5f43	-1.6243455724233662
154	0x3fe52fcf26a6a772	0.6620860819723318
155	0x400586d021169519	2.6908266625420194
156	0xbff72657645f7506	-1.4468606873336411
157	0x3fe16253f5116d65	0.5432529245839929
158	0x3fba7ddf0e2158ce	0.10348314375855525
159	0xbfe9ff560d2cf664	-0.8124189622246374
160	0x3feaa8923535bdab	0.833077529836307
161	0xbfd53843903947d0	-0.33155907711363586
162	0x3fd379db04141bf0	0.30431247137352013
163	0x3fdacb9e75ffd741	0.4186779167497328
164	0xbfed9cb0f83173ac	-0.9253773543856503
165	0x40037e97e2adfa51	2.43681313603819
166	0x3fd8f6e5411c077d	0.39006930693005143
167	0x3fe37bd0dd4c2f43	0.6088642427653003
168	0xbfd09962cc7f68a3	-0.25936193438031746
169	0xbfe165c1108a8005	-0.5436711619440763
170	0xbfce1fd1ff9ccf27	-0.23534607869225363
171	0xbfd48088d3680bb5	-0.3203451218143372
172	0x3ffba0f33c19ee48	1.7267944667536472
173	0x3ff9d024d8330dcb	1.6133163876810268
174	0xbfd25af823cc3780	-0.2868023252093437
175	0xbfef6dfeee29f176	-0.9821772243154061
176	0x3fca9dd73eca4330	0.2079419190017915
177	0xbff40d257985aecf	-1.2532095667801746
178	0xbfe63fa601a1dea6	-0.6952695876961641
179	0x3ff1baf592e30989	1.1081443536537299
180	0x4001f05088cb42b8	2.242341107085249
181	0xbfd0d469299c7acd	-0.262964525829301
182	0xbfce2952adc2205e	-0.2356360767773848
183	0x3fe001df301c2e7b	0.5002284946107943
184	0x3fc6c64f26382f07	0.17792691579995099
185	0x3fdefcef6842f896	0.48418793851659225
186	0x3ff29c8e1738feae	1.1632214457639907
187	0xbfec022469b49612	-0.8752615036543736
188	0xbfce456149e92141	-0.2364923106090462
189	0x3fe3a74ee78a2a2a	0.6141733667621498
190	0x3ff556f97ac5533e	1.3337340160116606
191	0xbfd09137192d5d7b	-0.25886323412620244
192	0xbff347404dac85dc	-1.2048953088891414
193	0xbfee4f607bcf94e8	-0.9471895616703963
194	0x3febb7f9ffb5c9ec	0.8662080759370929
195	0xbfd85683490e2032	-0.3802803243092995
196	0x3fcb82740e6cc3cc	0.214918620150938
197	0x3fd377d35ee66d3e	0.30418857829655
198	0xbfd4eb0ec59728ea	-0.32684678359932084
199	0x3ff84eb2157397db	1.5192128026915188
200	0x3ff4fabed076a4eb	1.3112171309569998
201	0xbfd8725a88ff2fa3	-0.38197959307285084
202	0xbfe057bbc2adbf86	-0.510709648353427
203	0x3fe86ee3d9d4eff5	0.7635363821532325
204	0x3fba026b4cb9156a	0.10159941313857748
205	0x3ffd379f8eaae025	1.8260799000690977
206	0x3ff9dbaf3f164a31	1.6161339248980193
207	0xbfc2080ea2613717	-0.14087088516901566
208	0xbfc07dcdeac6fbb5	-0.12883924449667253
209	0xbffaaef6e0b8a97a	-1.6677159097840488
210	0xbfe4312bc521977c	-0.6310023164958092
211	0xc000ce6e98a9a636	-2.1007968832753035
212	0xbfd6dd1d77e05191	-0.3572457953134967
213	0x3fd61b456c59ef19	0.34541450101072396
214	0xbff43a0805038319	-1.2641678043220905
215	0xbfdf1448bb11ab23	-0.4856130434842944
216	0x3fd404ed9c9a894a	0.31280079167676844
217	0xbff245ee7cc842b0	-1.1420731424624755
218	0xbfdcb8c41ca588e5	-0.4487772254707479
219	0x4005a50c7ba22e65	2.705590215575102
220	0xbfcd0f226ecb6578	-0.22702436838043716
221	0x3f9dd36a5ee41cac	0.029126798669520212
222	0x3ffd93714edc87eb	1.8484967308545446
223	0x3fcbdedc8450be0e	0.21773869000161067
224	0xbfe92cd7b7a88b66	-0.7867239558293988
225	0x3fe80d747d38d713	0.7516424604170616
226	0xbfed5515ed882df2	-0.9166364325805587
227	0x3fe0e0a113d5ab24	0.5274205577273716
228	0x3fd6d5d35e80ae24	0.3568008826138984
229	0xbff34c281e90fbac	-1.2060929483411469
230	0xbfea202e93593f42	-0.8164284589674724
231	0xbff53b366c060c67	-1.3269561977074547
232	0xbff93e121b494ea4	-1.5776539865372934
233	0xbfa6dbc6ffe6078c	-0.044645518052688876
234	0x3fe6fd292e5fbbc5	0.7184034257642159
235	0xbfd56c2e097e0e21	-0.33472777297012796
236	0xbfe2abb851991b98	-0.5834619134628722
237	0x3fd714cd190f6704	0.3606446022728138
238	0x3fe775af00eaf010	0.7331156747745826
239	0xbff33d6e64f1e671	-1.2024978583489452
240	0x3fe8a14e5ca61f6c	0.7696906861828956
241	0xbff1b7b973996fde	-1.1073545947647214
242	0xbfd4ac4408b44cb2	-0.3230142674448856
243	0x3ff0737f11b8b554	1.0281973545309784
244	0xbffa99b4bdb9c50b	-1.6625258837851244
245	0x3fe33e17254fe01c	0.6013293961286794
246	0xbfecdcd32170d59a	-0.901956143678649
247	0xbff90e2f6dfbe1ac	-1.5659632011648723
248	0x3f90fad569f3c4ed	0.016581854430971644
249	0xc0011d3866740fc1	-2.1392677311104937
250	0x3ff1f8a5145c2beb	1.1232043071092856
251	0x3fddb53a5d46709b	0.46418627842809607
252	0xbfc8a285a75a3b6c	-0.1924597804213265
253	0xbff21d1c5b06487d	-1.1321071200987085
254	0xbfad9ff99dab67dc	-0.0578611378638951
255	0xc0003819e1c43593	-2.027393115806896
