weights/init_z/38.npy (npy, 4224 bytes, 1 tensors)

array f8 [1, 512]
0	0x3ff023a8889f3ae8	1.0087056481167398
1	0xbfd4ae0d916f5423	-0.32312335207581294
2	0x3fc059fe99edac8c	0.12774641529117436
3	0x3fd1e7cca507a04b	0.2797729121798553
4	0x3ff49ea500e314aa	1.2887315783166664
5	0x3ffa0136b4fa3c8a	1.6252963132317597
6	0xbfde07372d9af002	-0.4691904015887759
7	0xbff3fd8b2b799357	-1.2494003008116203
8	0xbfd0aace9e4cba5c	-0.2604252382178964
9	0xbfc2e2ee7d5e7a6e	-0.14755040284667892
10	0xbfdebb4fe7bc274b	-0.48018262510651216
11	0xbffb55b5c94c3a5b	-1.7084253180688822
12	0x3ff1a15000268658	1.1018829351309218
13	0xbfa9a5615e7f6d73	-0.05008987692391544
14	0x400455e4fb62f205	2.541940654713701
15	0x3ff35ab1ee5ef848	1.2096423446050881
16	0x3fff0673b62e9bc1	1.9390751949774627
17	0xbfd3058003b3daf7	-0.2972106968076526
18	0x3ff52275b392ad50	1.3209130301064143
19	0x3f9435a687ee17d2	0.01973591046000662
20	0x3fdf2189f4a143f5	0.48642205133097544
21	0xbffdde89a3ddd331	-1.8668304825816444
22	0x3fda79a9550ab13e	0.41367562584743556
23	0x3fc22a7e3cedfb4f	0.14192178702429678
24	0xbfa7a70c7e6a60e5	-0.04619635623129329
25	0x3fdb464170832795	0.4261630629304077
26	0x3fe4aefd68101ed7	0.6463610680084128
27	0x3feb1b717ec2b418	0.8471000171463201
28	0x3fc84e6b969c39c9	0.18989319662109796
29	0x3fe660d0808a9df8	0.6993181715560572
30	0xbfe57e2208af1264	-0.6716470880133554
31	0xbfe80f3dcb0b1c09	-0.751860519951948
32	0x3ff944bce1314759	1.579281692178901
33	0xbfe324f1cdef3438	-0.5982598325878206
34	0x4000d9f85e7affbb	2.106430757645254
35	0xbff382ffcb14b565	-1.2194822247359636
36	0x3fcba46df54adc5a	0.21595549084824733
37	0xbfd085e4b37f8048	-0.2581722023878723
38	0xbfbed1489e6eeef1	-0.12038091533662133
39	0xbfb53a44757db013	-0.08292034023696741
40	0xbfedbbefd6a6f6ac	-0.9291915123391923
41	0xbffaa1824cbe7213	-1.6644309041795438
42	0xc0049f134609021f	-2.577673480176841
43	0xbfe54fc186c533f3	-0.6659858352883233
44	0x3fe2c767a8ed4943	0.5868414210656642
45	0xbffbb7c68ba77c1d	-1.7323670821422248
46	0xbff50e79df5c5241	-1.3160341954254735
47	0xbfe70948c518e8f5	-0.719883332210229
48	0x4000bc36482211c4	2.091900409259525
49	0xbff336313ccc7719	-1.2007305502842824
50	0x3ff2b637b8b460a4	1.1694867339156554
51	0xbff584178be2c4bc	-1.3447490181245447
52	0xbffa973e4e0d586f	-1.6619246529494622
53	0xbfe50615c54ea7bd	-0.6569928029687088
54	0x3fe0b9854c4be2d5	0.5226465692677161
55	0x3fce2b0679f1ca6a	0.23568802789994275
56	0x3ffcb4f0e9b9bf8b	1.7941750650315693
57	0x3feac2e6f600ed4c	0.8362917713888378
58	0x3ff5dfb047651b87	1.3671114720216069
59	0x3ff361e132f4fd81	1.2113964071757837
60	0x3ff7d4d18553bd22	1.4894576271142985
61	0xbfe6a7aba8a71e7b	-0.707967595481889
62	0xbfe522327a80181d	-0.6604244606576263
63	0x400123788d3f730e	2.142319777964423
64	0x3f9a7c5a701bb4d8	0.02586499509100268
65	0xbfddc76c2acecbdb	-0.4652967851681617
66	0x4000d2eb002bf6c9	2.102987290708232
67	0xbfe50a82b215c037	-0.6575330236646612
68	0x3fdfe2cd5288a02c	0.49821789798670824
69	0x3fa7fcbf65f0d675	0.04685018653291887
70	0x3fe07ccca402906e	0.5152342990227348
71	0x3ff481a42322c04b	1.2816506741037468
72	0x3ff88c070ee5e89d	1.5341864187198901
73	0xbfe0a7bed4443267	-0.5204767366245279
74	0x3fbdea5e74a14cba	0.11685743663228979
75	0x3ffb8984f422e8e7	1.7210740601136025
76	0x3fd8dfb541ffaa39	0.38865405507263834
77	0xbffd679ddd36a901	-1.837797035327242
78	0xbfd9510562628127	-0.3955701313771151
79	0x3fefa37a6042d8fa	0.9887058143711152
80	0x3fe4abfebc22478e	0.6459954905023879
81	0xbff3112bc017e71e	-1.1916921142241743
82	0x3fc158b4e8487728	0.1355196127123517
83	0x3fd609fd4cf703ee	0.344359707985915
84	0xbffa8d8d581bd901	-1.6595586244343965
85	0x3fb11f182b846ad3	0.0668807131045626
86	0xbfd238dd90ad9461	-0.2847207939979111
87	0xbff165eedb801fa6	-1.0873859953153242
88	0xbfd0c4c9ab1b3bcd	-0.2620109721146349
89	0x3fd8fa5b15afbb9c	0.3902805053502847
90	0xbfe2d3c5284fc4a2	-0.5883508479438613
91	0xbff2ef00e47ef411	-1.183350460588603
92	0x40048b5677deb9b3	2.568036018833675
93	0x3fe404eda99c2bc2	0.6256016075798174
94	0xbff87c8dd9ceafc7	-1.5304087169742944
95	0x3feadc8668c115d7	0.8394195600491753
96	0x3f9a3ffc64337c5b	0.025634711852827823
97	0xbfe1988e83ee4c3d	-0.5498726441168241
98	0x3ff2a98de3f869f4	1.1663950829594087
99	0xbff4e4988904885e	-1.3058095314268239
100	0x3ff58c8f556a5a85	1.34681638112457
101	0x400899407a58f3e4	3.074830013122197
102	0xbfa4099526fe846a	-0.03913560963634029
103	0x3fd483396e6f8f80	0.3205092981790969
104	0x3ff893ff4538616d	1.5361321166911595
105	0xbfd30ac4ee9db776	-0.2975323038325465
106	0x3fc9d99e15ebd466	0.20195365972873275
107	0x3fc36d5c46194a70	0.15177491591255743
108	0x3ffee8c9c3082fcd	1.9318330400883383
109	0xbfc1522cc8df18f2	-0.13532028015305958
110	0xbf7eb7ff0bafcc41	-0.007499691268992471
111	0x40081d2337db2932	3.0142273296125035
112	0x3fef6541be4a1fe5	0.9811104504196889
113	0x3ff0ef30f6e456b9	1.0583963054863672
114	0xbff1353d51d126ba	-1.0754979320503666
115	0xbff1553ba59517b4	-1.08330883675215
116	0x3fef1d952b96338e	0.9723611689856726
117	0x3ff3c3a8192079d0	1.2352677327649992
118	0xbfb8d68ffc6cba4b	-0.09702396309578736
119	0x3ffc3f106414228e	1.7653964909860949
120	0x3fd8636ee878f98e	0.3810689230193923
121	0xbfb0cc171f950d81	-0.06561417122889247
122	0x3fe49f6405a6a85a	0.6444568739291399
123	0x40020d6832ff5cb8	2.25654640046886
124	0xc000ed1fdd34f49e	-2.115783432177138
125	0x3fe17e579d429244	0.5466726371274224
126	0xbff11079d06ac1d8	-1.066522421006189
127	0xbff25d6a265f17ff	-1.1478063105473664
128	0xbff58e11e7dc1b3f	-1.347185044958408
129	0x3fe403bce59c7f13	0.6254562840076424
130	0x3fe4288c63a77cb1	0.6299497553226471
131	0xbffa35dde64afce0	-1.6381510730569104
132	0x3ff20606885cc54f	1.126471073785371
133	0xbfcea9b4b6d95928	-0.23955401352095262
134	0x3fdd68b66467ff10	0.4595161419419904
135	0xbfcfdd2e6def06b6	-0.2489374195848108
136	0xbfee2f80aee0d845	-0.9432986655799672
137	0x3fe741d72336e2d2	0.7267871558934422
138	0xbfe395f678a3b003	-0.6120560032118195
139	0x3fe61bc2efe106f0	0.6908888516556697
140	0xbfd63239887524a4	-0.34681547475754315
141	0x3feea9dcc6f9ad1f	0.9582351576076781
142	0xbfe538796e2ec325	-0.6631438400273494
143	0x3fff4fa6ce3b4efe	1.956946187584378
144	0x3fe3116cb7554d46	0.5958770352103009
145	0xbfef9b3e2933b880	-0.9877005390860774
146	0x3fdb139b59a40794	0.4230717063329561
147	0xbff3f9925f6b8f74	-1.248430607542983
148	0x3f83a55ef9a99b8d	0.009592763895126111
149	0xbfcbcbfa03c64555	-0.2171623724393991
150	0xbfd63eabacd28691	-0.34757511021789705
151	0x3fe947a8e3fcf8a3	0.789997525491135
152	0xbff961774316bc3a	-1.586295377793944
153	0xbff32e74e2da6f42	-1.1988419400649524
154	0xbfe06422ab3d31a7	-0.512223562670944
155	0xbfe054bd99c0bb27	-0.5103443148599113
156	0x3fd950677989a484	0.39553248280442
157	0xbfb6379cac2f82a6	-0.08678607181310358
158	0x3fcf2ffbd04c95b8	0.24365184470040702
159	0xbff59a7e9210e9b0	-1.350218363352365
160	0xbfd9c8700e191d5c	-0.4028587472607421
161	0x3fc1f1c5664d23f1	0.14019076819593537
162	0x3fb5c13ed366aa85	0.08497994099767865
163	0x40075e929ed08bff	2.9211780936616374
164	0xbfdc4172201da746	-0.44149449478446845
165	0x3fe17a03f8c3c5da	0.5461444719969066
166	0x3fed6fb6f54235b6	0.9198870458800943
167	0x3fdc332ebd252044	0.440623936378419
168	0xbfe836d66d16cbc8	-0.7566940432210396
169	0xbff44ee8a027d63c	-1.2692648178175565
170	0x3fea6d191be93f98	0.8258176369799797
171	0x3fe64057f120705b	0.6953544339662686
172	0xbfd44726ca95a7f0	-0.3168427446713613
173	0x3fb24b45265321fe	0.07146103082335029
174	0x3fe0eda077475008	0.5290071801814529
175	0xbfb696495ab1006f	-0.08823069061418364
176	0xbfd68c74d08fa8f0	-0.352322772667903
177	0xbff9d8715102d7dc	-1.615342441987642
178	0xbff3b4ffe511d57a	-1.2316893528016792
179	0x3fdfd7e6ed2dba2b	0.4975526157567482
180	0x3fdcb4750fc60318	0.44851423778895727
181	0x3fc7743af1974928	0.1832345657008514
182	0x3fe8b1ca6dd65c0c	0.7717029710064494
183	0x3ff611991154b5e0	1.3792963673580445
184	0x3fef20a26283d2ed	0.9727336811179988
185	0x3fee02fbb1563d9a	0.9378641570673836
186	0x4003ece613df8299	2.4906732132515796
187	0x3ff81b7042fd513e	1.5066988579538498
188	0xbffb22db55e5bd8f	-1.696009955918132
189	0xbfe79b929dec401b	-0.7377408108168341
190	0xbfe203791420b86d	-0.5629239457246179
191	0x3fdc556ea0b3fecb	0.44271436399138214
192	0x3fcfbb5cf0bbb07e	0.2479053664641277
193	0x3fef6df7b752d77e	0.9821737843073917
194	0x3ff2bcfc36841092	1.1711389665152052
195	0xbf8b4d2e90ca4f10	-0.013330806535385459
196	0x3fd40e75dd650bf3	0.31338259335114954
197	0x3fd8ce0d756f1b2a	0.3875764509979712
198	0x3fe35b1e22253401	0.6048727671528696
199	0x3fe882d56ee0a337	0.765970913465117
200	0xbfdbb9e10d03b425	-0.43322016020721527
201	0x3fca8e68256123da	0.20747091126602762
202	0x3fc769a7511cca7a	0.18291179142541464
203	0xbfb41c931053bdf0	-0.07856101177798513
204	0xbfe33ab36592eec2	-0.6009156211725541
205	0xbfd05becfc6d497b	-0.2556107010942907
206	0x3fb98de86b32973a	0.09982159249429126
207	0x3ff82dc3fa4ba8ca	1.511173227040262
208	0xbfe4a2090865fc81	-0.6447796978026333
209	0xbff8a977500366da	-1.5413735509413784
210	0x3fe8ba947597a3a7	0.7727758690572174
211	0xbfe7607e92b97c54	-0.7305291047777112
212	0x40042ae229c064f5	2.520939184364233
213	0xbfdff919c0917558	-0.49957889371383635
214	0xbfe49ec5503652a9	-0.644381195702029
215	0xbff5ba6e92c3b19c	-1.3580156071649077
216	0xbff177b1e3338cc1	-1.0917223811200503
217	0xbfe0778e0cfc3bbb	-0.5145941022509456
218	0x3f60bbc73fcb7243	0.0020426646791363036
219	0xbfe838e496c8cab9	-0.7569449372297959
220	0x3fcf856adb0ed081	0.24625907608208666
221	0xbfe4c6fa9a724a6f	-0.6492894188434785
222	0x3ffe2a231c35dcce	1.8852873899430054
223	0xbfed51cdf52a2610	-0.9162359035846652
224	0xbfd0f0bfa1e41c71	-0.26469412622140626
225	0x400058b33536ecd1	2.043310561884575
226	0x3ff4720e50651439	1.2778456821845465
227	0xbff28d5c5b53373d	-1.1595119063744754
228	0x3fe05d7fd350fa7d	0.5114134909889142
229	0xbfdbdf8efbfcd95a	-0.43551992996380806
230	0x3fdaece58c9266f6	0.4207090256473828
231	0x3fa794980bc082ef	0.046055556711740546
232	0xbfc3f7810a782a87	-0.15599072467042083
233	0xbfc72fd8069894bb	-0.18114757844992888
234	0x3fd439ba101e3be7	0.3160233647731147
235	0xbfe093fdd36d7672	-0.5180653695530977
236	0xbfe2553f69b38102	-0.5729062141872705
237	0x3fc67cfe7c064762	0.17568951660046667
238	0xbff92b97c2febf3a	-1.5731427781101517
239	0x3fe54da54b3d05b7	0.6657282323359855
240	0x3ff2421437f4a80b	1.141132563187514
241	0xc00280c7f8f67f77	-2.312881417295951
242	0x3fe79914c5aaec41	0.737436662740386
243	0xbff3f4094c0428cf	-1.2470791787514377
244	0xbfa89979300a6a8f	-0.04804590903696237
245	0x3fe8c4db82ea78ac	0.7740304524375197
246	0x3ffdf0fff836278c	1.871337861610729
247	0x3fd5241ee62b3f70	0.3303296325438998
248	0xbff1ff7ef25c9fa7	-1.1248769252069708
249	0x3fe4e5bebb1d3fa8	0.6530450491500135
250	0xbff2d6eedcffe65c	-1.1774738915250031
251	0x3ffc237b576d24a7	1.7586625495044161
252	0x3fe5036cc81a3e05	0.6566680820705534
253	0x4002e0d244b6d37c	2.3597760551733113
254	0x3fffe744811822de	1.993961815142192
255	0x3fef2380db121f63	0.973083904144897
