weights/init_z/4.npy (npy, 4224 bytes, 1 tensors)

array f8 [1, 512]
00000000: d7bb 375d 39e3 a93f d546 76e0 33ff df3f
00000010: e5be 1c68 7cde efbf 564c b57f f531 e63f
00000020: a17d 18bd 73c5 dabf cdae aca8 6d5a f9bf
00000030: a5f5 c58a 03ba e4bf 8c65 8c1f 8727 e33f
00000040: 1be7 09a4 9543 d53f eecc 3675 105c f2bf
00000050: c7b3 2c60 24cc e33f 316d b2b3 4f86 b6bf
00000060: c605 56da 6234 db3f 1382 57b2 a243 d53f
00000070: 3e0f 82c4 5182 f2bf 09a1 5ec3 bc76 d63f
00000080: 515f 28e1 9e6b e3bf 815e 9b65 6dc0 f83f
00000090: f80e 2d4d 9d25 e73f 1637 dfc0 149f a73f
000000a0: d38d 75e9 aa74 efbf f4de 83a2 9bde ab3f
000000b0: 34cb 7f27 5f77 c43f 364a 6006 da57 f3bf
000000c0: 32e3 d614 71c9 0140 20ba 0aff 213c d93f
000000d0: 654c 01af e513 fb3f dc4a f61d 14ce f1bf
000000e0: a2cc 489d 052c fa3f 53b4 3edb 83c6 f5bf
000000f0: 60c7 0e8f d7d6 e4bf 8578 a8d8 c25b e13f
00000100: 6d1a 605b 4694 a83f a0c1 7ab5 55dd 02c0
00000110: acf0 f2e4 78b0 f1bf 4a94 6f2f 8ecf ea3f
00000120: 8060 4ca4 f5b3 0040 ad72 598b 6046 ed3f
00000130: 2749 67d5 50ad d1bf 0ac0 7c85 067d e93f
00000140: 1ba8 34bb ff4c f2bf 9318 ee4a 4351 e03f
00000150: c138 c186 328f f5bf c1e5 bd70 632b 83bf
00000160: 87f8 15fa edba c0bf 901e c38b b1aa e93f
00000170: b0b9 abfa c263 d3bf 3633 4f11 673b f33f
00000180: cd7a 5a04 f32e c9bf 471f 3ad7 d7c4 ea3f
00000190: ee6a ec8c d82b e93f bc53 be40 3a74 fdbf
000001a0: 4947 3895 6c39 a33f a023 ae5b 2965 a23f
000001b0: 2af8 81fd 6feb e8bf 32a9 5b27 eef6 c63f
000001c0: 402a d85c de49 f7bf a2e5 e2f3 44cc e13f
000001d0: 75e8 8dbe 1b50 e03f 3043 4cf1 7f3a d33f
000001e0: e5bf 595b 0bd0 0340 74ad 4851 cb8c d63f
000001f0: ef23 cb8c c745 b13f 9dc5 3061 b66e e7bf
00000200: b193 1c91 5c04 d33f fc23 5924 e0c6 eebf
00000210: 3fbd 7d7a 5e59 f43f 06e0 1107 81b9 e4bf
00000220: ad46 5ad3 ba48 c43f 6692 f749 61d7 ff3f
00000230: be05 b722 83a0 f23f bf47 8bf2 7c0f cf3f
00000240: 80c0 7e18 2714 f63f 9bbe 435f 1eef abbf
00000250: 673d 9c77 8e72 e93f 1e8f 4ea8 518c 933f
00000260: 146c 3a66 59f9 ecbf 7c55 0ac4 9089 db3f
00000270: f9b3 bf3f a7e8 ed3f 8eac 9277 8826 d6bf
00000280: 7f28 19ad cf8d f1bf 41b0 5b71 fbe6 e0bf
00000290: 41d4 6c9e c709 03c0 328a a811 2572 e3bf
000002a0: 3b14 b961 6334 f1bf 4a3a 22b5 e22d 0040
000002b0: 5a26 c45b 7513 e2bf 6280 455f d6af f8bf
000002c0: fd42 1094 efdd eb3f 447b 5d6d 4c6d c6bf
000002d0: 95b5 6f48 7ee2 a83f 0770 b40c 8f25 c83f
000002e0: a319 cecd c8ca ca3f ee10 a3cf e7f6 d7bf
000002f0: 795a 9712 e48c ee3f 6a1b c6e1 71be e03f
00000300: 5434 f899 7dbb dfbf a7e8 5d65 8df2 c5bf
00000310: a4c5 3a7f 4438 eebf 7170 e1d4 aff9 d13f
00000320: 3a76 ec67 b89f e73f b932 a070 f8d2 e43f
00000330: d95a 718a f4ab e33f 96ce 6953 6633 c0bf
00000340: 78dc 7aa4 1143 f93f b22e ecdf ed84 cabf
00000350: 004b 04b3 e7c9 9e3f c2b7 3372 f883 d5bf
00000360: 0076 94d6 b3cd b43f 1d7a 000a 7fc9 cebf
00000370: 74fa f63b e741 0040 9beb 6a92 1241 db3f
00000380: dc67 5f97 6ced fabf bf64 3e60 cbc4 dbbf
00000390: 63ec e032 dea8 f6bf 6572 53f0 2128 ec3f
000003a0: 1581 2579 55fe f53f ff15 4114 e3dd dcbf
000003b0: acba 982d 0fa2 e33f daa5 7906 69e6 cabf
000003c0: 85d0 2aff 9f1d da3f 085c b27e e7b7 fb3f
000003d0: 5ba7 74f7 5a5d d6bf 55d5 43ad edba f3bf
000003e0: 82f3 4392 1afc e63f b976 f910 a887 e03f
000003f0: dbc2 3f25 c88f e53f 72fb a10b 5c6c f03f
00000400: 0c1c 52ca f7cb e5bf 9cb8 29da cb74 ffbf
00000410: 0153 396f 8da7 f03f 5fb5 aaa3 5327 dabf
00000420: ea29 4725 8351 f3bf 85a2 9d26 51b1 f2bf
00000430: ba47 ca31 d10d f23f a8ab 4fc7 8b25 c73f
00000440: 6294 3037 bf62 d33f 1e5b f386 5e36 eb3f
00000450: e8dd bd2b 2ca9 e5bf a66f 3528 7800 f2bf
00000460: ab35 a77b 604b ebbf 6d17 4d6e 56ac f1bf
00000470: 0998 8f45 50a1 d2bf d98d e989 df82 ecbf
00000480: 3fb9 70a0 fec7 a33f d61e 647b 3bc6 debf
00000490: 2e16 232a 8979 b4bf e166 5a1a 15cb e43f
000004a0: f856 f651 a16b f63f 8c24 c027 1fe5 f83f
000004b0: db89 e33b 8a6b bd3f 98e8 7417 f32e cb3f
000004c0: c1c4 da9c a644 e0bf f03c d592 8018 f03f
000004d0: 79cd b922 3782 f83f d6bb b935 c9fe e2bf
000004e0: be47 47b9 8d73 e83f a279 9b40 9e17 d5bf
000004f0: 0003 829d 18e7 c5bf 57ea 9397 a496 c73f
00000500: d9f6 da87 e1ac d9bf 9072 55ef b1a4 ec3f
00000510: 7b7f 95e3 02ef f7bf 9c27 9b04 b140 e6bf
00000520: 1275 e68b bf91 bebf fc23 640f 99b7 f0bf
00000530: f509 7e56 b114 d73f ef0b 5a4a 0c3d f8bf
00000540: d94c b708 3c40 ac3f e163 062f 530b f7bf
00000550: 1610 aef0 7197 c2bf f5d6 f7ef 2242 e03f
00000560: 7bb5 182c e6a0 0140 fe20 d67e fd3d f13f
00000570: b922 aa51 38e0 f93f 2dc8 972b a066 b13f
00000580: 3db8 98e9 06ed 0040 5724 1f71 90e1 cebf
00000590: b695 b203 0124 d0bf c0de a148 6983 f4bf
000005a0: 7261 63c7 be72 cc3f 4649 dd18 8cdb f03f
000005b0: dfd0 94df 9048 e4bf 9712 6f3f f2b7 d7bf
000005c0: 0039 3486 b8aa ddbf 55d0 13c7 8436 d5bf
000005d0: f1c6 0fb3 6be4 e2bf 85ad ef40 c399 f5bf
000005e0: 4d70 a709 7218 f63f c9f6 2ef4 4c8c ffbf
000005f0: a042 4f47 a8aa edbf c613 c523 dcff d53f
00000600: 6862 705d 5b2f f03f 50e1 6374 6eb3 cabf
00000610: 9348 0f0d b520 d2bf f9ce 0a4c fd54 a93f
00000620: 53d8 fa24 56b9 d0bf 08cd fa3f 460e ec3f
00000630: 02a8 2801 7ce7 debf 78c5 e24b 8c88 efbf
00000640: 09b7 b089 1b40 debf b0f7 d316 04a5 b83f
00000650: 6c18 3daa dbaa f33f 1328 0e2a 1999 f93f
00000660: de19 89e5 0090 d9bf 3809 fdbd 4b6d f7bf
00000670: 2daa ddf7 5024 f6bf 8675 9ee6 a800 0140
00000680: 0b92 8955 9ec8 d9bf 06ae 3de0 554e dd3f
00000690: b3d7 c7e1 32ad fe3f 68be 5522 83c3 e5bf
000006a0: 5203 c9f4 cce7 c8bf a912 4653 3c94 e2bf
000006b0: b1f5 1638 df88 f1bf 60d3 65ec 9897 e93f
000006c0: 9fff 9233 1b0d f13f 33e9 e227 d5fa fdbf
000006d0: 5c1e c17a 2c6a ef3f 56bb 06a4 2b34 cebf
000006e0: 3e30 da34 1181 c73f 7348 257d c553 c93f
000006f0: 866e 4918 95e7 f4bf ab28 f01f 4fe5 d3bf
00000700: b558 92a4 8fb5 efbf 7165 4ad5 dea4 fe3f
00000710: bab8 8df4 9d7c 0140 b1d9 6a61 3683 b53f
00000720: 1781 f5fc 00dd f2bf 42db 65a4 347f f23f
00000730: 4407 a2e8 fa51 c8bf f3c3 0038 57ed fb3f
00000740: a7cc d4e6 df7f ff3f b3d2 fc87 39c4 fa3f
00000750: 67d3 084c ee4b d9bf 1612 c989 3af0 efbf
00000760: 2c30 8da6 b437 e5bf 9c6d f9db 14aa b8bf
00000770: 2765 6a66 d48f edbf 59dc 7194 0918 f33f
00000780: 10a6 e346 f209 e53f a4c5 9dd9 e563 a1bf
00000790: bd16 fae6 09a0 d9bf 65f4 e428 2fc7 e43f
000007a0: b2c5 c3a9 010e f63f 9b6a 5e15 71e0 febf
000007b0: c250 72df 91ef cd3f 23c6 90d6 d23a d3bf
000007c0: 8a7d 2cce bad0 e7bf 39ef 0b62 23d7 d5bf
000007d0: 6a81 f06d db37 c13f 8ed7 da88 bde9 fd3f
000007e0: 48e7 25b5 9836 ad3f cb9d 226b 4c81 dbbf
000007f0: e7e2 f222 92a2 f3bf 5754 e717 9ac4 e83f
0.05056170714293955 0.499951333237829 -0.9959089311068651 0.6935985082913116 -0.41830152002691007 -1.5845772351121241 -0.6477067671218505 0.5985751739673772
0.3322500326099644 -1.1474766329454797 0.6186696890268814 -0.08798692834027545 0.42507239648702144 0.33225314537233536 -1.1568162609191428 0.3509971530825316
-0.606887283097402 1.5469793290157272 0.7233416087478579 0.046135567230164806 -0.9829916534185322 0.054432738865157676 0.15989293507262803 -1.2089481591289206
2.2233602169111686 0.39429521471439166 1.6923577152381537 -1.1128121538537732 1.6357475418015288 -1.3609655918364936 -0.6512258333298 0.5424513084033299
0.04800624719068911 -2.358073633011557 -1.105584043819401 0.8378363539201328 2.087870868283119 0.9148409578006828 -0.2762033542650379 0.7965118987249309
-1.1437985718462247 0.509919782970217 -1.347460295091466 -0.009360100629907888 -0.13070463858816003 0.8020866136293581 -0.3029639671284725 1.2020025898120372
-0.1967452784783376 0.8365287021306153 0.7866022827541579 -1.8408758667985543 0.03754748651057455 0.035928051415857754 -0.7787399245569351 0.17941071435718353
-1.455534327195565 0.556185222950422 0.5097788545383667 0.30044554294822756 2.476584161449852 0.35234339654808555 0.067471000550668 -0.7322646997692349
0.2971412102800129 -0.9617768011022458 1.2718186173259054 -0.6476445329744827 0.1584695369715993 1.990083016332528 1.1641875606586463 0.24266015856716014
1.3799200970497907 -0.05455870545290261 0.7952339492930321 0.019089961907993495 -0.9054381367344626 0.43027133125845984 0.9346500630468874 -0.34610187222524125
-1.0971218835498175 -0.5281960691477324 -2.379775273987008 -0.6076836914911097 -1.0752900903037375 2.0224050665922606 -0.564875296812896 -1.5429290505926692
0.8708417789331119 -0.17521052684875305 0.04860300668938603 0.1886462032351803 0.20931348847461803 -0.37444491650627654 0.954698597250924 0.5232476625104543
-0.495818519936454 -0.1714646096186858 -0.9443685994103146 0.2808646754181217 0.7382471112975459 0.6507532310220859 0.6147406295738974 -0.1265685946742578
1.5788742470738537 -0.2071816771862039 0.030067081738773815 -0.33617983963528897 0.08126377095000947 -0.2405241774403785 2.0321793255564504 0.42584671305274363
-1.6829648888583426 -0.43388637923051115 -1.4162275302358232 0.8798989957682123 1.374593232372779 -0.45104290941193875 0.6135326281126559 -0.21015656295939672
0.408058165728342 1.7323985051241397 -0.3494479576644289 -1.2331368225253148 0.7182743889567151 0.5165596324474883 0.6738014915009346 1.026454968872454
-0.681148429067322 -1.9660147211066379 1.0409063667950138 -0.4086503122624289 -1.2074004608317588 -1.168290282099549 1.1283733315399176 0.1808333132933886
0.30290203466058163 0.8503868709329685 -0.6769009451226653 -1.1251145907071787 -0.8529512801266511 -1.1045746143949728 -0.2910957984262273 -0.8909757321929944
0.03863521297931748 -0.48084914255057976 -0.07997948912369487 0.6497903361043563 1.4012768937731703 1.5559379151111754 0.11492217981461954 0.2123702873739759
-0.5083802283826558 1.0059819923079054 1.5317908627010566 -0.5936018037153825 0.7641056650847913 -0.32956653889950804 -0.17111499491513626 0.18428475762614724
-0.4011768175804327 0.8951043772209051 -1.4958523645400124 -0.6953969087564817 -0.11941144147427377 -1.0448237038820016 0.3606379837657692 -1.5149042991986297
0.05517757040402111 -1.4402648770248947 -0.14524673702192165 0.5080733000638405 2.203564018730217 1.0776343302296136 1.6172412099860323 0.0679721933773016
2.1157358407718037 -0.24125867389219266 -0.2521975074872346 -1.2820828282546444 0.22225174651863316 1.0536004039064024 -0.6338581435034277 -0.3706021899672946
-0.4635449705682646 -0.33145255509521593 -0.5903833863542031 -1.3500397240230495 1.3809681298362364 -1.971753076402296 -0.927082194592078 0.3437414502444053
1.011561741825199 -0.2086008137046158 -0.2832462909256119 0.04947654298066868 -0.2613120423442343 0.8767424821475354 -0.48287868607678786 -0.9854184610505135
-0.4726628155357138 0.0962679439289491 1.2292133951136988 1.5998775141511075 -0.3994142762716403 -1.4641835614607555 -1.3838662798176629 2.125322152815616
-0.4028697810483954 0.4579062166073701 1.9172848529392297 -0.6801162405590278 -0.19457399322893792 -0.580595171588887 -1.0959160033229234 0.7997555367606815
1.0656997694604582 -1.8737384374677049 0.9817106626077918 -0.23596711644264684 0.18362631874731677 0.1978690014898948 -1.306538672323684 -0.3108709155936917
-0.9909132208147385 1.9152515727676838 2.1858481508016583 0.08403339269975764 -1.1789560204707124 1.1560560628692689 -0.19000183447865926 1.7454445064179225
1.9687193886609664 1.672906428529285 -0.3952594511531999 -0.9980747882005427 -0.6630500081023505 -0.09634523745028506 -0.9238073349289707 1.1933685110687036
0.6574641594463078 -0.03396528512429178 -0.4003929858812219 0.649314479705606 1.378419554847238 -1.92979534480279 0.23387359056926554 -0.30046530679382694
-0.7442297007400367 -0.3412559945570482 0.13451712482584394 1.8695655198948518 0.05705716334610017 -0.42976675474571086 -1.2271901478945269 0.773999258696345
