weights/init_z/40.npy (npy, 4224 bytes, 1 tensors)

array f8 [1, 512]
-0.6075476972112264 -0.12613641460642458 -0.6846063587046353 0.9287147485934539 -1.8444010340502783 -0.46700242407710885 2.2924903431515506 0.48881005439557823
0.7102669906606637 1.05553444322415 0.05407310034578517 0.25795341634197144 0.5882816497031765 0.8852442386126442 -1.0170070242068927 -0.13369303128332746
-0.4381855013323405 0.4934434944281713 -0.19900911984831327 -1.274983607322147 0.2934941544378734 0.10895031182666172 0.03172678585903451 1.2726398630294582
1.0714478994473615 0.41581801215857345 1.5506792313768636 -0.31137891683028124 -1.3792399073577473 1.3714087866765494 0.027711652280479462 -0.3203995767435977
-0.8461704050831389 -0.43342891940622374 -1.337034503851399 0.2091721706734753 -1.424321301749055 -0.5534768527406204 0.07479864396419998 -0.5056198334695845
1.0524077838685928 0.9714004076895887 0.07683153799891053 -0.4350007751055339 0.552994398084371 0.26671630603188184 0.008989408377556884 0.6411027527491543
-0.17770715766502607 0.6962776116386022 -1.188725096562167 -0.3316968553727676 0.030076138124335197 -1.1079151721093428 -0.5499248981477401 -2.0329095592585493
1.4079178035601656 0.6331082634004426 2.2127468853666246 -0.5266022787234301 0.5428816787442755 -0.0844797040595787 1.2920150154310988 -0.17671056902706545
1.6877871519898988 -1.0466135423864138 0.6421202085543549 -0.17296173715666704 -1.112064974661889 -0.020702781605266 -1.8135217740605873 0.20352189329759104
0.5318740430245957 -1.0170234632092323 -1.8480505423304856 0.17254907350770837 0.7862015331815178 -0.07147002970413369 0.8363487706176722 -0.19822888900551977
-0.09227256429260688 0.8707258786625259 -0.8391924798450838 0.8232553742097967 0.7017523620288093 0.5983605127644394 -0.5079949724231853 0.1361381164613738
-1.4921145922656383 0.6116655365954832 1.3695275873478159 -1.7027314169687207 -0.518780976726267 -1.2347032313190298 -2.8809945895530777 -0.015723283500143966
-1.692684648582905 -0.619634653490464 0.8743251683618662 1.7195190094755464 0.03429008899493663 -0.8484343108566764 0.2688313634086204 -1.7413772017521374
0.12649299011327006 -0.15479409625000698 0.8069408900162098 -0.8913106344270815 -0.06455678147092613 -0.1362632948860246 -0.17389384321325557 1.3216330610695413
-1.568562411444584 -0.578639109874332 0.4360061099481476 -0.7529088041782768 -0.9241022105161559 -2.4370531318918807 -1.588090506290977 -0.9280105006278175
-0.5531665203269047 -0.21255079196647503 -0.7334898338334107 0.3707289254133402 1.030902596166464 0.3039933362421069 0.5730968143772961 -1.218587764524949
-0.771470895369261 -0.3525092008989972 3.437448945842229 0.3577005395070786 0.22463386139820113 0.3173195532137119 -0.21225177353307725 -0.3135742042934178
1.6297357428103776 0.17342488635935396 0.11448989279160328 0.08806335652883346 0.30395353760836197 -0.3794976246611468 -0.8903746016846643 0.8885192948141144
0.8578702220569501 0.7684087326828745 0.6035962840916762 0.2586647337329778 -1.9500689755523521 -0.639845459047209 -0.4133027378854977 0.23156045672780104
-0.7299980076875835 1.6179641474143152 -1.5170269887319645 0.4560027636059438 -0.8602597606806195 -1.0590564862509402 -0.7423757561145456 -0.18639359743563763
-0.3267171708721409 0.8043257067365511 0.2079762988661778 -0.03813704203076547 0.9202761532273347 -0.5438702845989606 1.868256965666641 1.7693499591706452
-0.44994016470894355 -1.3397406149347593 0.9484404405368387 1.5278355030832946 -0.2569352606132207 -1.3948854379864473 0.08272428384119018 -0.26019277713366634
0.4448073568932828 0.8872979036124898 -1.3026176978305541 -0.16682567480211946 -1.7058216255457206 -0.2203687476889161 0.5462762568466397 0.820008710189241
-0.3036295429247585 1.7417510955520787 0.8760363335363743 0.7951173931042667 -0.3915573588258649 -1.1261498276195057 1.7610174849190638 1.000557907030824
-2.1199454993193525 1.9081588956350177 -1.0524780479559073 0.08132310056727626 0.947082679707724 -0.5337167395615388 0.013596459246635705 -1.4383804368907815
1.013269776974541 -0.38062482187234425 0.30563644533717516 1.189978221940916 0.4814947567672656 0.8352430787830553 1.2260970414529409 1.721692829296525
-0.21137760948131554 -1.2159829549869632 0.6397264004476141 -1.2475100940431836 0.031376958796576024 0.5557689944751371 1.5563008461578025 1.2840826955465308
-0.5252576511252146 2.452353799115599 -1.7063270718776287 0.4500601738114051 -1.0421403085239738 -1.4767444329587256 -0.5187014145950604 -0.017552426035479705
1.9510212228245518 0.3680977157513193 -0.9762992745125145 0.3543085317836314 -0.6389508598353981 -0.24671840437059317 -0.5112051308525494 -0.3301478915346678
-1.450177243003694 -0.023982850194145554 -2.9122368771414955 -0.395186612989389 0.5967495671010836 -1.8283525558427485 -2.863944480520985 0.6924712479739551
1.2093030159753642 0.665395882779455 -0.615067284115001 -0.12189264979065029 0.4139411771253432 -1.1452624604601476 -0.0418781122374516 0.35195852969079555
-2.5100104397666585 -0.11960286447900124 0.43344922752541937 -0.4296482748089386 -0.25405809162854026 -0.8110734114043393 -1.632052987803717 -0.8755343534947387
00000000: d408 49de 0771 e3bf 81de c8ef 3c25 c0bf
00000010: 47a4 2898 4be8 e5bf 26b2 10fe 07b8 ed3f
00000020: bf45 9fa8 aa82 fdbf 0717 a422 5ee3 ddbf
00000030: 94da 512d 0557 0240 7870 65f7 a948 df3f
00000040: c11b 0ad7 81ba e63f 4e30 9715 78e3 f03f
00000050: b12d 282b 78af ab3f a422 c50b 4f82 d03f
00000060: 7dfc c909 34d3 e23f 0e0a bab9 eb53 ec3f
00000070: 8b55 4c28 a945 f0bf cd51 886e da1c c1bf
00000080: eb70 7333 3b0b dcbf 8f8c bf05 9494 df3f
00000090: 1058 ad7e 2179 c9bf d827 0636 5566 f4bf
000000a0: 862e b8b4 9bc8 d23f 513c 2fea 2ae4 bb3f
000000b0: 6bef 5747 7e3e a03f 53c2 f49d bb5c f43f
000000c0: b6e8 778d a624 f13f 6fc3 d326 c39c da3f
000000d0: ca99 9506 95cf f83f 2dcc 1cd6 a1ed d3bf
000000e0: 9408 77dd 5d11 f6bf ac90 0357 4af1 f53f
000000f0: 0417 0d81 7160 9c3f 0d06 f139 6d81 d4bf
00000100: dc9a 15f5 d313 ebbf e861 7fa6 4cbd dbbf
00000110: 41a5 ba4a 7e64 f5bf e950 2358 27c6 ca3f
00000120: 2822 2022 05ca f6bf aaa5 b316 15b6 e1bf
00000130: d783 9c01 0126 b33f 22bf 1ea5 092e e0bf
00000140: d457 5c8b a9d6 f03f 9721 cb4e b615 ef3f
00000150: 39b7 014f 3bab b33f de06 b47d 0dd7 dbbf
00000160: 3298 d44e 21b2 e13f 09e1 ed44 e111 d13f
00000170: 339b eff7 0969 823f b5dc 8deb e983 e43f
00000180: 0bdc 37af 1bbf c6bf d897 5dfc e747 e63f
00000190: 04b4 5a9b 0405 f3bf e6c5 8072 853a d5bf
000001a0: e436 8976 47cc 9e3f bb3a 6f42 05ba f1bf
000001b0: 219f 9919 fc98 e1bf 11ee 4516 6643 00c0
000001c0: f9f3 9bd1 d486 f63f 6e3b c442 6c42 e43f
000001d0: dacd 97a3 b4b3 0140 fcb7 a305 edd9 e0bf
000001e0: 59bc f965 495f e13f 0795 1c3e 76a0 b5bf
000001f0: e67a d3ef 17ac f43f 0216 6ab1 739e c6bf
00000200: 537d c619 2d01 fb3f 109b 81d7 edbe f0bf
00000210: d4ee faad 3f8c e43f bb0b 4636 9c23 c6bf
00000220: b732 93a4 04cb f1bf 2e30 b927 1c33 95bf
00000230: 36c9 6268 2f04 fdbf 07d8 dd61 010d ca3f
00000240: d138 8cb6 1c05 e13f 16f9 1b65 ba45 f0bf
00000250: caa1 0a72 9d91 fdbf bed9 d589 1616 c63f
00000260: b88c 221e 9028 e93f ec30 3920 dc4b b2bf
00000270: 6249 3b7f 5ec3 ea3f f257 b371 905f c9bf
00000280: 086e f4bd 2c9f b7bf 7f5d 9484 fcdc eb3f
00000290: 147b ff2f aada eabf 1d98 8fa7 1b58 ea3f
000002a0: 5ebe 995e c174 e63f 5850 31f2 c425 e33f
000002b0: 4de1 22ac 7e41 e0bf e266 f84a f96c c13f
000002c0: 08a5 fa8c b3df f7bf 9192 789a c392 e33f
000002d0: f60e 6ac2 95e9 f53f cf09 5c4c 633e fbbf
000002e0: ac70 1a90 da99 e0bf fa7d ec2c 58c1 f3bf
000002f0: d4aa 30e4 460c 07c0 42e8 acb1 c319 90bf
00000300: 62ad 817f 3c15 fbbf f8b6 860d 0cd4 e3bf
00000310: 96e2 85c6 78fa eb3f bbc3 685d 2683 fb3f
00000320: 38d0 9e75 788e a13f 0fe1 3db6 5f26 ebbf
00000330: d5a9 7e76 8834 d13f 2368 3857 aedc fbbf
00000340: f7d8 da1b ec30 c03f e1fa 80fe 4ad0 c3bf
00000350: 9697 8db3 75d2 e93f 591f 2ee1 9d85 ecbf
00000360: d713 2711 cb86 b0bf 8320 975d 1371 c1bf
00000370: cad0 c948 2742 c6bf 62b2 69b5 6825 f53f
00000380: eb3a 2ee6 d418 f9bf 0a19 a32a 3684 e2bf
00000390: a457 c52b 86e7 db3f 0a1e 5a34 d417 e8bf
000003a0: 9780 8acc 3e92 edbf 53b8 60b6 157f 03c0
000003b0: aab9 3997 d168 f9bf 6550 d113 43b2 edbf
000003c0: 447a 4146 8ab3 e1bf 8611 1e46 dd34 cbbf
000003d0: 476a 08ac bf78 e7bf 9d37 95d0 05ba d73f
000003e0: e457 7eb8 937e f03f 6a27 5777 a074 d33f
000003f0: 1227 6621 cf56 e23f e60b 3fe2 557f f3bf
00000400: 75a8 2dbb e3af e8bf 4c9e 59c0 828f d6bf
00000410: 137f a03b e57f 0b40 0272 bccd 90e4 d63f
00000420: b2c5 2368 cdc0 cc3f 55ca dbab f64e d43f
00000430: 2dd9 ebec 102b cbbf 11ce 138a 9911 d4bf
00000440: abe2 47c9 6513 fa3f a9eb 9c63 c932 c63f
00000450: 0932 43a9 354f bd3f 986f 44f4 518b b63f
00000460: cc02 e289 f973 d33f 6413 b567 b049 d8bf
00000470: d096 6de0 f27d ecbf 6bee 2204 c06e ec3f
00000480: aa4c 7e40 ac73 eb3f 19ae 1ae9 cd96 e83f
00000490: e225 8527 a950 e33f 7ebf 0087 f68d d03f
000004a0: b210 af86 7b33 ffbf 8542 232f 9d79 e4bf
000004b0: b530 a453 8d73 dabf 55ab 58e6 c5a3 cd3f
000004c0: fb39 25c8 245c e7bf 8ceb b35f 2ee3 f93f
000004d0: e50c 7c17 be45 f8bf 73ae 2437 262f dd3f
000004e0: 7c04 467a 3f87 ebbf 0908 d136 e5f1 f0bf
000004f0: 2c5e 3bcd 8ac1 e7bf bfbd 95d2 bedb c7bf
00000500: d2ff fb22 efe8 d4bf 957f b843 09bd e93f
00000510: ea96 fca4 f79e ca3f 0a9e 93c8 b286 a3bf
00000520: 84cd acf9 e672 ed3f c9cc b3a7 6267 e1bf
00000530: aaff 806a 61e4 fd3f d811 1de7 414f fc3f
00000540: a73b 25d5 d1cb dcbf 9548 e4da 936f f5bf
00000550: e0e7 49c4 9f59 ee3f 3c91 f6a3 0372 f83f
00000560: 2879 6197 a071 d0bf 4718 9d64 7351 f6bf
00000570: b4d4 ae2d 6b2d b53f e972 1c9b ffa6 d0bf
00000580: 4f1e b846 b977 dc3f 6f66 ba92 be64 ec3f
00000590: f9f7 b5a7 85d7 f4bf 0641 b430 8b5a c5bf
000005a0: 7174 e89d 0b4b fbbf 0b33 310a 0b35 ccbf
000005b0: 889a 3758 187b e13f 7655 16e8 823d ea3f
000005c0: 6285 3d9b aa6e d3bf 8fb1 9265 36de fb3f
000005d0: eeaf 5459 7d08 ec3f 9fa2 fb07 9a71 e93f
000005e0: 1393 aa98 460f d9bf 5a59 80ae b504 f2bf
000005f0: b895 96ab 202d fc3f be39 0702 4902 f03f
00000600: 3608 67fc a5f5 00c0 9b2e 459f d187 fe3f
00000610: 1ba8 bb38 f3d6 f0bf 6c84 5839 97d1 b43f
00000620: a97c fe55 804e ee3f 6cd3 b720 3514 e1bf
00000630: 5911 72de 75d8 8b3f ff6e 7a34 9b03 f7bf
00000640: 0818 a25e 5a36 f03f ec33 7f36 285c d8bf
00000650: 4416 4c2a 8c8f d33f f303 a39a 260a f33f
00000660: 44b2 6062 cfd0 de3f a3ac 72b1 4fba ea3f
00000670: 2c34 6cee 179e f33f 6d61 b9c7 0d8c fb3f
00000680: b719 eae7 6b0e cbbf 6299 028b aa74 f3bf
00000690: ffed 0980 a378 e43f 9686 f524 cdf5 f3bf
000006a0: e62a c207 a410 a03f 3dd9 ec0e dcc8 e13f
000006b0: 1bc2 4fb7 9be6 f83f c2b5 eb4b 9a8b f43f
000006c0: 75cf 3122 e9ce e0bf 0062 2bab 6b9e 0340
000006d0: d6e6 9f9d 1d4d fbbf c321 f02f c9cd dc3f
000006e0: d642 ef50 9bac f0bf 83b9 41c5 bea0 f7bf
000006f0: 1e64 82b5 3399 e0bf a6c0 265f 43f9 91bf
00000700: 8555 9d07 6237 ff3f 1197 b8b8 e98e d73f
00000710: 0c79 e4f9 d73d efbf 1816 2db1 fdac d63f
00000720: cacf d712 4972 e4bf 76e7 0bfb 7794 cfbf
00000730: 26e4 d1dc ca5b e0bf 3306 3f9f 2421 d5bf
00000740: 42ab 810d ed33 f7bf 16b1 fed4 f58e 98bf
00000750: 2039 0cd9 424c 07c0 d3cf a6ca bc4a d9bf
00000760: f23d 538c 9218 e33f 2071 0e9c ee40 fdbf
00000770: c02d 4bb9 5be9 06c0 7dfd 6e76 b928 e63f
00000780: fb17 891e 4e59 f33f 30c9 6d4e ec4a e53f
00000790: 8ba1 c395 a1ae e3bf 703f 7950 5b34 bfbf
000007a0: 6026 8e22 037e da3f 8a34 d0ba fe52 f2bf
000007b0: dbc5 f444 0c71 a5bf 5a7e a411 7d86 d63f
000007c0: bd54 7b5a 8014 04c0 9ffa 7117 4b9e bebf
000007d0: 50ae 2cd4 a1bd db3f e194 457a 5b7f dbbf
000007e0: 450a b5de 7c42 d0bf 9760 143a 50f4 e9bf
000007f0: fd4b ff97 e31c fabf db19 d99e 6004 ecbf
