weights/init_z/41.npy (npy, 4224 bytes, 1 tensors)

array f8 [1, 512]
-0.2707123230673205 0.10484805260974006 0.25052781572357197 -0.9251999652780767 0.567143660285906 -1.040180216082938 -0.15367595145793744 0.7898518103468191
-1.2262158464418542 -0.9480069877134585 -0.5696539419300647 -0.9771502146977724 -0.7706317111835508 -0.03371129145348602 -1.03285924516613 1.142427376683153
-0.6097780076874727 1.4694163868766703 1.4926788367383332 0.7071252278892184 -1.8584902566516113 -1.3706237711281049 -0.33010638792060293 -1.5152899458722047
1.2000601858215505 -1.8226191434208407 0.26938454136355156 -0.44642437564718757 1.1143136000921545 -1.3808025981774998 1.0154245175554326 0.22408128328770296
-0.6445511142707021 0.6615316603676937 1.292964845138368 -0.8953120453084658 -0.5683106531193177 -2.1116183579225063 -0.818307718724611 -0.9623836123304461
0.12450167299913595 0.10850869471307217 -0.43930126301557987 -0.7135603732210122 0.9341809592297068 0.05865553231659231 1.609714279427906 0.8599067438306581
-0.9852030368738226 -0.9583683207781137 0.44910865087027835 -0.9424625600410473 0.15890944733702717 0.3880756169024742 0.43733776340401437 0.41822955117427063
-0.7321849929469287 -1.428282966236802 -2.0092173540052913 -0.23343958285250296 1.8039523690390284 -1.948670660022758 1.3678510116580451 -1.858739421184189
-1.2339507276949715 -0.5075697635372414 1.4071714981571437 -0.9410970527102839 0.8735047328229838 1.1351001937511773 1.1659844009871128 0.049214492333626694
0.5109467426852569 0.6312993903486825 0.8877020658357981 0.05765163666799103 -0.32954443801464717 -2.83207868700464 -1.1825536618371966 -0.054846020087808964
1.2483518300090026 2.5103429156680255 -0.17133645921100252 -0.4580551375004912 -1.3387815189303793 1.320062921969912 -1.409329277109643 -1.0982972196074052
-0.4867510608120249 -1.0009705600344763 1.773876785213478 0.5557830507037225 -0.5487119717073534 1.080015754404081 -0.7524335847542489 1.15879496803651
0.7508713298353078 -1.262712693042902 -0.7907005345100035 -0.1707888483145027 -1.6193853576734865 0.6428946640852444 -0.634126569392933 -0.561482871535659
-1.0255654746720237 -0.2545527105477953 0.39617609548263455 0.5166931011354936 0.751489942818948 1.148879007428065 0.2386198739520693 -0.7511773050888373
0.3106640084718299 -1.081209224458366 0.03649759963418086 -0.2944488687648952 -0.2708711787807264 -0.12885844529299556 -1.0182214432801908 -1.9179687474148959
-0.38294502933780133 1.636355548159417 -1.5035742761418662 -0.011409202217578844 0.7602182672823448 0.4946180419291597 0.08958526633919711 -0.3346244790761944
2.3605509509668674 0.6102602242727093 1.1074250071922123 0.9291534659481503 -0.8982336798590711 0.29691640677885034 1.2974201134031518 0.2830474471869959
-0.19181926005991753 -0.7884036595078141 0.43176590775676266 0.059096690569645796 1.4708581214650762 -1.5542180476102059 0.2726268613063043 -0.5656834045454091
0.7047222019298798 0.45956840153469175 0.8754836314218116 1.0455696504413758 -0.024925844850866286 -1.1722280534108636 0.4150201978628383 -0.14555789251601572
0.6211956446548983 -0.6724937073875727 0.6701335325890445 -0.49554425929436174 0.6697002010538351 -0.093982537279804 -0.03796215232648539 0.012855647184111169
-0.9231839799987424 -0.6717594481874026 0.5426823179995655 0.32876508212132816 -0.24763668909956896 -0.37750275693772595 0.2602190943667162 -1.4838391936638424
-1.103835015051469 1.0724339668806604 2.3653449019710013 0.750905923727895 -0.08686455053166216 1.2150155552558195 -0.7631423070165321 0.3302367979421338
1.482018289804353 0.12677840224335288 0.6100638491175329 0.46072218425406625 -1.2346050916631395 1.470796653331653 -0.308096810023185 0.39830022591743997
0.7318976031388524 -0.9664301947397305 0.6412625703265226 0.06305591313252802 -0.7499448654601595 0.3503062755001197 -1.2057908507722264 -1.1907863712406033
-0.24572777213956917 -1.933938717923782 2.964322341547117 0.9248504038482636 0.9731281131769022 -0.7287713877833997 0.29701855961528917 0.5519811945237957
-1.4514260313790903 0.6531139089801983 -0.24936290320345106 -0.05011573865859113 -0.3846092728137074 0.1504989081583359 1.1276996432273982 0.8908893546821595
0.7526909822086194 -0.6518287235879745 -0.0036262146317470214 -0.78810595648129 0.3290747820176642 -0.2861322897774989 -0.2062026072700407 -1.1436904798921517
-2.342345059199993 0.5150271149729783 -0.4882597651673479 -0.12250459477174841 0.002969092388616738 -1.4957778693236226 0.8955655584610688 1.082808483242027
-1.1113113399848615 0.8145109524998991 -0.7407307206501484 2.4086322497767902 0.511888933907735 -0.2127489807991475 -1.745144417100865 -1.6884988342820961
0.9879394540939755 -0.4266873016477709 -0.4786008092214832 0.556639271374104 1.0849390786915856 0.6500684503236116 -0.45639555075124966 0.2453100368117414
0.21820995405923288 0.19070171452307386 -1.3924809415460706 0.9884145084693939 -0.18745960471692302 0.6175357864349413 1.37758006454433 1.205278148939986
-1.4662420987732656 0.9462492726310036 -1.1052019896192515 1.212384860206619 -0.7180203794788271 1.7983147434708802 -1.28297756704866 -0.0040166256829637466
00000000: 68b1 8cc7 5953 d1bf 3814 026d 52d7 ba3f
00000010: fc58 d1d1 a508 d03f 4c26 24f5 3c9b edbf
00000020: 73f9 2176 0a26 e23f e25b a002 94a4 f0bf
00000030: 6cc5 d850 a7ab c3bf 0c08 c44d 7746 e93f
00000040: 24e0 e481 949e f3bf 1c7b 13c0 1256 eebf
00000050: 4b11 54e7 9a3a e2bf 8000 ed86 d044 efbf
00000060: 5e67 99d5 03a9 e8bf 3ae8 983c 9b42 a1bf
00000070: a3c1 756a 9786 f0bf 258c ceed 6147 f23f
00000080: b3ce 1a2b 4d83 e3bf f177 ddc1 ba82 f73f
00000090: 378f 3334 03e2 f73f 62be fe15 c5a0 e63f
000000a0: 960d 8447 60bc fdbf add8 0131 13ee f5bf
000000b0: 9f75 148b 7620 d5bf e0a8 97ab a03e f8bf
000000c0: 275d 354f 7233 f33f 8fe5 e0b0 7229 fdbf
000000d0: 1b15 cda8 983d d13f 51ae 628b 3792 dcbf
000000e0: 2724 5e7f 3ad4 f13f 9177 1677 c417 f6bf
000000f0: 8850 67c7 2d3f f03f 0de6 ae0b b2ae cc3f
00000100: a893 8ca8 29a0 e4bf c687 d171 442b e53f
00000110: b1f3 cbe7 fbaf f43f 4612 4a72 65a6 ecbf
00000120: 35b5 a3d2 992f e2bf 7948 672a 98e4 00c0
00000130: fe91 3fab 932f eabf aa4c a5b7 d8cb eebf
00000140: 801d d475 57df bf3f acd1 1fcf 39c7 bb3f
00000150: 0794 6f0b 831d dcbf ed95 5690 7cd5 e6bf
00000160: 0000 8e77 cfe4 ed3f e7f7 0e12 1908 ae3f
00000170: c4c0 a0c2 63c1 f93f d199 cb25 5b84 eb3f
00000180: d95f e984 c886 efbf 4276 680a f4aa eebf
00000190: 6faa f535 32be dc3f 6195 223e a728 eebf
000001a0: 7842 ab0f 2557 c43f 5927 be1c 3bd6 d83f
000001b0: d510 c887 57fd db3f 7ce9 20e1 45c4 da3f
000001c0: 9387 ea38 0f6e e7bf 28bc 563d 3fda f6bf
000001d0: 2a11 508c e012 00c0 c3c0 f826 59e1 cdbf
000001e0: 9407 c928 fddc fc3f 478f 3749 c12d ffbf
000001f0: f8f2 0dbe b7e2 f53f 5d5a 1c8c 65bd fdbf
00000200: 7234 451e 43be f3bf c696 daf1 023e e0bf
00000210: 0f2c c742 c683 f63f c515 f890 771d eebf
00000220: a507 8c32 c0f3 eb3f 5c83 1dd2 5e29 f23f
00000230: 3c2c 5e42 dfa7 f23f aad4 1f56 a432 a93f
00000240: c796 bafb ac59 e03f d808 71c7 9a33 e43f
00000250: 9067 ab29 0e68 ec3f f48b 19ec 8384 ad3f
00000260: c280 f68d 4117 d5bf 8211 e3de 18a8 06c0
00000270: 5eb1 7563 bdeb f2bf 6690 2f0d c714 acbf
00000280: 8da5 bcc4 3ff9 f33f ce50 a4aa 2e15 0440
00000290: 993b 7664 5aee c5bf c614 d57e c650 ddbf
000002a0: 13b9 842b a66b f5bf 185e 684c fa1e f53f
000002b0: 27b3 27db 9c8c f6bf 4a06 f81a a092 f1bf
000002c0: f4c7 deeb ed26 dfbf c8b5 b9b4 f903 f0bf
000002d0: 1102 ba9f cc61 fc3f f431 4e89 f9c8 e13f
000002e0: 2e04 ad68 0c8f e1bf e448 8599 be47 f13f
000002f0: 34cf dd98 ef13 e8bf 60c7 a797 6c8a f23f
00000300: 92b1 a44f 2307 e83f 49d0 8d39 1234 f4bf
00000310: 50ce 1435 6b4d e9bf 3422 04b3 68dc c5bf
00000320: 1f43 ed9e 00e9 f9bf e69b a0d4 9792 e43f
00000330: 8027 a2cd c34a e4bf 7c50 50ed aaf7 e1bf
00000340: 0cf8 d957 b768 f0bf c34c ba73 974a d0bf
00000350: 4c83 63fb f25a d93f b643 6ef8 bf88 e03f
00000360: f3c4 f5a2 340c e83f 836e 3ff4 ce61 f23f
00000370: 305f 6695 188b ce3f ba53 dbfc a409 e8bf
00000380: d791 1b4b ebe1 d33f 50ea 320b a24c f1bf
00000390: cf63 9f39 d0af a23f 781f 6c11 40d8 d2bf
000003a0: 3ab3 9211 f455 d1bf a264 2cfc 6e7e c0bf
000003b0: e496 6f91 a24a f0bf 5e5a 4eff ffaf febf
000003c0: c7fb 4ade 2b82 d8bf ca90 bf27 832e fa3f
000003d0: d42d 72e6 a30e f8bf 5c01 2f33 b55d 87bf
000003e0: 2895 7942 b553 e83f 203a 866e d2a7 df3f
000003f0: 6c5b 215d 0fef b63f ceb0 84ca 7c6a d5bf
00000400: 1f8e 7789 68e2 0240 12a1 2973 4087 e33f
00000410: 209c ca48 03b8 f13f 9dcb a60c a0bb ed3f
00000420: 5c22 e58e 54be ecbf 24b4 30ac ad00 d33f
00000430: 8dd3 c397 3bc2 f43f 949a 380a 731d d23f
00000440: 47a2 5994 888d c8bf be3f b44f 9a3a e9bf
00000450: 81f4 5579 0da2 db3f cacf 98e2 eb41 ae3f
00000460: d9f9 8b86 a288 f73f bf6b 55be 13de f8bf
00000470: d096 54ef b772 d13f f432 4d15 141a e2bf
00000480: e4b9 4193 158d e63f b174 b795 9169 dd3f
00000490: df7a a43f f603 ec3f b05f e53d a7ba f03f
000004a0: 0dac d621 2986 99bf 87a7 0d34 72c1 f2bf
000004b0: 9005 40e0 b08f da3f d9f6 031a a4a1 c2bf
000004c0: cebb 46b0 d5e0 e33f 78da ff85 1185 e5bf
000004d0: 5e88 cde0 bb71 e53f f0f2 d844 ffb6 dfbf
000004e0: bcd3 b41d 2f6e e53f 3109 0354 3d0f b8bf
000004f0: b4bf 7475 c66f a3bf d020 ccc1 0f54 8a3f
00000500: 9724 4921 b98a edbf 09ce 97ab 0d7f e5bf
00000510: 909e fd4e a75d e13f 70c8 f1b2 7c0a d53f
00000520: 9176 7c1c 8fb2 cfbf b6a1 cc52 0129 d8bf
00000530: dc62 06fd 6da7 d03f 8af2 942a cebd f7bf
00000540: 2e36 9de7 4ea9 f1bf a5f3 ed84 b028 f13f
00000550: 64ce adf2 39ec 0240 5c16 19dc 6b07 e83f
00000560: 3519 b753 c13c b6bf c947 9f26 b470 f33f
00000570: 558f 5a6a a96b e8bf ee38 c685 9922 d53f
00000580: 6889 6ccf 58b6 f73f f7b6 bc51 463a c03f
00000590: 57d0 0d9f a485 e33f f76c 7ae6 787c dd3f
000005a0: 38b1 c244 f1c0 f3bf dd02 5212 6288 f73f
000005b0: da4b c3ae dbb7 d3bf 1c82 133b c07d d93f
000005c0: ae11 b085 b46b e73f 0cc5 0804 ffec eebf
000005d0: 2b71 f614 3985 e43f 793f b9ac 6e24 b03f
000005e0: 4e8b de5f 8cff e7bf 36d2 3603 6b6b d63f
000005f0: a81f de58 eb4a f3bf b603 9002 760d f3bf
00000600: 4f79 87f4 0174 cfbf 8736 9fb9 69f1 febf
00000610: e0f9 bda1 eeb6 0740 d90f c7df 5f98 ed3f
00000620: 2537 9d91 dd23 ef3f 9c49 995f 1852 e7bf
00000630: 8792 f621 5a02 d33f 2f93 4f77 d4a9 e13f
00000640: 5561 9580 0a39 f7bf da3e f423 4fe6 e43f
00000650: 7a16 0ca5 1feb cfbf 8668 1b25 c5a8 a9bf
00000660: 2849 1e36 709d d8bf 60d7 4f58 8c43 c33f
00000670: f0f5 f5c7 0e0b f23f 86dc 5664 2a82 ec3f
00000680: 7e90 1266 0b16 e83f b8eb 4ce9 c7db e4bf
00000690: a75a 0d28 b9b4 6dbf 8cd6 9bfb 2938 e9bf
000006a0: 8f11 adac 8f0f d53f 0b22 bbce fd4f d2bf
000006b0: a091 49d7 d864 cabf 2622 7e63 8e4c f2bf
000006c0: 71b0 0968 1fbd 02c0 ed96 eb24 1a7b e03f
000006d0: 682b d6e2 a53f dfbf 3c86 270c 765c bfbf
000006e0: d635 a756 a352 683f 5535 6dc6 b4ee f7bf
000006f0: df74 201a 79a8 ec3f a5b1 f5fc 2e53 f13f
00000700: ed8a 4e66 eec7 f1bf 6b11 e745 7910 ea3f
00000710: 7fb7 8ae9 10b4 e7bf c80e 27fc e044 0340
00000720: 482d cae6 6461 e03f ec13 65cd 5b3b cbbf
00000730: 55ec 638d 1cec fbbf 2d36 895a 1704 fbbf
00000740: ff5f b833 339d ef3f be85 8c41 d84e dbbf
00000750: 8681 dc49 65a1 debf ce12 4729 fdcf e13f
00000760: aa1f 5214 e95b f13f 5aa4 c959 5ccd e43f
00000770: c10e 21af 9535 ddbf 8a55 bebc 5166 cf3f
00000780: f24b 2cc4 4dee cb3f 3178 95ed e968 c83f
00000790: 09e6 8318 9a47 f6bf 2593 9876 17a1 ef3f
000007a0: 5846 ca23 adfe c7bf 7820 db68 dac2 e33f
000007b0: 746e cd64 910a f63f 927d 84bd d148 f33f
000007c0: 45fe 6346 ba75 f7bf dd0b fa8d ac47 ee3f
000007d0: 9838 0e48 e8ae f1bf 200c ccaa ed65 f33f
000007e0: 6823 f7df 05fa e6bf f5f3 31ae e5c5 fc3f
000007f0: 3b9c 3f7c 1387 f4bf 4b7a 2dbf bc73 70bf
