weights/init_z/43.npy (npy, 4224 bytes, 1 tensors)

array f8 [1, 512]
00000000: 8a4a 5689 3d79 d03f ff1d 5aa7 4712 edbf
00000010: 8f40 7d17 6539 d8bf 0c90 5b51 071e e1bf
00000020: 2c4d de3b 5675 eb3f 8ea6 bd6b c16e dabf
00000030: 2842 675f 52e2 df3f b71f d657 e314 0040
00000040: 1d45 914e ae34 f43f da7b 8aa1 181c dcbf
00000050: 4bcf 1ed7 092c d6bf f58c c111 f523 dd3f
00000060: a5da aaaa d7b2 fabf 2d8a ed51 3496 ebbf
00000070: f63e 22f1 d98b df3f 3b49 e6b2 00d3 bfbf
00000080: 4aff ba77 51f6 fe3f e07f 3340 48ca e3bf
00000090: 208b 9f3c dabf f0bf 0fbe 274e bf77 ecbf
000000a0: 6ab6 a300 49c1 8c3f 0f6c 2731 1196 c4bf
000000b0: e668 b0cc c6d7 0140 20bf 98a7 1c8b d9bf
000000c0: 6511 3166 28e0 ab3f f663 7fa9 374b ec3f
000000d0: e155 9233 9da4 bbbf dd4d 594c 88c7 e13f
000000e0: e347 987b 2646 d93f 8a25 0a30 62ca ea3f
000000f0: 99b0 a942 ab86 f6bf 27f3 7403 e7d9 e93f
00000100: 7604 a749 47b3 c1bf ffb1 42c7 77f5 c73f
00000110: deca b0c3 01bf d8bf c9d4 4eae 768b fa3f
00000120: 558c d5c7 6560 00c0 bcc1 4e35 9a63 f63f
00000130: 9110 6a24 6dba e5bf 8e8e d21d b976 f83f
00000140: b66d f8bf 198a f33f 155b 5699 643d f03f
00000150: c4ed e072 0a80 ea3f 8968 4712 5e21 0240
00000160: f45e 3979 e009 e3bf 150f bb92 c299 e2bf
00000170: efeb 6fb8 15fd e4bf 8030 a3c4 d19a ed3f
00000180: 998e dc67 5dc9 f4bf 0281 174f bd2d f03f
00000190: b172 f5cf cd75 d2bf 3e68 934b 5a15 f1bf
000001a0: 3851 5270 da3d f1bf da55 cfb0 2b7f e9bf
000001b0: 37dc 1896 d4c6 f7bf 5306 502b be73 e03f
000001c0: d710 3aea de41 eb3f e643 94ea 73ad ee3f
000001d0: e7e9 ce46 280c e4bf 885f 6e47 24b5 d33f
000001e0: eddc d268 8e52 753f 62e2 ee85 0721 e63f
000001f0: 9dc2 1d22 9f78 dc3f af15 8c37 8f1c b73f
00000200: a9b6 96c3 c5bb fdbf 9918 66b0 7e52 c5bf
00000210: 8e01 16a8 6662 bc3f 68d8 05d7 933b e6bf
00000220: 11c6 2527 2c3a d1bf f1fd 964f a0c9 f4bf
00000230: 87e0 77dc fd8c d4bf 34bb f4a4 1330 e03f
00000240: 07bc 4ddd 64b6 0040 6094 9b9e 0e34 f0bf
00000250: 5266 0a9f a88c 98bf d703 c1bd 5ac4 eebf
00000260: bfad 53f2 6ab2 b7bf 393c c4b9 40a3 ccbf
00000270: adf6 a976 0da7 ea3f 3690 72d2 fc2b ef3f
00000280: 5e10 41b3 39d7 c43f c347 005a 594f bdbf
00000290: ad32 bd52 c6fb f23f c98d 46ae 6903 c73f
000002a0: 6d77 2049 5843 f83f acb6 4ec2 fe24 fabf
000002b0: 1c35 63eb f382 fc3f 8899 24e2 6cc4 e3bf
000002c0: 3b9d 9339 e461 f1bf 0ab5 5580 e8e9 a6bf
000002d0: 6984 b16d 869e f2bf 9c44 8e99 c034 e23f
000002e0: 6774 4ff9 f49b ddbf f209 66aa 0664 d23f
000002f0: b049 05d5 5b46 efbf efa5 b693 ca78 ccbf
00000300: c228 fd34 85d0 b83f 8b8c c274 fa1c c8bf
00000310: e646 27d3 3377 f93f 6b36 1959 f6be e23f
00000320: c62f da05 0912 ca3f 38f1 c80c 4fb4 fdbf
00000330: 446d 7c8c 4134 d83f 0bdf 2e11 3bc7 f33f
00000340: fb0a 6bbf 3f14 e6bf 5d5f 07c2 af63 c9bf
00000350: 003f 431b b734 08c0 8e7e 49c3 15ee f3bf
00000360: 60c8 ede2 1cac 00c0 d6eb a159 b7a7 ba3f
00000370: 276c e6e3 d93a c3bf c4d2 3c54 ca16 bbbf
00000380: 0534 307e 0ef7 dbbf bf66 c8e1 614e f03f
00000390: c0ea 37e0 8fb9 f3bf 1ec4 d363 d3f9 b2bf
000003a0: a064 73c4 9e15 e33f 09ee bfe1 55f6 c6bf
000003b0: 759c ba76 583e b7bf 6e3b d964 0d67 eabf
000003c0: 3424 24c0 2370 d5bf 51e0 29d5 bafc e63f
000003d0: e2a0 35ca db27 00c0 b00f b4be 4b3a c4bf
000003e0: bac0 9cec e3b1 e2bf e242 614c 9bff b1bf
000003f0: 1f7d 0d48 f35e fc3f f34c 4607 9395 dcbf
00000400: 17ec 2970 7ad4 f73f 97ca 5c51 dd9a f13f
00000410: 3f12 89ef 239d 9e3f 52b0 2d01 914c b63f
00000420: a27e cde2 b432 c73f 9905 50af ce67 eabf
00000430: 10b2 762c 100f e43f 14c0 f383 389b e3bf
00000440: 28c7 41c4 d14c a23f 62d0 7cd8 5491 01c0
00000450: 8ac9 bb04 03a0 ebbf deab 0bb3 881f e13f
00000460: fc05 f3a5 b4f9 f1bf ae9a cf1f af5f d53f
00000470: 9dbd 155d 3b3b e0bf c0f8 6369 4faf ef3f
00000480: 311a e8da 8920 f43f bab7 6ad0 69bc c63f
00000490: c7a6 addb ce72 8ebf 4c73 39d9 0ab4 a43f
000004a0: 1ffa 2921 9ef5 95bf 0486 407e 0611 f33f
000004b0: 183c 027f f609 0440 7ec5 9f55 db55 f5bf
000004c0: db56 af06 ce73 f0bf fe6b 62fe 8acf f53f
000004d0: 0ba6 61b9 c146 f2bf e840 51f9 d0f3 f5bf
000004e0: c47c f3db 47ec 0040 8cef d63f b88d d1bf
000004f0: 29a8 1ff3 6102 d0bf 866c ddb0 5648 e0bf
00000500: bd8a 94df 579a e23f 671c d58c 2d21 f2bf
00000510: 1ea3 9ff4 e563 fc3f 11dc be9a f418 e83f
00000520: f398 bc5a 8f85 aabf fc92 5680 92a7 e1bf
00000530: 4c0f 1f11 bab6 bb3f 1926 6e85 19b4 f03f
00000540: b630 c9c2 85f0 0440 7ec6 914e ea23 f83f
00000550: 083a 003d d934 f03f 6f2b c45f 170a a63f
00000560: 22cb 2dc1 56b8 f33f 83cd 3360 982b d6bf
00000570: 7862 7dcd 933d d53f 629c 5fa7 2bbb f23f
00000580: a122 40a9 b06a e33f 73ca 393d 2a45 e5bf
00000590: 687a b4e5 3d86 f8bf 2367 309e 420c e03f
000005a0: 51fa 8450 c43b c13f 019c 32e7 79c2 ed3f
000005b0: f2a2 1c02 b0a3 ad3f f6a3 0727 194b d8bf
000005c0: f93f 05ee fddc f03f 3721 828a cce1 ef3f
000005d0: 3f40 7bcc a0df 00c0 da2e 1a2a 4c4e f8bf
000005e0: 5730 5fc7 6b9e c03f 3088 7ccc 6db3 b0bf
000005f0: 9dfc e248 20ef c7bf 7beb c1af a75d ea3f
00000600: b92d 0ba2 bd1f 0040 5a4b 00c2 cf80 f0bf
00000610: 66c9 0051 d848 b1bf 8828 f28c 9ffd 99bf
00000620: 4f82 f222 0c47 ca3f 4d28 2e41 0794 f3bf
00000630: 9f2e 2902 5fea dd3f f464 5bbc 79ca a23f
00000640: 6ff0 6178 aa4f 0040 a9ab d070 bda0 d83f
00000650: be29 61c3 b86a e6bf 534f 717e 58f4 f7bf
00000660: 69f4 e8a6 e712 b9bf c08d e924 21fd e7bf
00000670: 27ce b0a9 6b1d dbbf 1bb3 ab7d 2b1f d63f
00000680: 1e3b 0138 1015 ce3f 5c7f 356f bbd1 c83f
00000690: aa43 4a18 b546 f63f 37e8 fe31 f21b da3f
000006a0: 935e e422 35b5 0540 a0c1 6071 9fa6 c43f
000006b0: 51c6 8e51 960a dabf d786 e845 18f4 f7bf
000006c0: 32cc 9675 aa07 f5bf 4a1a 9230 a104 ed3f
000006d0: 9b7b 19bb 0dc4 e43f b8ba 5fe6 7ef6 b6bf
000006e0: 7409 7cea 71b8 ccbf 0c2d d047 4267 ecbf
000006f0: b835 8569 884b c5bf 9195 3431 f99c bf3f
00000700: e8b5 6e81 3824 00c0 6cfa cd2c c834 e73f
00000710: 0968 0ea1 cb37 00c0 952e 4290 0d91 d53f
00000720: fbe3 e4dc b2e2 a6bf 22bc 9372 57b1 d23f
00000730: bd72 d9c1 80c0 e4bf e3f3 ada5 7c18 fb3f
00000740: b314 c414 9dfa e63f fb27 794b 5455 e43f
00000750: 4323 e2a5 5ce7 c6bf 1693 8990 de43 b3bf
00000760: a53b fe83 a357 ec3f 0506 82ca 2ed6 f43f
00000770: dac5 4e08 1e67 f63f cd43 e372 13c0 a7bf
00000780: 9b97 f989 f507 ad3f e0f2 d214 6b30 d53f
00000790: 5eba 1da6 04c1 d0bf ba95 2f58 4cb2 e6bf
000007a0: 1149 fcda 884e c53f b530 e916 eb4a de3f
000007b0: a8f2 2143 2fc2 e03f d7c4 910b 4e56 b3bf
000007c0: a9f5 a3eb a70e e5bf 57bc ba6f f9f3 df3f
000007d0: b51e 2464 f2a9 d93f 9c36 c014 d568 edbf
000007e0: 25db 822f cf5c ee3f 76f5 e6ad 8650 e83f
000007f0: 80a6 bf66 986f a5bf 26a2 26bd 5f11 f4bf
0.25739992534469336 -0.9084814327806611 -0.37850310605882326 -0.5349155987755707 0.8580733460716252 -0.41300998231472696 0.49818858448728287 2.0101992475719856
1.2628615445176543 -0.43921485686763406 -0.34643789298865063 0.4553196595572467 -1.6686627070136322 -0.8620854950098128 0.49291084812374153 -0.12431339614548602
1.9351362874003422 -0.6184426549843884 -1.0468389862150573 -0.8896175886602026 0.01404053719712835 -0.16082968616578383 2.2303596488319384 -0.39911571852552363
0.05444456336457185 0.8841818151951191 -0.10798056134293389 0.5556069842518202 0.3949066359501769 0.8372050226472976 -1.4078781703965773 0.8078494136349023
-0.13828364464101 0.18717858533399576 -0.38665813551339834 1.6590487297919927 -2.0470691310925226 1.3993169863061743 -0.6790071212021919 1.5289851345959593
1.2212159632534685 1.0149885167826984 0.8281299823497013 2.2662927082101914 -0.5949556701334289 -0.5812695375284159 -0.6558941461838667 0.9251488533568732
-1.2991613442508536 1.0111668672107617 -0.28844018276667344 -1.067713065355306 -1.0776008975563638 -0.7967737630194123 -1.4860425818603866 0.5141287656735564
0.8517908644430702 0.9586734372734298 -0.6264840491269837 0.3079310128755357 0.005205684935553051 0.6915319076425244 0.4448621590773117 0.09027953249104458
-1.8583428993401105 -0.16658004391883166 0.11087648013745463 -0.6947726440109934 -0.2691755659389808 -1.2992251500107808 -0.3211054471025893 0.5058687421604646
2.0890595712039643 -1.0127092548002778 -0.023974070269650767 -0.9614690500385404 -0.09256618896659229 -0.22373208113319423 0.832892162099332 0.9741195783904064
0.16281815769810043 -0.11449202010433539 1.1864684326166455 0.17979165086317853 1.5164416176334854 -1.6340320196281182 1.7819709009957654 -0.6177277008871878
-1.0863992928587567 -0.044753328004711504 -1.1637024197482566 0.5689394950042188 -0.46264385554042636 0.28735510483252746 -0.9773387108382874 -0.2224362584359336
0.09693176788019556 -0.18838434888047959 1.5916021583729445 0.5858108272747818 0.20367539201504153 -1.8565207003985744 0.3781894561704642 1.2361403151716697
-0.6899718035350298 -0.19835469221174665 -3.0257398729225997 -1.2456262234117363 -2.0840394715133215 0.10412164629262519 -0.15023349407133077 -0.10581650311071217
-0.43695413897586405 1.019136316265232 -1.2328032263309723 -0.07412453829944396 0.5963891827515404 -0.17939256213126978 -0.09079506777435305 -0.8250796289156435
-0.3349694610956846 0.7183508075095323 -2.01946218467866 -0.15802904903114046 -0.5842151280721943 -0.0703064977144652 1.7731812300260754 -0.446629292587388
1.4893745786091637 1.100308721372732 0.029896317954142267 0.08710581091662675 0.18123494219161268 -0.8251717971872267 0.6268387669020417 -0.6126978470983908
0.03574233551706946 -2.1959626114931305 -0.8632826893283874 0.5350993630394176 -1.123463295211308 0.33396509272135233 -0.5072304552140171 0.9901501711281284
1.2579439688721659 0.17762491871456892 -0.014867416457224348 0.04043611432709912 -0.021444769643944036 1.1916565829964165 2.504864685302447 -1.333461126774949
-1.0282726536874438 1.3631696640866262 -1.1422745934927458 -1.3720254649124914 2.1153714355164954 -0.2742748855050585 -0.2501454233412255 -0.5088303999322228
0.5813407294084169 -1.1331000806110525 1.7743892245873165 0.7530463240026412 -0.05180023176790085 -0.5517055994610867 0.10825694005967285 1.0439696514243961
2.6174426286362076 1.508768374358993 1.012902487072667 0.043045740547390625 1.2325046106386215 -0.346410840938198 0.3318833834396524 1.1706959283854066
0.6067736917185195 -0.6646929927649822 -1.5327738736010819 0.5014966096525523 0.13463643962491514 0.9299897685604038 0.057889461763187 -0.3795836335326038
1.0539531037975378 0.9963133530846225 -2.109193418036767 -1.5191156048412524 0.12983462557747558 -0.0652378677591805 -0.18698504980963984 0.8239324982417736
2.0154984149609985 -1.0314481332940972 -0.06751777627576913 -0.025381558396965903 0.2052931948319547 -1.2236397310357632 0.46742987833997945 0.03670101570396325
2.0388993649376554 0.3848107911787176 -0.7005275550848677 -1.4971547068752968 -0.09794471573782605 -0.749649593443273 -0.42367068835594285 0.3456524588826128
0.23501780256852894 0.19390051775098527 1.3922625492889247 0.4079556930770453 2.7134802556937045 0.1613349250415128 -0.406896190305905 -1.4970934611123334
-1.3143715470621484 0.9068151425024749 0.6489323286331116 -0.0896987259327301 -0.22437881421508232 -0.8876048472024265 -0.16636757995949636 0.1234889741068257
-2.017685900870436 0.7251931071367159 -2.027243860485218 0.33697833144899764 -0.04469832369290568 0.29207407178086175 -0.6484988962289077 1.6934782478194783
0.7180924802384169 0.6354161714637024 -0.17893560504696823 -0.07525435475106365 0.8856980875005901 1.3022907171692861 1.4001751255531105 -0.04638729836882014
0.05670134839310422 0.33108021768184237 -0.2617808935382636 -0.7092649195080221 0.16645918553019404 0.47332265126602674 0.5237041770156639 -0.07553565771538061
-0.6580390550949932 0.4992660132510926 0.40099773196605365 -0.9190469174661362 0.948829262538173 0.7598298450972567 -0.04186702970748701 -1.2542416943271149
