weights/init_z/44.npy (npy, 4224 bytes, 1 tensors)

array f8 [1, 512]
000000 0e 54 d0 27 09 05 e8 bf 0d cc b7 b2 cc 0f f5 3f
       -0.7506147172558728 1.3163573247118194
000010 1c 29 d4 86 30 f0 f3 3f 01 a9 d8 20 bc ad f9 bf
       1.2461400286434303 -1.6049157412585944
000020 d9 c3 f0 39 84 7d f7 bf 40 4d 75 b8 ed 70 fb bf
       -1.468143678979905 -1.7150704579733684
000030 37 27 d6 f7 93 bd fd 3f 87 9e 95 65 2a 6c b6 3f
       1.8587836915125544 0.08758797626580349
000040 d1 8c ff 94 f9 c9 aa bf af 31 29 74 6c c6 e1 3f
       -0.05232219642473413 0.5554716366546496
000050 86 f9 e6 fb 33 d4 ee bf 54 8e 80 16 c6 14 c7 bf
       -0.963403694149563 -0.18032146548022132
000060 72 70 74 70 3e ef f2 bf 70 0e 9c 1f d0 5f e3 3f
       -1.1834091561095446 0.6054459206938656
000070 02 5e 85 dc eb 73 ee bf fb 0a d4 03 44 18 d7 3f
       -0.9516505534219848 0.3608560597787542
000080 56 16 bc 75 42 f8 f0 3f 48 fe ef 66 af fd bd bf
       1.0606102561008774 -0.11715217841264647
000090 68 03 51 b1 d8 6b ea 3f 91 cb 74 74 65 5b f3 bf
       0.8256648505413127 -1.2098135518142252
0000a0 b2 a3 1c 85 4d 0c f3 bf 7d 24 52 84 c2 24 cc 3f
       -1.1905036163027316 0.21987182103137917
0000b0 c5 cb 49 1e ef 40 cb bf e9 1d 34 20 80 95 f6 bf
       -0.21291913012427535 -1.4114991434051893
0000c0 01 f3 95 34 29 e9 de bf 87 78 96 e0 6a 3a f3 3f
       -0.4829810155422792 1.2017620823822044
0000d0 22 6b c0 3d f0 95 e6 bf 52 cf f0 1b 24 c9 99 3f
       -0.7058030325018516 0.025181354718554268
0000e0 5b 51 5b 62 3e 08 d9 bf da d2 8b 65 c8 b8 c8 3f
       -0.3911281548037288 0.1931391235190379
0000f0 c3 85 5f 5a c8 5a d6 3f 70 22 e0 e5 03 eb e2 3f
       0.3492909319448609 0.5911883821255071
000100 36 be 5a 99 32 a7 e0 3f 52 2b a6 c8 38 68 ea 3f
       0.5204098696903603 0.8252223891189294
000110 86 1c 36 13 eb 46 db 3f 41 a8 57 7c bb 0a c9 3f
       0.426203507195574 0.19564002581984322
000120 fa 88 fd 61 9b 73 e0 bf 32 f9 5c 29 ea 96 08 c0
       -0.5141121782183113 -3.0736888152597652
000130 be b2 f5 44 49 4a d9 bf 17 3b 4c fd e8 73 e9 bf
       -0.3951590703425544 -0.7953991839620781
000140 d1 e5 e2 74 a0 80 e6 bf 28 08 83 43 5c cc fb bf
       -0.703201511663048 -1.737392677038324
000150 b2 e2 33 0a 9f 06 e8 3f de 46 4b 88 c0 d2 fd bf
       0.7508082579871227 -1.8639531444536526
000160 58 7a bd 4b e2 c8 da 3f 1a 81 1f 4f 6b 1f ce bf
       0.41851098438738665 -0.23533383716040462
000170 25 53 60 d9 a4 a7 db 3f 5a 15 60 76 6e d9 eb 3f
       0.43210717418814887 0.8702919303911287
000180 9e 62 56 82 a8 11 00 40 c6 2f 26 0d c6 f2 f5 3f
       2.008622186909931 1.3717709077491107
000190 c6 6a 6b 56 04 f0 f0 3f 1b f2 1b 48 1a 20 f7 3f
       1.0585978866353556 1.4453375641597919
0001a0 02 b6 72 c7 5d ff a8 3f 8d de 82 df d5 1f b7 3f
       0.04882329044026436 0.09032952029053316
0001b0 db 4f 1f 12 87 bc de bf 17 74 20 ea 0e 3e d3 3f
       -0.4802568127608972 0.30066273559515494
0001c0 7c 28 b5 ef c3 ce f1 3f c5 dd 23 cf 52 c7 93 bf
       1.1129798282222785 -0.01931504620821813
0001d0 d5 fd 62 5b a0 76 4a bf 57 b4 d6 f4 d6 6e e4 bf
       -0.0008075983994543743 -0.6385302335744524
0001e0 b3 ec 6b b4 d2 83 f9 3f 94 0d 2e 67 48 0f 93 3f
       1.5946833656042088 0.018612986848450655
0001f0 b8 55 ad 50 0f f7 e1 3f d6 9d 12 41 b0 67 c9 bf
       0.5614086700176619 -0.1984768216836829
000200 b1 ef d3 49 31 a5 dd 3f 06 43 57 4a 02 1b fd bf
       0.46320755204919367 -1.8190939811649414
000210 53 1c ab 33 ae 03 c1 3f 44 11 0e cc 1d bf e3 bf
       0.13292481921073093 -0.6170796380470525
000220 ab 78 b7 a1 4d ee f4 3f 2c 5a 4e 9c a9 d3 e8 3f
       1.308179504113961 0.7758377125599671
000230 02 45 4d d1 4f ee d1 bf 79 44 28 6c 7f 2a e7 bf
       -0.28017039718277215 -0.7239377129027523
000240 ad 90 b9 88 98 2f ee bf aa 73 90 6d 55 f9 e1 3f
       -0.9433100386054513 0.5616862430502938
000250 a7 42 31 79 5b 2b e6 bf 9a a4 65 40 68 3a fb 3f
       -0.6927926413573758 1.7017595782765853
000260 f6 c3 13 15 db d3 f0 bf 56 80 44 4f 27 28 e5 bf
       -1.0517226050690147 -0.6611515567965494
000270 46 dd af 2c a5 2c f0 bf ee d9 61 4d 93 57 f7 bf
       -1.0108997102341433 -1.4588807127707883
000280 99 20 82 68 d3 fe d8 3f 54 b2 4c ad 28 ef e9 bf
       0.3905533333386387 -0.8104442009694801
000290 20 ca 3f 01 d3 85 f2 3f f1 cd cb 56 41 43 a0 3f
       1.1576719330593122 0.031763116688946165
0002a0 38 89 ea 7f d1 59 fe bf 9b 8d 4c 9f ad ad eb bf
       -1.896928310081945 -0.8649509536084453
0002b0 a1 ce 22 80 fd 48 ad bf 85 fb f9 c6 3f b2 f3 3f
       -0.05719749631080374 1.2310178539771368
0002c0 a5 d6 64 97 da 12 e1 bf 53 f8 42 87 9a 80 d5 bf
       -0.5335514981186021 -0.3359743424333647
0002d0 86 fd b1 a5 3e e4 f8 bf dd e2 29 59 8b 7f f3 3f
       -1.5557238075706166 1.2186387522653412
0002e0 7f 21 10 00 a7 0f 02 c0 1a 85 e0 fb 4f 4a cc 3f
       -2.257642746441149 0.221017835604507
0002f0 75 e7 c7 59 75 3f ac bf 72 23 86 43 ed fe d1 3f
       -0.055171649179057626 0.28118449777735244
000300 ed f1 b7 fc 1a 28 e3 3f 84 e1 34 62 4e 6f f0 3f
       0.5986456809910671 1.0271743618196476
000310 7a 52 34 3f 2f 6f 7c 3f f2 54 cb 80 8e 0d fc bf
       0.006941971357509952 -1.7533097296739553
000320 27 2c 90 ca a5 c9 f8 3f ed 03 5b 49 ed a6 e4 bf
       1.5492303764938329 -0.6453768189168138
000330 98 3f b9 c8 89 23 ec 3f 5a e9 8a 59 5e 60 d4 bf
       0.8793381615050633 -0.3183818697395019
000340 3f b4 b9 16 84 46 e7 3f 71 a9 fb f4 f5 c9 b0 bf
       0.7273579067092512 -0.06558167677909467
000350 4d be 51 71 0a de dc bf bd de 08 cb 1e 50 eb 3f
       -0.45105229441012257 0.8535303082962497
000360 49 9c cb c7 13 49 04 c0 c7 61 67 9e 87 cc d8 bf
       -2.5356822594654074 -0.3874835059082468
000370 fe f5 7e 3a ae 94 95 bf 15 0e f8 b8 fb 3c d4 3f
       -0.02107498390227213 0.3162221247041271
000380 01 fb da f2 72 27 e4 bf 7e ad e5 82 c6 ac ff bf
       -0.629815553976954 -1.9796815026446377
000390 c1 30 4b d3 33 b5 d1 3f 09 16 35 32 79 c8 f3 bf
       0.27668471941138867 -1.2364437066293041
0003a0 40 fa f5 e1 c1 58 e2 3f 2d db 8e ec 11 62 d4 3f
       0.5733346379564139 0.31848571874018
0003b0 44 2f 63 35 f9 26 b4 bf 43 78 ca 4d 95 a2 f7 3f
       -0.07871968797115608 1.4771931685168205
0003c0 37 b3 42 08 d1 0c f2 3f 3a 43 c4 28 f8 5a f1 bf
       1.1281290362050649 -1.0847093193480775
0003d0 82 07 dc 38 37 9e fd bf 0a 5d ae d6 88 54 f5 3f
       -1.8511268826555072 1.333138311956477
0003e0 1c 0f 90 2d 64 ed 01 40 17 5a 35 90 e5 0e e9 bf
       2.2409137305820774 -0.7830684486933163
0003f0 af 2b 12 62 71 2c cf 3f 9f ab 3a 2b 2d 29 f0 bf
       0.2435437897550776 -1.0100528420104877
000400 13 78 82 eb 0d f7 e6 bf 9f d8 53 e4 ef 34 07 40
       -0.7176580047414539 2.900848182495863
000410 4f 44 5a 42 2d b3 d8 3f ea 58 25 4a 4f 63 a4 3f
       0.3859360836004883 0.03982017307377979
000420 81 7e 9d 89 d2 85 bb 3f 24 5b 7e 56 75 8d f4 bf
       0.10751071796175361 -1.2845357302337073
000430 ed 7b 7f bc 00 e3 d5 3f 49 da b9 c1 1a 4f fd 3f
       0.3419801560211784 1.8318126265927666
000440 cb 0f c2 67 82 30 f7 3f 80 3d 2b c4 5f e6 e0 bf
       1.4493431141900028 -0.5281218367980927
000450 b6 13 47 4d fc 23 ed bf a5 fb 82 b4 a5 d6 e4 3f
       -0.9106427678421969 0.651202061235257
000460 94 64 f1 8c 90 bd 90 3f 8d 50 98 ac 3d 82 c1 bf
       0.016348131754373954 -0.13678713729371275
000470 49 b1 18 d2 8b e2 e8 bf ef 9b 3d 0b a1 7f e9 3f
       -0.7776545623251333 0.7968297214073327
000480 4c c9 0a 0c 95 9d a3 3f ab de 4b 8b 61 c1 ae bf
       0.03831163188933093 -0.06006913018603418
000490 68 6a e9 fa bb ab 7e 3f 5a e1 48 40 53 a0 d8 3f
       0.007487997338638232 0.3847854736118471
0004a0 94 48 50 3b 71 6d f0 bf fe fc ac 85 47 47 f1 bf
       -1.0267193142831603 -1.079902193232385
0004b0 bb 70 3a ea 64 98 04 c0 bf 67 2e cf 89 7e d3 3f
       -2.574411229999979 0.3045982859854312
0004c0 95 8a 4e 83 96 47 fe 3f 12 2e 78 64 8e 42 f0 3f
       1.892477524678417 1.0162490772808082
0004d0 9c 31 67 c8 16 65 a6 bf 8f 1b d7 82 6e 85 f2 bf
       -0.043739997828740246 -1.1575760947177718
0004e0 16 9a c9 9a 46 52 d9 bf 08 22 73 3d a3 71 e5 bf
       -0.39564671627013703 -0.6701217842283436
0004f0 19 78 d6 d9 5d 77 d4 3f 34 7c ef 8e ca ea d2 bf
       0.3197855593988393 -0.2955805202345261
000500 ae 9b 18 0a 5a 12 da 3f ac 80 71 9f 6b 77 dc bf
       0.4073700998873687 -0.4447888428749234
000510 42 ad 91 3e 08 41 f6 bf 04 e8 11 cc 4d cf fa 3f
       -1.390877003107406 1.6756113025171553
000520 46 b1 fa 0a 0c 17 f6 bf 22 3d 4b 62 99 6d f4 bf
       -1.3806267193677555 -1.276757606468728
000530 b6 76 ce bf 7c d5 e8 bf e3 af b0 68 04 fc e2 bf
       -0.7760604616375619 -0.5932638210992959
000540 96 fe 0b 46 a1 2c e8 3f 9b 19 74 c9 02 18 d7 3f
       0.7554479950049025 0.3608405082053651
000550 ef 1b a3 d5 07 90 df bf 50 94 8c e0 c7 76 de 3f
       -0.4931659303951496 0.4759998028624226
000560 58 90 eb 9d 1d a2 01 40 1a 4d a7 1c 77 77 d7 3f
       2.2041580522073154 0.3666665820903333
000570 02 89 3b 6c af 7b cb 3f 6a d5 23 78 54 9a e6 3f
       0.2147120741347593 0.7063391062244311
000580 b2 29 ba 25 c0 ec ec bf a7 ad 56 38 1e 5d 06 40
       -0.9039002167567587 2.795467796464169
000590 5b 28 01 61 d8 44 f8 3f 0b e2 6e f5 c0 48 e2 bf
       1.5168079175223486 -0.5713810723892164
0005a0 12 b0 85 e3 2b e5 e1 3f bb 61 e4 aa 48 ca 00 c0
       0.5592250293534582 -2.098771414847048
0005b0 77 b5 47 4e 28 e2 d4 3f 84 0f dd 15 39 2c 61 3f
       0.32630355495970015 0.002096282477312474
0005c0 70 72 3e 58 3a 7f d8 3f 2a a2 6a a6 7a dc e4 bf
       0.3827653753049054 -0.651913952858256
0005d0 28 76 b2 ea 20 61 f1 3f f1 ff cb 3b 36 34 ee bf
       1.0862130325180122 -0.9438735168369005
0005e0 c1 c0 38 dd dc 22 f3 3f 3e c4 0d 89 02 96 da bf
       1.1960114137146294 -0.4154058779159334
0005f0 6e 74 02 69 e3 b3 fd bf 17 4d fe 20 68 02 e0 bf
       -1.8564180471360276 -0.5002937931443822
000600 ef dd b6 ff 4f 92 fc 3f 4f ab af 4d 7d 32 fa bf
       1.7857208241310862 -1.6373265299432267
000610 c3 62 13 65 cd 42 f1 bf 09 7b c6 c9 6b 72 d4 3f
       -1.0788091610212838 0.3194837065183696
000620 69 c9 87 e6 4d 07 f0 bf 66 48 0b 33 ec 33 dd bf
       -1.0017832760900893 -0.4562941072919159
000630 0a 82 00 2b 27 ef e9 bf 05 a5 1b 9d 4a 49 e4 3f
       -0.8104434814341073 0.6339467113986365
000640 37 63 a5 5b 70 a3 d0 bf eb 22 a9 23 4a 27 f3 3f
       -0.2599755187016401 1.197092189120833
000650 6a cc 6a 0f 6e 36 fa bf dc 10 b0 3d e9 db f6 3f
       -1.6382885553582818 1.4286892327955263
000660 0d 52 d3 c7 06 98 e8 3f 18 38 d2 4d e8 17 c6 3f
       0.768557920726893 0.17260459709035625
000670 87 f2 9c d9 d0 77 d8 3f 3e e4 1d a4 8c 43 e0 bf
       0.38231297732617303 -0.5082457738309427
000680 4e f2 67 5a ab 29 ef bf 83 16 75 1f 5b 55 fb 3f
       -0.9738365903609265 1.708338854675646
000690 24 5f cc c0 94 45 c2 bf 53 19 e2 4f e3 13 f3 bf
       -0.14274844564419553 -1.1923554535329302
0006a0 81 ad e2 7d 16 e8 da 3f cf ab cb 1e b9 f3 ca 3f
       0.4204155186987109 0.21056283954325614
0006b0 1f fc 64 08 4b 65 e9 3f cc 2b cd a4 6c a5 df bf
       0.7936148799852879 -0.49447170347110325
0006c0 35 15 da 3d 69 92 ed bf f2 2b f9 ff 45 01 f2 bf
       -0.9241224487347269 -1.125310897727783
0006d0 59 6d 58 85 56 91 f1 bf 0f 13 08 44 2b 10 e5 3f
       -1.0979829033666049 0.6582237557164222
0006e0 97 19 4b aa c0 b4 dc 3f 54 df 9a 5e 19 c4 ea 3f
       0.44853226309023725 0.836437878394444
0006f0 ee 3b 14 b9 75 0d dc 3f b3 7e 0c 7b cc 94 e1 bf
       0.4383215243732924 -0.5494139102265393
000700 ef 48 d5 e5 b5 9e 02 40 c0 15 05 36 f0 f9 c8 bf
       2.3274953799929032 -0.1951275123375762
000710 e8 c2 3d a4 02 4b fc bf d2 81 a4 ad aa 22 ea 3f
       -1.7683130660699877 0.8167317763764521
000720 0e 24 61 c9 46 4d d9 bf e1 dc 08 6c 8e fa d2 bf
       -0.3953415838810209 -0.2965427451158132
000730 dd 62 a0 00 8d 3a cf bf ef af ef 67 28 29 d5 3f
       -0.24397432833281743 0.33063707494761635
000740 63 c5 c9 70 73 09 f3 bf b6 94 e0 04 be 4c dc bf
       -1.1898073583400552 -0.44218397594734016
000750 2a 2e 72 f9 f4 8b 67 bf bd d9 bf a9 71 bb f4 3f
       -0.0028743538528652928 1.2957626944386071
000760 04 ec c5 f9 75 a5 eb bf e4 48 37 d4 c8 43 e3 bf
       -0.8639478567487235 -0.6020244736521616
000770 79 ca a4 c1 66 b7 f2 3f f4 c5 75 f8 8a f4 e2 3f
       1.1697757305343244 0.5923514225707422
000780 5d e3 8a 94 73 8d c4 3f 9f 8b b9 a8 fe ea e7 bf
       0.1605667567544299 -0.7474358840375891
000790 07 40 5f 98 81 a4 f0 3f 3e bd 53 64 b1 2b a6 bf
       1.0401626541170133 -0.04330210065551875
0007a0 48 b9 ff 54 87 42 b2 3f f5 3b 27 af 36 d5 b3 3f
       0.07132764649552314 0.07747213150217631
0007b0 f4 ee 5c 5c c2 0f b7 3f b8 9b 81 7a ac 9c ea 3f
       0.09008421664196559 0.8316252129269435
0007c0 2c 4e 28 ae fe c1 d3 bf 0a 92 f5 40 2c ac 02 c0
       -0.3087155056720998 -2.334068782324043
0007d0 b8 1f f4 22 5d 2f d7 bf f0 ee 86 7d c6 c9 b0 bf
       -0.36226585782469156 -0.06557884754777965
0007e0 d2 12 1e ba 21 4d ba 3f dd af 2d 51 0d 18 e7 bf
       0.10273943704494151 -0.7216860375897302
0007f0 bd a1 d0 50 f6 bb f5 bf 23 27 e1 7c 22 6c e0 3f
       -1.358389201816052 0.5132000388195802
