weights/init_z/5.npy (npy, 4224 bytes, 1 tensors)

array f8 [1, 512]
000000 14 1f 91 36 12 3d dc 3f e2 e3 66 00 fa 2c d5 bf
       0.44122748688504143 -0.33087015189408764
000010 64 0f 02 2a 38 72 03 40 70 59 0e 07 47 22 d0 bf
       2.43077118700778 -0.2520921296030769
000020 b1 e5 e5 fc 63 0f bc 3f 47 12 45 b8 d7 51 f9 3f
       0.10960984157818278 1.5824811170615634
000030 8e 45 6a 8e 6e 18 ed bf 49 9c 1d 00 b0 ee e2 bf
       -0.9092324048562419 -0.5916366579302884
000040 c0 0d cc eb 61 03 c8 3f 8e 18 26 e2 96 1c d5 bf
       0.18760322583703548 -0.32986995777935924
000050 28 d8 a2 58 90 15 f3 bf cd 9c 58 bc 64 39 ca bf
       -1.192764612421806 -0.2048765105875873
000060 08 9f 0e b0 0d f7 d6 bf 3f b8 a8 ad a3 4f e3 3f
       -0.3588289470012431 0.6034716026094954
000070 c7 63 0d 4c f9 a2 fa bf 93 23 87 de dd 67 e6 bf
       -1.6647885294716944 -0.7001790376899514
000080 3f 7e aa fa 18 6c f2 3f cc 7b de b7 a0 b7 fd 3f
       1.1513910094871702 1.8573310072313118
000090 03 7c aa 9d ca 2d f8 bf a9 20 46 3f 97 a2 e4 3f
       -1.5111795576883658 0.6448475108927784
0000a0 a7 d6 a6 c9 23 61 ef bf 71 5c 9f 4e 57 6b eb bf
       -0.9806078852186219 -0.8568531547160899
0000b0 db ad 44 2c 6f e6 eb bf 1c 67 83 b2 5e 0a db bf
       -0.8718791832556535 -0.4225079291623943
0000c0 15 cb a0 c6 d5 e2 ef 3f bc 77 6c b1 27 cc e6 3f
       0.996439826913362 0.7124212708765678
0000d0 42 b1 be 7c 27 48 ae 3f 6b 18 57 45 7c 40 d7 bf
       0.059144243219039896 -0.3633108784819174
0000e0 73 74 ff 1a 34 f1 6a 3f b3 96 49 e8 41 1e bb bf
       0.0032888429341100755 -0.10593044205742323
0000f0 4c 59 e2 5a b1 60 e9 3f 5d 3f e1 b4 d5 35 e4 bf
       0.7930533194619698 -0.6315716297922155
000100 1f 9c 91 15 d5 5f 79 bf c4 d0 67 27 91 df b9 bf
       -0.0061949084857593475 -0.10106761180924467
000110 d7 28 72 4a 22 c8 aa bf ca 9c 8f 3e 5d e6 cf 3f
       -0.05230815085185874 0.24921765856490757
000120 b5 3e 60 05 ed 4c c9 3f 5a ad b7 2d 8a 5b f5 3f
       0.19766009104249851 1.3348485742415819
000130 94 59 c8 cf 7a 3d b6 bf 7b 2c 40 49 09 fc f8 3f
       -0.08687560627763552 1.5615322934488904
000140 4c c8 d2 8c 18 93 d3 bf 64 d3 5e cb 26 93 de bf
       -0.3058530211666308 -0.47773141727821256
000150 b7 da 26 5a fa c9 b9 3f 42 c3 9e 01 81 bf d6 3f
       0.1007381887528521 0.3554384723493521
000160 45 34 12 65 54 41 d1 3f 34 7e f4 cb e1 ab f4 3f
       0.269612406446701 1.2919633833879631
000170 85 b5 0f b4 bf 3a f2 3f 33 15 f0 56 e9 a4 df 3f
       1.1393429788252842 0.49444039812108825
000180 99 d4 5c 84 88 86 d5 bf 2e bf e5 9e dc c1 b9 bf
       -0.3363362591365529 -0.10061434630710828
000190 d7 48 73 3d 47 9d f6 3f e2 06 e0 1a 0e 52 cc 3f
       1.4133980179217838 0.2212541228509997
0001a0 98 76 c5 3f ed f8 f4 bf fb 60 03 1b eb 10 e6 bf
       -1.3107731333797457 -0.689565232048181
0001b0 48 8e 37 08 fd 7a e2 bf 7d f0 f0 44 6e 6f f2 3f
       -0.5775132332314081 1.1522047703756748
0001c0 18 f6 20 52 19 6f bb bf e8 c5 34 dc b2 14 02 40
       -0.1071639848241478 2.2601067737202705
0001d0 a1 ee d5 d5 06 03 e5 3f 76 5b 1c 11 57 f3 bf 3f
       0.6566194702604272 0.12480682533019469
0001e0 70 d9 bd b0 92 e2 db bf d6 6f 9d c8 17 1c ef 3f
       -0.4357039190284899 0.9721793096791724
0001f0 2a 4b e7 69 9f cf ce bf 2e 61 09 26 38 5f ea bf
       -0.24071114226406937 -0.8241234534171207
000200 ed 22 4e aa 24 2e e2 3f d6 35 0a 48 08 21 8a 3f
       0.568132717730888 0.012758316706164157
000210 b4 fd 25 8a 64 06 f3 3f 0a fa 3a 01 03 d7 b2 bf
       1.189060725824544 -0.07359331874884148
000220 d9 44 ab 15 a4 e0 06 c0 c0 73 50 55 7d 42 e9 3f
       -2.859687966622556 0.7893664041799795
000230 66 a6 6e 06 3a 0b fe bf 37 d0 90 c3 be 9e f8 3f
       -1.8777408839472627 1.5387561454090368
000240 0c e6 24 5a 4f 24 fd 3f 7d e9 34 73 7b 54 db bf
       1.8213647385840686 -0.42703138590481854
000250 b6 8c 58 78 9e a2 f2 bf 15 a9 e0 4a 6a 5a f6 bf
       -1.164701910115395 -1.3970740246682614
000260 2c 5b 5f 62 c9 ec eb 3f e3 4c 67 29 02 df c9 bf
       0.8726546212518307 -0.2021181776204691
000270 22 1d 29 bb c3 25 e3 bf 0c 02 07 74 60 28 cf bf
       -0.5983599334221348 -0.24341970124625367
000280 2f 95 43 30 47 b5 00 40 fe 4c 0c 1f ed 33 d6 3f
       2.088514687597715 0.34691932708774675
000290 bc 53 c4 c3 fe dc e7 3f 2d 66 fc 4e 6d dc e8 3f
       0.7457269500324553 0.7769075911230111
0002a0 58 8f 49 f5 73 4b f0 3f f6 98 6b a5 4b fb f0 3f
       1.0184211331879478 1.0613514386873795
0002b0 dd 18 58 21 24 bc e6 bf ba 2d f4 1e 46 8b cb bf
       -0.7104664469959762 -0.2151878024236405
0002c0 59 6d b0 00 26 58 e8 bf 93 04 f6 62 d9 c1 e6 bf
       -0.7607603085956881 -0.7111632283050703
0002d0 15 9b 06 9e 9d 43 f2 3f cb 2e 39 a6 61 0e e0 bf
       1.1415077374346698 -0.5017555471945
0002e0 da 29 b7 7b 43 43 b4 bf 3c 1d 17 26 a2 2b e6 bf
       -0.07915136118314284 -0.6928263420058225
0002f0 f5 8c df ce 27 fd e2 bf d2 03 9f c7 3e 39 e9 3f
       -0.5934027710431155 0.7882379435396791
000300 67 38 89 cb ec 81 dc bf e7 87 a9 a0 0e db de bf
       -0.44542999149860524 -0.48212018670721907
000310 66 81 1e df 72 96 df 3f c7 30 f5 ff fd 03 e0 3f
       0.49355766095142994 0.5004873274970344
000320 bd 2a 3e ad 86 5b e9 3f b6 58 54 0d 9c db c5 3f
       0.7924226173066341 0.1707644524655671
000330 67 86 96 93 52 0f fc bf ce 8c 37 84 63 2b e4 3f
       -1.7537408604770464 0.6302964765895014
000340 aa da f1 37 a0 e4 df 3f 95 85 7e a9 4a 4a f0 3f
       0.49832921470025815 1.018137609564609
000350 68 a4 52 5a 45 16 eb bf 61 9f 61 31 9d 2a 04 40
       -0.8464686168782807 2.5208076341549916
000360 34 fe b1 80 da b7 f3 bf 9b 43 0c 7c 33 43 e7 3f
       -1.2323861148032735 0.7269532606897998
000370 52 0a 33 71 71 87 a7 3f f2 35 52 67 2e 2d df bf
       0.04595522410229037 -0.48713264551119473
000380 39 00 0c 9d c1 1d ea 3f d0 a8 ad 7b f3 02 d2 bf
       0.8161323611566395 -0.28143012121166766
000390 6a 39 46 7e 5a af 02 c0 d9 4a ed 2a 2c ad f2 bf
       -2.3356218209439037 -1.167278449710173
0003a0 c2 ac 8d 14 45 4a dd 3f dc d6 bf 83 5a e7 01 40
       0.45765807158631955 2.2379656117362696
0003b0 0b d1 33 d9 3c b3 f7 bf af d3 d7 05 1d 5a 91 bf
       -1.4812592014760095 -0.01694531772769253
0003c0 a7 f5 49 60 34 36 f7 3f 2e 13 b4 4d 7b 6b e3 3f
       1.4507335435185753 0.606870319141853
0003d0 1c db 40 02 2c 0a d8 bf 33 1e bc f4 33 c0 f6 bf
       -0.37562084407857 -1.4219245490984462
0003e0 8c b0 e2 80 98 7f fc bf 48 f6 1f 1e d8 ee e7 bf
       -1.7811512980070203 -0.7479057873130808
0003f0 45 67 c7 91 05 94 d7 bf 33 0b 34 a5 31 fe 01 c0
       -0.36840953098509416 -2.2491181284434787
000400 a9 7f e7 ff 4a 19 fb bf ce af fe f8 f9 6e d3 3f
       -1.6936750408421892 0.30364846530823975
000410 f7 f4 0b 33 ee 2c da bf 3c c6 7a 7b 92 27 e8 bf
       -0.4089923380377764 -0.754830590411252
000420 96 57 c2 43 cb 14 da bf 6e e2 9b a4 05 01 ea bf
       -0.4075191652021827 -0.8126247611063044
000430 32 6d 70 78 36 ae ed 3f f0 a0 95 79 40 3d fa 3f
       0.9275162079169716 1.6399540662187597
000440 e0 77 00 bd c3 96 00 40 0c ba 52 00 aa b6 e6 3f
       2.0736155286567595 0.7097978597938108
000450 5c 31 95 8d ac e8 e7 3f c7 f5 41 ce d6 68 f7 3f
       0.7471525922096975 1.4630954796733577
000460 a7 bb 2e b4 af d0 fb 3f db 46 49 ad 7a 71 f7 3f
       1.7384488142376797 1.4652048844331407
000470 59 be c4 48 83 65 f3 3f 40 b2 45 c2 12 4f e4 bf
       1.212283405544346 -0.6346524996166139
000480 da 8f 5a 75 5d 98 f9 bf bd f7 3d c6 a2 11 ec 3f
       -1.59969850388824 0.877152812186743
000490 4b 02 53 42 67 05 b8 bf 5d 5d a3 f2 e9 80 ac bf
       -0.09383244866604305 -0.05567103468791388
0004a0 f0 99 ac 78 22 76 ec bf 10 75 2b 78 b2 d0 f4 bf
       -0.8894207341116367 -1.3009514516955427
0004b0 ea e9 20 44 46 6f f6 3f 54 98 55 f5 36 c4 dd 3f
       1.4021666203758465 0.4651009937136952
0004c0 f4 b3 d6 a4 5f 0a f1 bf ae 2e cf b7 a6 fc d8 3f
       -1.0650326193820066 0.390420608044887
0004d0 e4 59 52 06 f4 8e d3 3f 1e f9 ca b3 fd b2 e0 3f
       0.3056001722083279 0.5218494903163309
0004e0 4b 2a a1 16 bd dd 01 40 dc bc c6 4b 79 c4 a1 bf
       2.2332708137448996 -0.034702101230658505
0004f0 56 7a 70 28 56 79 f4 bf d9 c4 31 94 b7 b5 a2 3f
       -1.2796231822645914 0.03654264148725312
000500 88 20 8c 01 f4 ae e4 bf 61 f7 dd 22 de 8d e1 3f
       -0.6463565855238054 0.5485678368565737
000510 7c cf 87 21 0e f3 ca 3f 70 45 93 ad 15 2d d6 3f
       0.21054245602828903 0.3465017504759862
000520 ce b7 db 7d 48 25 e2 bf a3 71 38 ae b6 79 da 3f
       -0.567051168267193 0.41367880834311616
000530 f9 df 2d 82 04 54 e0 bf 6b cc 81 7d 63 8d e0 3f
       -0.510256056076286 0.5172593547162142
000540 f8 a4 95 03 ab 43 d3 bf 40 d5 5f 24 fe e4 f1 bf
       -0.3010051283841473 -1.1184064312813717
000550 c6 68 ee a0 cf e7 df 3f c1 2e e9 2b 52 98 e6 bf
       0.49852362361856384 -0.706093869937341
000560 b9 01 65 12 23 1a f7 3f e7 04 7e 37 65 59 dc 3f
       1.443881103376141 0.44295626086393586
000570 17 f3 3f da e1 ee dd 3f aa b3 47 6f bb f1 b9 3f
       0.4677052146287663 0.10134479014204936
000580 c7 63 a5 01 62 63 ae bf 03 5f ac fc f4 17 03 c0
       -0.05935198087781362 -2.386697744379377
000590 bb ce be b6 02 8e f3 3f 1c fb e2 31 91 0b ea bf
       1.2221705568780823 -0.8139120077465551
0005a0 94 9a 7b 77 b2 99 ee 3f b9 d1 35 b0 ad 6e e4 bf
       0.9562618573807691 -0.6385105554205018
0005b0 2b fa 83 69 f7 51 c2 bf 59 52 7f 9f 40 b2 cc bf
       -0.14312641765714437 -0.2241898325725227
0005c0 53 24 55 2f ad 9d f0 bf b3 ad bc e5 8f fa c5 bf
       -1.03849524010936 -0.17170904843929477
0005d0 44 fd 3e ac 74 7c de 3f b9 7f 5a 8e e5 81 da bf
       0.4763461763468124 -0.414178265587903
0005e0 b9 83 a3 74 af 39 f4 bf 42 69 54 26 c8 57 e2 bf
       -1.2640833431434955 -0.5732155560138283
0005f0 05 96 ed 88 03 fa cf 3f eb 06 e7 91 f0 5a f2 3f
       0.24981731592122017 1.1472020816149164
000600 bb 03 74 8a 0d c0 ea 3f 60 3d 0c 42 d2 64 d2 3f
       0.8359439567722043 0.2874036450384292
000610 e7 38 fb c4 ec db ef bf 9d 0a 89 0f 3d 05 ed 3f
       -0.9955962989131678 0.9068894675659355
000620 56 a1 66 8d b3 ca 98 3f c4 53 11 b3 b8 b7 ce bf
       0.024210744386125548 -0.23998173469104078
000630 e5 29 77 30 a0 1f ed 3f d8 84 db 5a 62 c5 e3 3f
       0.9101105639068093 0.6178447508392777
000640 ed 27 b9 f5 bd f9 df 3f 0a ae 95 a8 b9 6c f2 bf
       0.49961804386532443 -1.1515442452754336
000650 b0 0f cd b0 59 89 e3 bf d3 e1 56 58 1d 43 fb bf
       -0.6105164006371435 -1.7038854075200234
000660 6b 85 62 f1 52 e3 c8 3f f0 9a 74 1a 46 eb 9c 3f
       0.19443737779969736 0.028241248478617587
000670 06 86 85 21 89 d7 ed 3f 66 bc b9 47 3c 24 cb 3f
       0.9325605063169753 0.21204331876967614
000680 c1 c6 2a 60 67 8c d7 bf 9d 54 55 08 54 e4 00 40
       -0.3679445685512342 2.111488404373246
000690 94 18 69 0e 22 79 f0 bf 16 53 26 76 67 61 f5 bf
       -1.0295734942351702 -1.3362803092215407
0006a0 cf f6 36 8e c4 89 e3 bf 52 17 37 9f 4b ca e0 3f
       -0.6105673577910354 0.5246942624732844
0006b0 a1 58 dd 77 10 5b d6 bf ee 86 ca 18 0f 35 dc bf
       -0.3493081255486548 -0.4407384626484675
0006c0 d4 43 74 44 cb f0 f1 bf 35 c0 a3 a2 c5 90 f7 3f
       -1.1212876008978485 1.4728447297202483
0006d0 57 1e ad 55 aa f2 e3 bf a8 ef 59 21 8e 4a f1 bf
       -0.6233722375263352 -1.0807019522462529
0006e0 1a a9 e5 d4 21 5e bf bf bd c1 5e 0c 08 d9 e9 bf
       -0.1225300926941241 -0.8077430955509538
0006f0 02 57 e2 ff 66 c4 cd bf 83 d3 70 99 c6 5c f5 3f
       -0.23255622381537228 1.3351503366259017
000700 8e 4e 0e 3c bf 92 dc bf 3a 6f a8 05 e7 7d a9 bf
       -0.4464567266925109 -0.04978868431154955
000710 cf e1 50 d7 3c 96 d7 bf 60 b5 ec 13 ec 8a c8 bf
       -0.3685447790808469 -0.1917395684517187
000720 e3 49 3d 62 d1 3a ea 3f 08 52 69 ba 24 03 e1 3f
       0.8196799200762225 0.5316337242935001
000730 c2 6f c0 4f 05 dd d5 bf 7f 30 f6 cd ef c9 ed bf
       -0.341615035898709 -0.93090048052683
000740 3b 89 80 c0 05 2e c1 bf 02 89 59 5c 9b a4 ea 3f
       -0.13421699428097064 0.8325936130243294
000750 9e eb 82 2a 0e c5 91 bf 77 96 2d c8 1a 57 c0 bf
       -0.017353268952074445 -0.12765822195358442
000760 7d 70 6e fb 39 ed fc bf 4a e1 1c 07 98 ce ef 3f
       -1.807916624216005 0.9939689768716928
000770 6d f0 2b ef a9 db f7 bf 7d 2a 0d 22 83 83 f4 bf
       -1.491128858818253 -1.2821074800619094
000780 61 f0 77 17 97 0b d8 bf 37 d4 db 92 d7 bc a1 3f
       -0.375707409780949 0.03464387576779198
000790 d3 dd 77 fd 7b 14 a7 3f 17 4b e6 52 9d 70 e8 bf
       0.04507815808386408 -0.7637468928463446
0007a0 5b c7 e1 17 76 0a d4 bf 16 0d 8a 51 75 6c e3 bf
       -0.31313850719663144 -0.6069895355762209
0007b0 cd bf 43 fd eb f3 fc bf 96 85 a6 16 67 5a d0 bf
       -1.809551228823682 -0.25551774227104695
0007c0 62 0f 12 b0 9a 33 e6 bf 4e bf e7 d4 22 d4 da 3f
       -0.693799346816814 0.419197757640167
0007d0 5c 1d 54 72 eb 95 c2 bf 3a bf da d2 75 d7 ee 3f
       -0.1452001865620599 0.9638012998820848
0007e0 cc 12 c6 55 73 47 e6 3f 8c f1 d7 f6 ed c7 ec 3f
       0.6962219882267049 0.8994054623758969
0007f0 30 42 16 3f 84 55 f3 3f 7e 46 7b 64 22 2f e6 3f
       1.2083780731519589 0.6932537043123401
