weights/init_z/51.npy (npy, 4224 bytes, 1 tensors)

array f8 [1, 512]
0	0xbfd2979a9f3aa97b	-0.29050317334863224
1	0x3fbcb46c7718c974	0.11212804706227592
2	0x3ff40341bf270991	1.250795122804082
3	0xbff5c6348ff6c8b1	-1.360889971122145
4	0x3fb995338d4f6f3e	0.0999328823085621
5	0xbfa8924a3487b5e5	-0.047991103088729926
6	0xbfd6cc779d604390	-0.3562296902537634
7	0xbff16abceee59a1e	-1.0885590869817245
8	0xbfd67712efe800f1	-0.3510176985582936
9	0x4004b50b08eef804	2.5883999536445135
10	0xbfe02e4a91659a5f	-0.5056507911475129
11	0xbfe2b2a9396f2137	-0.5843092080840852
12	0xbff45e9d73781f2e	-1.2730993757740623
13	0x3fe7e5a58b9ad0c2	0.74678303972771
14	0xbfe1ddf8ad1d4b01	-0.5583461171284797
15	0xbfbc5d7db1706847	-0.11080155927666722
16	0xbff2ff54b2ecd7f6	-1.1873366345657792
17	0xbff021b17fbed70d	-1.00822591686796
18	0xbfe61358e90021fc	-0.6898617316047075
19	0xbfb5ecac3f7cc72a	-0.08564259099946683
20	0x3fea53fea0efffe4	0.8227532523451342
21	0x3fed501127669bd2	0.9160238046214266
22	0x3ffb7835b9d00bbf	1.7168481119449408
23	0x3fe09dc756e5a8e4	0.5192600915154597
24	0x3ffd426bc5ac0c5c	1.8287160607876762
25	0x3ff1518f8ddac0b2	1.0824122945014492
26	0x3fd7978a443c87fc	0.36862427390781227
27	0x3fd2d9324e65e933	0.2945066228491157
28	0xbff5611722858b52	-1.3362037037374717
29	0xbff0b1d9cbabaebd	-1.043420596683901
30	0xbffa3120968e7148	-1.636993969069481
31	0x3ff53fc07c8a08b8	1.328064428788407
32	0x3fdab80e5e7fc0e2	0.4174838946191938
33	0x3fe6f7c3b5c7d35a	0.7177446890260442
34	0x3ff008d63dde4953	1.0021574417811123
35	0xbfca2df222e64c84	-0.2045271559150913
36	0xbfa0dadc29294cf2	-0.03291976931054731
37	0xbfd7e1799a807764	-0.3731369026953557
38	0x3fd435ddd63f0d1e	0.3157877533196415
39	0xbfd380f6b7825c67	-0.3047463218767405
40	0x3fd735c3b5df45a6	0.36265652428581985
41	0xbfe1f0d98f42f879	-0.5606506155088616
42	0xbfd349b4654e20d1	-0.301373576098297
43	0x3fd4971cf5f88074	0.3217232133920398
44	0x3fd7103fc449ea97	0.3603667656786142
45	0xbfc905212befb78d	-0.1954690422566582
46	0xbff57326256d11d4	-1.3406125509219367
47	0x3ff1838d5e833724	1.0946172420403366
48	0xbff2cf6904c648ca	-1.1756372629648006
49	0xbfd30ca6dee32dc5	-0.29764720693921404
50	0xbfe1b732d455389a	-0.5536131045462469
51	0xbfe1c2e5541e3d6e	-0.5550409930164457
52	0x3fdc8ee5bf93d04e	0.4462217684624691
53	0x3feaa4394f07f266	0.8325468581748054
54	0xbfd33f2e1c16d287	-0.30073120825844807
55	0xbfe617f9b4f12d85	-0.690426686670819
56	0xbfca1d264f49d6c7	-0.20401457664018194
57	0x3fa13ed2dab6d3d4	0.033682431410319374
58	0x3fe66b3a64dc077e	0.7005893678581143
59	0xbfefe1e3cac48b5a	-0.9963244400317806
60	0xbfe9056dc12aa84f	-0.7819126866136318
61	0xbff6ecf8fea16334	-1.432854647302702
62	0xbfc2766e93d1f240	-0.1442392560746999
63	0xbff4af3a0e58e8bf	-1.2927799759332144
64	0x3fe1c6d3c76750f4	0.55552090593349
65	0x3ff1c6a0aa4b6919	1.1109930660373435
66	0x3fd062817282a023	0.25601230795519053
67	0x3fe82555fb98b031	0.7545576013558329
68	0xbfff1a19cb7a3f78	-1.9438722561207822
69	0x3fd7b9dd649e037c	0.3707192881193391
70	0x3fd51350f4ce7ecf	0.329303969449012
71	0xbfe77c9b3a42a613	-0.7339607370278735
72	0xc00d6f064c18e38a	-3.6792112298102824
73	0x3fb63bd7d0c352ea	0.08685063215973413
74	0x3fd82bce5a61c07e	0.37767371012069606
75	0x4003f18bc9d7b1e5	2.4929424065542087
76	0x3fd030873d4f88f3	0.25296193110820225
77	0xbfc819c1954316d7	-0.1882860163515747
78	0xbff1c0d144206791	-1.1095745717234176
79	0x3fba9916c9ffa878	0.1038984530602266
80	0x3ff5515f4d0d7d0c	1.3323662767286946
81	0x3ff1b62e9b69b56a	1.1069780417268142
82	0xbfd958164fba748f	-0.3960014132115441
83	0xbff3d8318b09f909	-1.2402816230019786
84	0x3fe4fd52e7a2241c	0.6559233211602336
85	0x40030a67b286120a	2.38008059951449
86	0xbfef3061d15815c3	-0.9746560181380847
87	0x3fe520543a243b27	0.6601964126183234
88	0x3feef73f6c5468f8	0.9676816097083067
89	0xbfc203f7cb46f49a	-0.14074609208720262
90	0xbfd9938cdcda1b03	-0.3996307522542539
91	0x3fd545adf4fc16e6	0.33237790035523884
92	0x3fd77961cc978edd	0.3667835710495931
93	0x3fe5833c43326421	0.6722699463308609
94	0xbfc0248cd6d3ef50	-0.12611542215005977
95	0xbfd43ce524c11d63	-0.31621674145977446
96	0x3fe8bea5f35d6c52	0.7732724908086175
97	0xbffb7e2e1a35d65b	-1.7183056854095387
98	0x3ff21401a21f6840	1.12988437012838
99	0x3fd6756625b2f76d	0.35091546708633
100	0xbfd501fa1fea350d	-0.32824566952406614
101	0xbffa00e1907af0a8	-1.6252151149520078
102	0xbff063674becf5f9	-1.0242684331745961
103	0x3fd8068c53b93d64	0.3753996675122464
104	0xbfeed49dd7cfda54	-0.9634541716648735
105	0xbfd0a920a2562a8d	-0.2603227219885092
106	0xbfff8db8aa2b553e	-1.9720999381291473
107	0xbff109310dc8e2e6	-1.0647440470185585
108	0x3ff3032c0b1127b3	1.1882744247727544
109	0x3fd69c3790f28228	0.35328473238954183
110	0x4000a9431ca1fee2	2.0826475369393487
111	0xbff316525d52b4b4	-1.192949642699472
112	0xbfe835470d073448	-0.756503606267537
113	0xbfcaa4e77df33e04	-0.20815747880850222
114	0xbfc880ba6bbe8a87	-0.19142847310020647
115	0x3fe91ce5c494cf03	0.7847775306204031
116	0xbfe7e66e2301a35e	-0.7468786891669017
117	0xbff0e0a01399b9f3	-1.0548401609081537
118	0x3fe54e29b3ffd116	0.6657913699732798
119	0xc004cf3be3ee1349	-2.6011884505300356
120	0xc00181925a219c7c	-2.188267425680861
121	0x3fd770423319c3d9	0.36622672071740464
122	0x3ff22c595c9dda94	1.135827409537943
123	0x3ff327fea84444e8	1.1972643444935844
124	0x3feda6657ba4a1f4	0.9265620627311919
125	0xbff83f587c7030de	-1.515465246283433
126	0xbfbad092d34f30f4	-0.10474507960242702
127	0xbfcbf7b5472d31ef	-0.2184969518224444
128	0x3fb127dc8d57d27d	0.06701448870428268
129	0xbfefda6de3d7fff8	-0.995413727767299
130	0x3f82ff728bd2ab29	0.009276289836937917
131	0x3fec4ea7dfbfa725	0.8846015329447466
132	0x3fee7b1f48af5f18	0.9525295657758504
133	0xbf9da56490602e0f	-0.028951236068719462
134	0x3f7a3ecd8a11bb56	0.006407549751300609
135	0x3fe4c11dbbf7b814	0.6485737487071241
136	0x3fd094d0ff8f6cc1	0.2590830321984861
137	0x3fe629c983925a97	0.6926009721526779
138	0xbff2dbcd2aa3b7d5	-1.1786624589544676
139	0x3f989b0978cce0d8	0.02402891921812586
140	0xbfdf4bf84e0de9c4	-0.48901183722014374
141	0xbfb5b5cc8607fe45	-0.08480528137442274
142	0x3fa5337b6b65f166	0.041408402309545164
143	0xbfe1941f4731fe0d	-0.5493313208134524
144	0xbfd12159c30d1c1a	-0.26766056106538516
145	0x3fefdd2c51fda133	0.9957486726171169
146	0x3fff45151c5ca847	1.9543658359421145
147	0xbfdbba617f96a444	-0.433250784490671
148	0x3fe62a789d9bf0d0	0.6926844671538905
149	0x3ff9060058fe9ec6	1.563965175280758
150	0x3ff54963d6764685	1.3304174783155827
151	0x3fd928b298362ff0	0.3931089865152435
152	0xbffad88e7c3b8351	-1.6778702595549542
153	0x3ff8ec60539d8168	1.5577090517254764
154	0xbfdb0058d84e0626	-0.4218961822844868
155	0x3fdeb2c693bff9da	0.47966160229398513
156	0xbfe0c2a2c29cebf7	-0.5237592507395438
157	0xbfd8751c2e8ebca7	-0.3821478323615772
158	0x3fd330afd736bd28	0.29984661118483524
159	0xbfeb48000a4769ce	-0.8525390816460516
160	0x3ff6af016a7dd1e9	1.4177259597610095
161	0xbfb16189c056abbe	-0.067894563157707
162	0x3ff16bb0f50f2ef8	1.0887918064717592
163	0x3fd4c10dd9108ba3	0.32428308675496903
164	0x3fe5fb71df64725c	0.6869439471370913
165	0xbfc6c11eba8ee3a3	-0.17776855572972491
166	0x3fd21cc0196538df	0.2830047843934959
167	0xbff121282b054b2a	-1.0705949478621712
168	0x3ff71d389c4a22e8	1.4446340661108312
169	0x3fe0c51e5e9cf963	0.5240623329080275
170	0x3feedfa89d58bcf7	0.9648020814110215
171	0xc0028b9b775dfae6	-2.318167622142357
172	0xbff88b5013ebe4cf	-1.5340119150335345
173	0xbfd45aea77402766	-0.3180490650707867
174	0x3fefa1d5cdea9b83	0.9885052701764468
175	0xbfda9be9595c6354	-0.4157660839714954
176	0xbfecbaa083eb2e9c	-0.8977816177880018
177	0xbff1b651a9a8321f	-1.1070114733912602
178	0xbfe66db84512e03a	-0.7008935307594648
179	0xbfe2dce65293cdeb	-0.5894652951087073
180	0x3fea459d9631b7aa	0.8209979947548522
181	0x3fc9201cd6958306	0.1962925002835833
182	0xbff75afec7d53a64	-1.4597156339620136
183	0x3fb83b2f687c939c	0.09465309430068064
184	0x3ff1fbdc24cb78a8	1.1239892422959574
185	0xbfe8f48eeb2a0903	-0.7798533051539213
186	0xbff68273bb511e5a	-1.406848651606103
187	0x3fd446549e2ce877	0.3167926354104859
188	0xbfe1b66ee32482bc	-0.5535196720485014
189	0x3ff07231bb844ebe	1.0278794598461185
190	0xbfe253ac6096f616	-0.5727140318410331
191	0x3fd791832efa7103	0.36825637424205143
192	0x3fce7a2b82d21b7a	0.23810333144885104
193	0x3ff0c78de075320a	1.0487192886240586
194	0x3fc2dd34c2c7126e	0.14737567434908122
195	0x3fe8c40af5587c2a	0.7739310066134568
196	0x3ff2eff6c61c64be	1.1835849512774952
197	0xbffdc71e4639fce9	-1.8611128562186485
198	0x3ff4a2c6192c81f5	1.2897397025445774
199	0xbfd52f92c717cc6a	-0.3310286468760696
200	0xbfb8fa567a63cde3	-0.09756985176118564
201	0x3fecf5d897749a67	0.9050105054964889
202	0x3fd1bb36365e2ef6	0.2770514994560779
203	0xbfd5c1edf8fc7bc5	-0.3399615222460251
204	0xbff80c6eef81d118	-1.5030354839082687
205	0xbfdc1bcc7f658cf9	-0.4391967052562929
206	0xbfb4850cebead1a6	-0.08015518912981764
207	0xbff3893db560d0c2	-1.2210061154446952
208	0x3ff6108e1f91c80b	1.3790417893583278
209	0x3ff184d44e605a4c	1.094929033429838
210	0xbfdb3959ae705527	-0.42537538561858174
211	0xbff486466830813f	-1.2827819890881782
212	0xc001aa99983cc3b2	-2.208300771097549
213	0xbfdbb1575bc2c6e0	-0.4326990505315802
214	0xbffbe8e06097649e	-1.7443546078778023
215	0x3fe731fa9b35bcbf	0.7248509437030392
216	0xc00156ca5408ff4a	-2.167378098034452
217	0x3fd54d0c6aba9d6f	0.33282766745329345
218	0xbfe4da9a947d3ebd	-0.6516850376301232
219	0x3fb332b5599efcf3	0.07499249876035545
220	0xbfea7cff95f77a50	-0.8277585915601069
221	0xbfd5e89c1e46eb3d	-0.34232237774601854
222	0xbff04f637dcb58cc	-1.0193819917526978
223	0x3fe2479271cac53a	0.5712368223668485
224	0xbfe9528c8947b208	-0.7913267785311868
225	0x3fef0a77042ce850	0.9700274545241516
226	0xbff55c82e64fd8c7	-1.3350857731398251
227	0x3fe98472618a2f0d	0.797417822368034
228	0xbff014b0ac505eb3	-1.005051301099155
229	0xbfe75d212a4d617b	-0.7301183534828363
230	0xbfe9b5e24532b11d	-0.803452620651601
231	0xbff535d00683770e	-1.3256378416476227
232	0xbffaa1b9a2b9481d	-1.664483676566767
233	0xbfd62ea28320712b	-0.34659636311859526
234	0xbffe1046d971371d	-1.8789738172376425
235	0xbfbd446a35555030	-0.11432517816621224
236	0x3fdbb494f2b626d7	0.4328968401174342
237	0xbff3a58149bb113f	-1.2279065017801967
238	0x3fccb115f0e56290	0.22415422689916342
239	0xbfea3e1f2a65f016	-0.8200832202996959
240	0x3fd4d62e2a18f33d	0.3255725298984549
241	0x3fee85355915c5fe	0.9537607898657254
242	0xbfd0661080287c45	-0.2562295199913403
243	0x3fcf6e7be56a1039	0.24555920316572769
244	0x40002ac6a7b3e15e	2.0208867170114635
245	0xbfe628cbcd85b030	-0.6924799932580807
246	0x3fd9439eab970539	0.3947521854098173
247	0xbff921b70e3e561f	-1.5707312160860807
248	0x3fd90a75fa73d9ab	0.39126347978835935
249	0xbfe46aa246f0a5cb	-0.6380168328807313
250	0xbfdc603ae4e759b9	-0.44337341646078304
251	0x3ffe93282d832994	1.910926988394384
252	0x3feac60a5aace3eb	0.836674859142588
253	0xbfe11d9960abc4f9	-0.5348631752114265
254	0xbfdce5d7f046991f	-0.45152853455000924
255	0xbfc7672ee4282904	-0.18283640041801885
