weights/init_z/52.npy (npy, 4224 bytes, 1 tensors)

array f8 [1, 512]
00000000: 78ff 4fcc 8b9f e03f e213 0233 cd4c f4bf
00000010: ce78 e85a 15c6 ce3f 155a 9eef 04ba e9bf
00000020: 5468 b4d2 a6c2 913f a08b 739f bf3d d93f
00000030: bfd7 9564 5377 f43f 0f69 fe74 8f1c e53f
00000040: 7ec0 8fd4 f524 ddbf d38e b731 df73 f73f
00000050: 15ba 660a b2cf dabf 36b6 f72d fd75 f73f
00000060: 2128 6e9a 87bf cb3f edac b62f 6d3f e03f
00000070: f2ad 0506 6823 ef3f 935e 5256 37d3 d6bf
00000080: b8fc 12a3 b539 e9bf dabd 4c4b 1bc5 cdbf
00000090: 27e6 65f1 ba1e ebbf 38e7 4fb1 d7f8 fbbf
000000a0: 570d 05e9 b8db e93f 1344 1db8 33d6 f33f
000000b0: b1f4 d79a baf0 e13f d846 5dd3 c15e e1bf
000000c0: ce89 5910 4efc debf 68d7 d8c7 031e f53f
000000d0: 611b 9b8c ee20 f73f 092f 3294 cc87 aa3f
000000e0: 8c66 2028 120f fa3f ac78 b449 8c6c d7bf
000000f0: 5ded 380c ebd2 98bf a957 744f 3973 eabf
00000100: 9fa8 c063 e9e2 f8bf e099 b19c 3eb8 d9bf
00000110: ffc7 7d39 0d7c e3bf d21e b80a afef b0bf
00000120: d3cf 4797 586f f23f 2688 0880 89e4 7dbf
00000130: 1ead 4c55 193a e63f 86be 4316 f848 d2bf
00000140: 8e5a 9f6d 216f e43f 5f1f a30b 4acd f13f
00000150: 8102 fb97 d825 d43f 8f8f 8513 4841 fc3f
00000160: 50ce 9c1b 3fe0 ed3f 737a db6c b1bb b0bf
00000170: f5b6 1929 6a20 e03f a4b9 da0c 2035 02c0
00000180: aa99 7fd9 6e68 e5bf c87a a399 4ef8 fb3f
00000190: a70c 99d0 bfd2 f23f 9a88 2788 71a7 fb3f
000001a0: 0413 1eb1 b3df ea3f 3940 b501 f8a3 b7bf
000001b0: 382f 147b 5179 c83f e57f ce1b e3d0 bb3f
000001c0: 62ed 3ab4 5fac d4bf eb36 d448 6381 e63f
000001d0: 5db3 56eb 958e d7bf 1bb6 30e2 964b c43f
000001e0: d04f 63ee 94ce e43f 0f33 9225 39d1 ebbf
000001f0: 3483 b54f 7f83 eabf 3f6e f542 c353 f03f
00000200: 6c89 28c3 dbf2 f1bf 7de1 4bb4 73d4 e1bf
00000210: e50a b425 35ce e73f 6bcf 3c35 95aa bbbf
00000220: 3687 b35d 9785 e1bf 5acb c2cc 51b2 fabf
00000230: b076 e77e 5c7f f23f 1281 5d13 1108 bdbf
00000240: cc97 3a9d 4479 90bf 266f 2045 6464 d63f
00000250: 1630 bc16 93d2 f73f 518b a6db 96c9 c83f
00000260: 162b 4e7c d11c d6bf e382 2298 79a5 d33f
00000270: fe1b da7d 8ebf f43f f9bd 3742 b2a0 f0bf
00000280: 2fb0 6d06 d4a1 c8bf 5268 1a7a 3d89 f5bf
00000290: ecd6 fa3f 48d6 b43f 0919 377b 308c fa3f
000002a0: 9344 a204 fca1 e8bf a2f2 5666 1407 9b3f
000002b0: bfc5 5f33 ebb0 e03f 32ae f008 9ad2 da3f
000002c0: b7e0 7b04 9fb4 f43f dbef 38f7 0112 dcbf
000002d0: 3ee4 52da 0f39 e4bf d5ba fba3 935b e7bf
000002e0: 3a6d 6a1a e55b c73f f861 b33d 7f4e d5bf
000002f0: 8777 714a 7192 c8bf a464 777e 6a91 ecbf
00000300: 8f10 1201 8bb8 0340 f857 a100 c5fe c03f
00000310: 0b91 baab fa41 c9bf 030e 531f 3752 0540
00000320: 59ea 3319 b672 dc3f 0dfc c562 40b8 dfbf
00000330: 46e6 68cd 35a3 e13f 7e6b 0b5f 8969 f13f
00000340: a4d2 5676 c3cc ca3f bd23 1ec2 107f f0bf
00000350: 9a30 57f5 c128 efbf 6cc9 123b 085d ecbf
00000360: 416c bcef a0e5 f83f 5d2e 3905 e660 f63f
00000370: 2ea1 d78b 9fa4 f3bf f152 6986 264c fdbf
00000380: 93e8 603a 6f44 f2bf 7324 f411 47e1 dbbf
00000390: db9d 9608 0639 adbf 73b1 bc01 c983 e0bf
000003a0: 28c2 392b 543f dfbf 47e9 0013 baa6 f03f
000003b0: 6fed 9234 622a d9bf e3a3 8b65 0bc3 ecbf
000003c0: fa61 215f e337 e03f 9d28 9746 7c87 bcbf
000003d0: e532 bcb9 7504 eebf 3f0a a8e7 148c fb3f
000003e0: 1bc1 fd5f bcb2 f13f 8865 753f 7663 f03f
000003f0: 2c64 b481 ab85 e5bf 18d3 f2d3 da9b eabf
00000400: 0bef 603b 71c5 ddbf 3c62 d9f1 2735 de3f
00000410: afcb 5989 165b dbbf 2aef de06 d05b d13f
00000420: 43d8 43a1 852d e4bf 2a27 1144 8024 f33f
00000430: a15a de91 2b8c cd3f bc26 48a4 8bf8 ef3f
00000440: 939c 09f2 2e79 a1bf e590 4777 128a e9bf
00000450: 7f42 90e4 2238 f8bf 5a5a 190d 0e32 bb3f
00000460: 9c6c 481d 42da b7bf cce9 f72b 8d94 e6bf
00000470: 41c4 6d32 0a10 df3f 64a2 1d72 49c7 e7bf
00000480: 440b 49a3 134a 8a3f 1d3a 0fa9 ed14 bb3f
00000490: 4ad6 26d7 3fe6 c73f 7499 b46a 95e1 e43f
000004a0: 9ef9 96b8 6379 fabf 6d10 338d 0ca7 f6bf
000004b0: de75 cb3d 3518 d6bf 76b6 4627 5057 e43f
000004c0: aabe 9085 3137 adbf 4dfe 5c1e fbca 04c0
000004d0: 1a95 f51d 92ca e2bf 4a2d 60de 418d 9bbf
000004e0: d3e6 5224 a8d4 ddbf 2ac1 34f7 1cdc c23f
000004f0: 9b34 66fb 456a 0040 ab71 cb15 7a61 00c0
00000500: 1437 5638 1485 f0bf 0a6b ca7f 27a1 ebbf
00000510: 1231 c820 a9ab dbbf c0c2 86d9 3c8d 9f3f
00000520: d0e1 8ccb 5ed7 db3f 3ca7 4f56 791c d5bf
00000530: 6b3a 35ac 2d62 e03f d364 0ee0 6d35 e3bf
00000540: 3c31 eea3 138d febf 515e df33 061b fe3f
00000550: 0dd5 237b 45b7 fd3f f881 8fd2 337b db3f
00000560: 1a20 7ecb 21bc d23f 7911 bb92 0728 eabf
00000570: a74c 23ad 5283 f1bf e319 0167 ffa5 d2bf
00000580: 9b86 75cf 1e3c c53f cce6 7819 34ef efbf
00000590: feaa 0110 dfb9 d1bf c376 4f29 dbe6 b13f
000005a0: 2f90 c780 8666 ad3f c1e6 804c 3dfd f53f
000005b0: 3a63 aba5 3a86 cebf 1df7 0c92 56ec f33f
000005c0: 3bf5 4b5d e252 f23f 7600 9d57 df00 fa3f
000005d0: 5472 92cf 4d79 e43f e056 c6d7 caef cdbf
000005e0: c42e b320 73a0 01c0 921e 2776 0010 febf
000005f0: ea92 98f1 9034 d4bf 932a e33e 52de e33f
00000600: 4031 c069 7ecc e13f 0d8c d81f a08e ecbf
00000610: d448 1f1e ff73 f4bf e2a7 c08a de2e fa3f
00000620: fa5c d72c 777a d7bf e37a 46ff a283 efbf
00000630: 53e0 ac91 4226 fdbf 9af2 2794 6f09 e53f
00000640: d085 ddc5 73c0 f03f 541e 2719 3d67 ef3f
00000650: 3b1a 3bd8 a792 fd3f a4cf ea49 2e11 f3bf
00000660: 0958 5799 2e10 f33f 9156 9d77 273b f63f
00000670: 9ad5 7250 3686 df3f 4f35 a794 a813 e43f
00000680: 90ee 940e bdd0 d13f 4638 69e5 e8a2 ee3f
00000690: 4e49 64a5 94fe ddbf 4f10 0a97 4cfc eabf
000006a0: 81b0 04de ce3c e73f 2f84 d27c 6c7e f2bf
000006b0: b838 7796 7fa0 e7bf 3f67 dc54 927d c53f
000006c0: 6a9a 94de 3ed1 d1bf 8fa4 22d3 e1a5 f7bf
000006d0: 088b 188e ba72 e7bf 424a cddb 6168 c1bf
000006e0: 15cf cd12 a540 eebf 033f 04b2 b19a f4bf
000006f0: 3dde 6406 749d eabf 352c 1887 9673 f9bf
00000700: 511c 8900 556a e53f 3a98 97d4 e51b eabf
00000710: c9d9 fb83 5e82 f03f 33d2 10fc 2dd3 f2bf
00000720: 39eb 7b7a b89b e2bf 239e 734d 0280 f8bf
00000730: aaf5 fb0d 777f fa3f f1c6 4137 fe1e f13f
00000740: dd87 78fa 050f f53f 0bf3 e124 e7a0 f43f
00000750: b560 ee49 6921 debf ce44 f837 b5aa e8bf
00000760: 786d e6f5 2024 e13f 8903 6707 8d84 ffbf
00000770: beb7 1c53 5289 a83f d045 d81c e825 f23f
00000780: c487 b065 0312 d93f 22d7 9efe 7b01 ecbf
00000790: 17e4 a6f4 c377 e7bf b5ff bda7 205a d73f
000007a0: d9b7 50f0 eb96 c33f 5476 bfc8 bfb9 fdbf
000007b0: 5183 5923 3623 e63f 7fcb c186 b451 eebf
000007c0: a6d7 30f1 c4bd f43f a05f 8a54 e76c 00c0
000007d0: ba18 9fee 2622 ea3f 2ae1 2d49 92bc ddbf
000007e0: 1be9 2232 9f4b e53f 6f26 abed 7a7c f53f
000007f0: 9ad2 4fbb 367f 893f a78f ce3a bb2a 873f
0.5194758406141622 -1.2687503807549025 0.24042002619621033 -0.8039574317979851 0.017344099626918144 0.3943938309804995 1.2791322640527907 0.6597363743815395
-0.45538087614023215 1.4657890264579023 -0.41892672553777405 1.4663059039697948 0.21678252258817657 0.5077424938112053 0.9730720632191476 -0.35664161138400025
-0.788294619087444 -0.2325777166056316 -0.8475012507253198 -1.7482525755171547 0.8080715705076881 1.2397954170194267 0.5606358551300642 -0.5428170326433372
-0.48414947125106955 1.3198278242611767 1.4455399982850496 0.05181731518777439 1.6286794249957977 -0.3660002441191732 -0.024242088910097482 -0.8265654136509869
-1.555398358973015 -0.4018703966343349 -0.6088930247190091 -0.06615728389453615 1.1521840962786782 -0.007298028097041642 0.6945921579366858 -0.2857036797931659
0.638565744501493 1.1126194433763528 0.31480994073721297 1.765937877899862 0.933623842173299 -0.06536396892213663 0.5039568712943195 -2.275940037178957
-0.6689981697098137 1.7481218339450368 1.176452460131978 1.728379756787524 0.839807363445829 -0.09234571496676915 0.19120234021863225 0.10865611485360167
-0.32302086449245426 0.7032944128456767 -0.36807773573200625 0.15855680508086398 0.6502175003065478 -0.8692899450121291 -0.8285519177262359 1.020449887807345
-1.1217916129467893 -0.5571840783514258 0.7439218269722373 -0.10807163762802723 -0.5475575285056269 -1.6685350416634805 1.156094070166926 -0.11340433810028497
-0.016087600800027066 0.34987742186216264 1.4889098060693917 0.19365201687932168 -0.3455089296264061 0.3069747911159039 1.2967667499631257 -1.039232500708634
-0.1924386054409992 -1.346005894627997 0.08139468729026661 1.6592259228796726 -0.7697734919076019 0.026394194361034302 0.5215965274239166 0.4191041075998526
1.294096963420129 -0.4385991014748904 -0.6319655670296311 -0.7299287989424906 0.18249191083746458 -0.3329160788103134 -0.1919690717212996 -0.8927509756132577
2.465108879436293 0.13277494936727385 -0.19732602486795545 2.665144200060014 0.44450142346582805 -0.4956208195289385 0.5511731159123847 1.0882657730751073
0.20937388685492409 -1.0310218413089693 -0.9737252990539844 -0.8863564637925214 1.55606168410192 1.3986568645513195 -1.2276912176694839 -1.8310914278455892
-1.1417076378261626 -0.4356248545960348 -0.05707568030203066 -0.5160870584418674 -0.48824028226138916 1.0407047979666275 -0.3932118905465449 -0.8988091452894164
0.5068222864165925 -0.11144234393501269 -0.9380444171561889 1.7216996239736913 1.106136679616674 1.0242826918459702 -0.6725671323102964 -0.8315252437228962
-0.46517592238136335 0.47199438684541284 -0.4274345723453576 0.2712287966821686 -0.6305568837840457 1.196411386381849 0.23084015486229695 0.9990900238637646
-0.034127680821989824 -0.7981045083693316 -1.5137051513922015 0.10623252696800858 -0.09317410674013832 -0.7056337221868545 0.48535399365124837 -0.743077013857214
0.012836602612087973 0.10578809144428943 0.18671415334181268 0.6525370678034919 -1.6546361170327155 -1.4157834544758103 -0.3452275374855541 0.63565833731782
-0.057061717562075856 -2.599111783230717 -0.5872278771536543 -0.026906041333899545 -0.4661045412754962 0.14734232016190535 2.051891292625965 -2.047596140166396
-1.0324899864821804 -0.8634221549903895 -0.43235233498923364 0.03081221654582822 0.4350201595111942 -0.3298629134065896 0.5119846690593709 -0.6002721191499866
-1.9094425586254848 1.881597712161142 1.8572439966349663 0.4293946796661028 0.2927326667054345 -0.8173864236673999 -1.0945612681578412 -0.29138169344915194
0.16589722757185119 -0.9979496476655298 -0.27696968615661877 0.06992883451990921 0.05742283174529949 1.3743260372561255 -0.2384713467534086 1.2451997475722643
1.145235409202839 1.6252129957574915 0.6398076109067667 -0.23388038192631821 -2.203344588726255 -1.8789066901535176 -0.31570838540419166 0.6208888271588243
0.5562126222080579 -0.8924103376378995 -1.2783194710396417 1.6364427013418141 -0.3668497026350931 -0.9848189340444516 -1.8218408289376569 0.6574018376992001
1.0469854096521551 0.9813523761049034 1.8483046003835983 -1.1916945350066976 1.1914506902589912 1.3894419357724568 0.4925666604643425 0.6273997214681603
0.2783653871917773 0.9573864441570172 -0.46866336967027145 -0.8432982397066641 0.7261728607459333 -1.1558651805755848 -0.7383420885833152 0.16789464133835882
-0.2783963369023811 -1.4779985663865636 -0.7327549720106115 -0.1359979937793288 -0.9453912131561731 -1.2877671197674665 -0.8317203640826346 -1.59071972628841
0.6692299852810583 -0.8159054901304963 1.0318284183136817 -1.1765575262371726 -0.5815088646189458 -1.531252195878445 1.6561193987139213 1.0700666578745166
1.3161678108231094 1.289282936165537 -0.47078926296081686 -0.770838364902511 0.5356602480637056 -1.9698610581546936 0.04792268051674807 1.1342545630217167
0.39172444277403096 -0.8751811955505426 -0.7333698061330577 0.364875949679113 0.15304326280732886 -1.8578489152636353 0.6917982759879157 -0.9474737770054701
1.2963303967967277 -2.0531756024101497 0.8166689549041373 -0.4646344866410056 0.6654811839319196 1.3428906711509645 0.012449672309210503 0.0113119723626552
