weights/init_z/53.npy (npy, 4224 bytes, 1 tensors)

array f8 [1, 512]
0.20586486685062783 1.1667617091780862 -2.0726397785743558 -0.6326871730763305 0.9971264492180534 2.39455379509657 -0.5412336726748266 0.7527054205032851
-2.150351794064295 -0.30544053619982364 -0.40189598922744385 -0.6120326412931166 -0.1234088002875555 -0.5281203973178844 0.9111505251736917 -2.0618887099095344
1.7340924668606625 -1.0561806497710409 1.8060242087201706 1.8394254834515629 2.398079318669537 0.5429024677797897 -0.22763787012000222 -0.2724055240158808
1.098870763844188 -0.1785113754096258 -0.22374020977068243 0.327669236160309 -2.0433479021488767 -2.340458311639624 0.4396794198130824 -0.06947426516565518
0.5443525336637083 0.865733729183922 -0.8167764889571574 -0.45558100364886933 0.82200787113062 -0.9902532437374248 0.635190193664743 -0.40241627018469744
-0.7333937420529703 -0.7020017234181755 -0.00421450487025174 -0.48306822372655833 -0.8688008523245069 1.2980852957158588 0.7339362234937342 -0.5672264134589886
0.4465367017148595 0.7995924979390764 -0.1483739696592625 -0.617010876813184 -1.2287179852830203 0.1246515165561433 -0.6231477433184842 0.38952159668177927
-0.40565934812691307 -0.12361026728798288 1.3788764099428863 0.8093046811936989 0.8831899026365644 0.5036222273308388 0.4042991026015521 1.8020088274863377
0.8024614184100722 0.27212514460448045 0.3323946610352144 0.9051661066070253 0.17096102392078094 -0.4060432682479048 1.8417150851600066 -0.19503816202958638
0.6782591889620267 -0.9721696369615442 0.3034353316758559 0.6725940006075374 0.18196154342389337 -1.372524124128927 0.20910056572041968 1.0127661065386175
0.6453651953916714 -1.9143520257675448 0.5232587183874701 -0.9897324668821832 -0.05886782284217964 1.1018529916623874 0.47236448149883425 -0.14750883184236138
-0.9691715418499716 1.072331746520396 0.6187733674292912 -1.5410078986004982 0.5025590572793277 -1.58823842724949 -2.2030299525800703 0.6465855272972612
0.4181623199256167 -0.2428452586695789 -1.1020002722730986 -0.5652375717656407 0.022622705515961666 0.247646499392331 1.814733239980482 1.4140505611483278
-0.4097111712331566 0.14611242638494948 0.5570523828512371 1.5585895097773055 -0.7838189711841758 0.16986484265658833 1.2744733807426585 0.25265874637062
-2.0839891336416834 -0.6848301802893865 2.1439797544097488 -1.2550620384534334 0.6216945666805157 0.20982778564295654 0.45068705428682165 1.4526293628138656
1.538823310044109 1.0273299499773154 2.2207950851180294 0.261038982679675 0.6861352233526605 0.4332899424693959 -1.7233149083331947 1.9496720336428541
-2.4375777611859646 -0.16966544518871585 -0.9911530409064252 1.215118799169495 0.1465807709692959 0.6950730596228449 -0.23913857972106242 -1.9050484149284745
0.8256373114430346 -1.3047992782512168 -1.6139495496497498 -0.10694735373566532 1.777410235253684 -0.1140878841264812 -0.2848094034582116 -0.4505491538486359
0.39968720821090564 -1.3471342234819959 0.26113878321417117 -0.8753584463432618 -0.6838086299711357 0.28062327954639316 0.9399014709859703 0.39342552374505524
-0.8699327778965513 0.054933245603677766 -1.2258129384232648 -0.8353626320461108 0.9639228675876572 -0.1607391934109024 -1.4642597156188573 1.1016734269080386
0.4950403201941628 -0.07782749389051717 -0.5074726628121968 0.2527392847435377 0.33545044986521233 -0.11680623020320828 0.4915862584041378 0.31373475658366756
1.5349639350398723 -0.8488743950659146 1.595188377892789 -1.9761716235642948 1.507761812912136 -0.7536015331455389 0.22281690911852506 0.19051054346424603
1.7710464788285252 0.5632711094857312 -0.0660812404858736 -0.011889782032364 0.48577338790782226 0.19743462204228224 0.531431088375856 0.327611802076337
-0.7437764724851653 -1.71671412293093 0.5475071778870271 -0.7844940928963792 0.17477419500690602 -0.3736948857985192 0.9516068620013003 -1.3663285776125602
-1.1846706742924904 -0.9675059046808772 0.10692392440983613 -0.6715069097755045 0.43380671812149174 0.6920531593968652 -1.8464093468305038 -2.189228847120561
-0.8176321892354641 -0.2691379018902979 0.4330843558234642 1.2819331025257905 0.33377663019818493 0.5861894101388784 0.4672462496554905 1.4229590513096557
-0.4224972787691291 0.9943137276928983 2.1626024342241075 0.7817372837840152 1.005834614687392 -2.0563529915699577 -0.02891468593164463 -0.5526115549217169
-1.3577060275238726 0.22257658090246474 -0.23373829218639727 -0.48406283514536935 -1.3224075498420182 0.02365671416576754 0.3962356834276183 0.1340330796576992
1.5365257702290809 -0.01053722801619098 -0.15058082514745696 -0.747658800524696 -0.6991291978132357 -1.7057723268778997 -0.4308673148979593 -1.060485857719275
-0.23258280074687032 -1.845330285820946 -1.1442717575815382 0.3818622258396343 -0.06150595679566654 0.4509921686313556 -1.2723975150885185 -1.8427914599083133
-0.8942905822106355 -0.0305801058416507 0.4366535209722726 0.8072316504766418 1.712881766866695 1.1386238339416621 -0.8242880493397602 -0.3947939912630792
-0.6366834631653644 0.5076257349450971 0.6007808383653407 -0.9609143291921363 1.1768310662553458 0.12379488612381495 -0.4906169561016764 -0.928161097471806
00000000: 6269 42ab c759 ca3f b051 7253 0eab f23f
00000010: a0ec 0a2a c494 00c0 ddc4 9e2b f93e e4bf
00000020: d6c7 2bba 75e8 ef3f a09e f3d1 0b28 0340
00000030: 343c 7447 c951 e1bf 57ac 92ad 2916 e83f
00000040: 6635 33a4 eb33 01c0 e975 7676 568c d3bf
00000050: 3407 88f4 a9b8 d9bf a907 4e7a c595 e3bf
00000060: af0d 4619 b897 bfbf 3d96 5abf 5ce6 e0bf
00000070: db55 6b25 2528 ed3f b66c 0882 bf7e 00c0
00000080: 1081 16be d7be fb3f 54f4 56ae 1de6 f0bf
00000090: 6fcc 03a4 79e5 fc3f bda7 6d6a 496e fd3f
000000a0: 6e32 b735 442f 0340 3f05 01ff 745f e13f
000000b0: 7b8d bfdb 3c23 cdbf 0678 3994 176f d1bf
000000c0: 79dc 9382 f994 f13f cc95 acf3 75d9 c6bf
000000d0: 10f4 e1e9 84a3 ccbf 5baf 4d63 88f8 d43f
000000e0: 17a3 f0c8 c658 00c0 0326 1135 42b9 02c0
000000f0: 8792 3426 b523 dc3f bbd4 ccc0 10c9 b1bf
00000100: 5c92 3201 566b e13f 3a73 bc38 17b4 eb3f
00000110: 68ce 8672 0823 eabf b272 d639 3d28 ddbf
00000120: 66f0 7173 e34d ea3f 6786 1392 27b0 efbf
00000130: 94f5 9062 7a53 e43f b194 f42b 30c1 d9bf
00000140: 95ac 2627 f677 e7bf 6a22 7a51 cc76 e6bf
00000150: e090 6289 3a43 71bf be1c a9fb 96ea debf
00000160: d50f ef71 37cd ebbf 264a 4816 f5c4 f43f
00000170: b52b a8d1 677c e73f b87a e701 b826 e2bf
00000180: ce0e 95ac 0e94 dc3f 19cf 9801 4396 e93f
00000190: 3fd2 a111 ebfd c2bf 8d0b 2698 8dbe e3bf
000001a0: e5c2 ac30 d4a8 f3bf 6364 016b 29e9 bf3f
000001b0: 8621 4489 d3f0 e3bf 575f b5fd ebed d83f
000001c0: b064 61a0 52f6 d9bf f2a2 7327 eca4 bfbf
000001d0: aee3 deb5 e00f f63f a940 47ee d2e5 e93f
000001e0: 3068 7f78 1743 ec3f 9296 7d5c ac1d e03f
000001f0: c073 de57 09e0 d93f 9783 5235 07d5 fc3f
00000200: e2ef 8b91 c3ad e93f 82b6 1f95 7f6a d13f
00000210: 58b8 a041 f445 d53f f464 2ae9 1ef7 ec3f
00000220: dcb1 5003 0de2 c53f 6aaf 78e7 9cfc d9bf
00000230: 4bfe b43c aa77 fd3f 7dcb b1af 02f7 c8bf
00000240: 5db5 599d 4cb4 e53f b23f 9d7f 031c efbf
00000250: eeea 7f06 7c6b d33f b10b 83da e385 e53f
00000260: b451 110f 844a c73f 34ad 21db dbf5 f5bf
00000270: 1012 acad cec3 ca3f 324a a13b 4a34 f03f
00000280: 55e2 05e9 d4a6 e43f 4d3f fb96 2fa1 febf
00000290: 1b46 5a11 89be e03f 548c 216c e3ab efbf
000002a0: 13ab c95b ec23 aebf 1209 439a 30a1 f13f
000002b0: 5e16 f53b 383b de3f 5f2a 51c4 91e1 c2bf
000002c0: 6ab4 8e09 7403 efbf 5948 5c55 4528 f13f
000002d0: bed3 17ce fdcc e33f 83de f5e5 f7a7 f8bf
000002e0: 8058 6abb f614 e03f b297 74b2 6c69 f9bf
000002f0: c784 f32a ce9f 01c0 7ae0 b921 d4b0 e43f
00000300: 3600 20e4 2bc3 da3f 7abc fcad 8d15 cfbf
00000310: 7089 9909 cba1 f1bf 2f86 a61a 6d16 e2bf
00000320: 5b35 5a11 682a 973f edf1 ed67 e1b2 cf3f
00000330: 78e2 cab8 2509 fd3f 3a5c 307b f39f f63f
00000340: 1625 5034 b538 dabf 8c68 6ede cfb3 c23f
00000350: 6d28 d084 5fd3 e13f 7d1d c68d fbef f83f
00000360: 870d e785 0b15 e9bf 39a1 f993 21be c53f
00000370: ad98 1e33 3e64 f43f 7473 2d97 8f2b d03f
00000380: e8ae b17e 02ac 00c0 ad03 75fb 20ea e5bf
00000390: d0ce 83db de26 0140 cabc 99ee bb14 f4bf
000003a0: 71cc ff00 ece4 e33f db75 900a a3db ca3f
000003b0: 521e b983 0ed8 dc3f feea 6749 f83d f73f
000003c0: 0364 ef30 059f f83f 84a9 9587 f16f f03f
000003d0: 8598 ad36 30c4 0140 b7c7 65d9 dcb4 d03f
000003e0: dcdd 1ddb d1f4 e53f acdf 25bd 05bb db3f
000003f0: 4401 40a7 b292 fbbf fbbf 664d db31 ff3f
00000400: 4301 eec4 2880 03c0 7064 2ce9 98b7 c5bf
00000410: fdc4 0095 86b7 efbf 1e01 f368 2071 f33f
00000420: 488e c4a0 28c3 c23f 1625 6ddb 093e e63f
00000430: b392 8ecd 179c cebf 88a1 f60b 147b febf
00000440: 9a2a 60f0 9e6b ea3f 20ef 3e35 75e0 f4bf
00000450: d13b 52c3 bcd2 f9bf af3c b0da e660 bbbf
00000460: 05d8 ffb6 4570 fc3f 516d 3113 dd34 bdbf
00000470: fc8f 5c38 513a d2bf a44d 411e ccd5 dcbf
00000480: f24d f9a7 7994 d93f 27d7 929d dc8d f5bf
00000490: 78d0 6771 7fb6 d03f 344b 6ab7 ef02 ecbf
000004a0: e05a cea2 c2e1 e5bf 3b79 0958 bbf5 d13f
000004b0: ea1a eb3f ac13 ee3f 4463 793f e22d d93f
000004c0: 8217 d943 7dd6 ebbf e46f a9da 3520 ac3f
000004d0: 54aa 1807 ee9c f3bf 6b08 1e6a 4abb eabf
000004e0: 12fa 04c5 74d8 ee3f b14f 7115 1a93 c4bf
000004f0: 9aee 7698 9b6d f7bf 8c13 b750 74a0 f13f
00000500: eadb 5b98 bdae df3f 0b4a fdac 80ec b3bf
00000510: b68e 4c4f 373d e0bf c8d3 9864 e12c d03f
00000520: 6e5f e629 0578 d53f 931b b15a 03e7 bdbf
00000530: cd8f c035 2676 df3f ca4d c9f1 3a14 d43f
00000540: 4f92 d857 368f f83f 5009 a7a2 fa29 ebbf
00000550: 1e24 a03f e485 f93f b2de e722 669e ffbf
00000560: 3fd8 c9d9 ca1f f83f e76a 62f6 801d e8bf
00000570: 9976 d4b4 4385 cc3f 896e dc44 a662 c83f
00000580: 473b 24d5 3456 fc3f 32bb 4022 5106 e23f
00000590: 8814 c43e b3ea b0bf 7773 e287 ab59 88bf
000005a0: af32 9543 e916 df3f 4886 62a6 8945 c93f
000005b0: 14dd 14c5 7b01 e13f 40e5 ec7d 97f7 d43f
000005c0: f974 1b51 04cd e7bf 5c1d 693a a977 fbbf
000005d0: 7e33 ebc5 2d85 e13f f1a4 1c5b 931a e9bf
000005e0: 43a4 de35 005f c63f 5df9 4bf4 9dea d7bf
000005f0: 8e3b de3b 9073 ee3f 72fa c65a 7bdc f5bf
00000600: 3edd a93c 69f4 f2bf 0252 69f1 cef5 eebf
00000610: 910e 80c6 5d5f bb3f 17c3 100f fc7c e5bf
00000620: 407b c740 7dc3 db3f 117f d6aa 4c25 e63f
00000630: daa6 fa86 e48a fdbf a2bd ee69 8a83 01c0
00000640: de8a 1dfb 0a2a eabf 9be7 ae2d 8e39 d1bf
00000650: c3f1 2a72 a7b7 db3f 1e21 f048 cc82 f43f
00000660: d6b2 b7a7 985c d53f 3fdb 394b 10c2 e23f
00000670: 23bc 5cd0 5ce7 dd3f 28c1 ceb5 70c4 f63f
00000680: 0a98 bd06 320a dbbf 83f4 cc05 6bd1 ef3f
00000690: b5f0 4981 024d 0140 a551 7de8 fd03 e93f
000006a0: 1546 7409 e617 f03f 0d99 7e32 6973 00c0
000006b0: 6b56 cdb9 cf9b 9dbf b5f9 786d feae e1bf
000006c0: f5c0 9cf4 29b9 f5bf 5a71 eaaf 637d cc3f
000006d0: 57b9 61e8 22eb cdbf 3d23 8aaf e2fa debf
000006e0: 1ce1 a8d1 9428 f5bf 42f0 b036 7739 983f
000006f0: ee1b 75e9 ec5b d93f 3122 dbf6 fe27 c13f
00000700: 9585 c90b 9c95 f83f d3a1 c2cd 8a94 85bf
00000710: e8dd b483 3b46 c3bf ba3e 1a26 d2ec e7bf
00000720: 842b 0932 445f e6bf 65cc 65ec d74a fbbf
00000730: 7fbb 9980 5493 dbbf 9065 cc04 c0f7 f0bf
00000740: 3cf2 68f1 45c5 cdbf 6fb5 be0c 7986 fdbf
00000750: 4ec9 08e7 ef4e f2bf 95c6 e342 6e70 d83f
00000760: b5a5 e471 b57d afbf c485 c141 0edd dc3f
00000770: d511 2d7f bd5b f4bf 0478 dae5 127c fdbf
00000780: 34e5 7648 079e ecbf 1b10 fe29 6450 9fbf
00000790: 1896 109c 21f2 db3f 25fc 6278 d7d4 e93f
000007a0: e4b6 29b6 f667 fb3f f39b 13a0 cd37 f23f
000007b0: a2bb cc54 9160 eabf 8976 4804 4e44 d9bf
000007c0: 5860 86ff b55f e4bf 1b4f 4653 783e e03f
000007d0: 95f6 9abc 9839 e33f 866a 4468 cfbf eebf
000007e0: 7fbc e7cf 4cd4 f23f 2057 508b 05b1 bf3f
000007f0: 1377 54a9 4466 dfbf b0f2 e1e6 7eb3 edbf
