weights/init_z/56.npy (npy, 4224 bytes, 1 tensors)

array f8 [1, 512]
000000 e5 37 fb ba 2f 9a f0 bf 43 c7 3f 64 3f ff e2 3f
       -1.0376431755025746 0.5936581571570304
000010 7f 58 a2 6f 94 a4 f1 3f 42 6f a4 8d c2 63 e0 bf
       1.102680622168492 -0.5121777311755766
000020 b3 01 47 94 a3 fc d0 bf e1 38 97 b2 41 df f9 bf
       -0.26541985969745524 -1.617006013507812
000030 2b b9 35 4e 7e 60 d1 bf 5d 5a 8f fc fa 41 ee 3f
       -0.2715144885795719 0.9455542500316586
000040 04 8a 34 2d 53 10 e4 bf 21 14 9a bf 47 05 d1 bf
       -0.626992786685435 -0.26594728194351275
000050 bf 06 86 18 4f fe e5 3f 34 eb 2e 60 3d 63 00 40
       0.6872935751891517 2.0484569086378546
000060 9e b6 cd 8e 2e 8a dd bf 2f af 64 99 d8 02 e6 3f
       -0.46155895181332507 0.6878474231684545
000070 ae 69 e4 2f 45 21 f0 3f 76 ed b1 7e 7c 08 c4 bf
       1.00812262256532 -0.15650898157387488
000080 51 5d 9a 64 6f cd ec 3f 0c e6 92 37 ee 01 f0 3f
       0.9000775303747252 1.0004713221409274
000090 80 b8 b4 ec 2a 07 e6 3f 8f 48 74 de f7 18 fe bf
       0.6883749602473159 -1.8810957612627452
0000a0 ed 17 b3 f3 c6 84 eb 3f df 5d 69 2c 59 74 ed 3f
       0.8599581489331719 0.9204526774801102
0000b0 f8 79 71 47 90 51 d1 3f e4 9d 5b fe 9e 7c 9c 3f
       0.2706032464683683 0.02781914164998324
0000c0 be 95 25 eb 80 7f 01 c0 44 e7 8c b6 48 3f c1 3f
       -2.1872576113553057 0.1347437754973787
0000d0 26 52 32 12 7c ce e5 bf 3e 83 93 90 0e 61 03 c0
       -0.6814556460763626 -2.422391061307649
0000e0 fb 82 84 c0 82 f4 da 3f 58 96 fd b4 b9 ac e5 bf
       0.4211737518362921 -0.6773346457454847
0000f0 53 ca be 7a 51 3e f2 bf 51 6b 5c dd 25 37 d2 3f
       -1.14021442363141 0.28461596123968486
000100 be 87 53 a4 0a 5a e1 bf c9 eb 0d 88 4d aa dd 3f
       -0.542241402578149 0.4635194615036054
000110 fb 75 a9 d4 f2 92 eb bf 90 87 be 12 40 fc eb 3f
       -0.8616880563310468 0.8745422712420226
000120 2d f2 d7 e3 90 6a e1 bf 34 bf ea 22 86 ad d7 3f
       -0.5442585420674441 0.36996606263982135
000130 e2 11 08 bb 13 d6 db bf 8b 50 e8 62 10 c3 f1 3f
       -0.43494122757718234 1.1101230491231344
000140 33 2c b1 82 28 c8 f5 bf 19 9d 46 19 83 58 c1 bf
       -1.3613667588385965 -0.13551367506190884
000150 30 c2 10 76 2a aa e1 bf 3a ca ae 00 e5 5b a9 bf
       -0.5520222001997066 -0.0495292247136558
000160 aa 9a 0c 3a d3 64 ec 3f 73 2a b1 d7 6e 79 f2 3f
       0.8873077520155068 1.1546467233153208
000170 b3 36 1f 32 e7 a2 bd 3f 9a 9d cb 56 96 95 f2 bf
       0.11576695417098896 -1.161520327610424
000180 82 cd 97 98 01 a2 c7 bf d9 3b d0 27 11 e3 dd 3f
       -0.18463153792218284 0.4669840706637252
000190 17 1c b3 b3 04 02 00 c0 e1 a4 65 2c 6b 90 f5 bf
       -2.000985530761237 -1.3477584585437443
0001a0 cf 51 67 16 8b 3d cc bf 6c 2a 48 ee 23 37 b4 bf
       -0.22062815278935807 -0.07896637504033216
0001b0 24 bc 5f 02 7c 73 e3 bf 08 91 88 a5 86 ee f3 bf
       -0.6078472181669707 -1.2457338777686022
0001c0 7b b0 df 34 a3 13 fa 3f 32 92 ef 8e 41 b9 c6 3f
       1.6297943177587786 0.17752856711662585
0001d0 2b 2e f4 fe e9 80 e5 bf cc 4a e1 13 34 31 d5 3f
       -0.6719865779463751 0.33112813893710036
0001e0 8c 94 78 27 60 0c 00 40 55 1f 18 7e 55 2b 79 3f
       2.0060427745507408 0.006144842105193356
0001f0 0d a9 8e bd 17 8e f8 bf d2 95 35 4e 76 d5 b1 bf
       -1.5346906094151251 -0.06966342362792169
000200 c0 6a 7c e0 df 24 cd 3f f8 f1 53 cd d6 19 04 c0
       0.22768782101851137 -2.512616733669571
000210 e2 00 fd bb 27 9f 05 40 d3 74 95 fb 43 ad e2 3f
       2.702712505968621 0.5836505807634701
000220 f5 d3 ab a4 99 ae d5 3f 18 1d 6d ae 4c 0c e6 3f
       0.33878174859211124 0.6890014082681857
000230 c7 40 0e d0 a0 34 fb 3f c4 d6 d3 f5 b8 3d dc bf
       1.700348675458416 -0.441267242494501
000240 52 af c5 9a aa 20 d4 3f 1b 79 14 c2 8c 5c e4 3f
       0.31449380030129703 0.6362975874542686
000250 1a b5 11 27 a6 36 b6 3f d5 bf 4f 9f 97 27 be bf
       0.08677137807690763 -0.11779163016740253
000260 97 9f 34 43 fa 69 f4 bf 38 c6 1c 14 25 04 ed 3f
       -1.2758734345643228 0.906755961687117
000270 9a 4d 96 90 1d d5 78 3f 28 b9 d7 d9 6e 44 eb bf
       0.006062617766832723 -0.8521036391009931
000280 45 db 40 95 3d f9 df 3f 61 c5 15 7d 77 34 f8 bf
       0.49958743644258546 -1.5128092657217496
000290 de 79 02 87 c9 08 00 40 0c 59 fd 66 26 24 f4 3f
       2.0042906329756383 1.2588256857903302
0002a0 4f d9 b7 6f 79 a4 f0 3f c1 51 86 0a 76 d2 f0 3f
       1.0401548732748613 1.0513821040268427
0002b0 12 b7 a5 4d 1a 17 ef 3f ad a8 41 ad db 61 f9 bf
       0.971570159583026 -1.5863911407309772
0002c0 6b 25 00 bf af 56 e0 bf c0 2c 87 da 8b 20 ec bf
       -0.5105818491439725 -0.8789729374051589
0002d0 67 f3 6e 19 17 2b f2 bf c1 40 9e 83 f5 ce df 3f
       -1.1355200761310813 0.497006777318358
0002e0 e4 14 d1 98 e2 29 f8 3f e3 13 cf 63 a6 76 ed 3f
       1.510225865307171 0.9207336377518199
0002f0 d0 76 85 2e 10 76 e4 3f c4 45 bb 56 ff 78 f3 3f
       0.6394120129222873 1.2170403850508231
000300 a8 9a 2e 2d 4f df c3 3f 65 21 93 ca ca e6 82 3f
       0.15525235849527985 0.009229263598528001
000310 1d 79 63 b6 f8 5b c6 bf f8 73 47 1e ef ec d7 3f
       -0.1746817484444784 0.373836307115027
000320 8b 78 b5 5b 83 27 f5 3f ad 13 d0 7c 82 bb f1 3f
       1.322146757352615 1.1082787395000466
000330 72 c2 4b 46 4e bb d2 bf bf 1c 75 d7 10 d7 ee 3f
       -0.2926822363361118 0.9637531479028424
000340 d8 d0 b4 71 20 d5 ee 3f 35 c0 04 a9 a0 93 ce 3f
       0.9635164471460724 0.23888023617610235
000350 58 56 70 53 c2 f3 fe 3f eb e3 97 9a 66 7f df 3f
       1.9345114955262002 0.49215092751506856
000360 a8 52 c9 33 9d 95 f4 bf 8e 4e e3 e4 38 bd ee bf
       -1.2865268729121144 -0.9605984182803284
000370 3d 4f d1 4e 1e 73 ef 3f 8b 15 8c ac 24 a9 d7 bf
       0.982802537861495 -0.36969868517220367
000380 e3 f2 9d 15 b1 61 f8 3f e5 20 c2 0c 09 25 dc bf
       1.5238505215085574 -0.43976045843056816
000390 96 31 f7 29 d0 18 d0 bf 5a dc 66 df 4f 7e d2 3f
       -0.2515144738979641 0.2889594728143884
0003a0 1a 55 27 b5 51 c3 df bf f1 0a ba ec bc 3b e9 bf
       -0.49629633608613377 -0.7885422347611365
0003b0 04 b3 4c 4f c6 2a 95 bf b3 61 2d f7 bc 4d 96 bf
       -0.02067098483091724 -0.021780922495368404
0003c0 f3 85 c9 28 f7 ed ed 3f 30 23 71 2f ed 93 e2 bf
       0.9352985188126567 -0.5805574347114995
0003d0 64 8c a4 5a fe 9b e9 bf 41 9a aa 0a 47 9f d0 bf
       -0.8002921839109942 -0.25972152749674043
0003e0 c6 6e 67 3d 70 b3 e3 bf 41 ab 67 d1 47 cd f5 bf
       -0.6156541060731449 -1.3626173190957191
0003f0 ab 24 e5 37 eb f2 e9 bf d8 52 ec 10 b8 5b f1 bf
       -0.8109031764698974 -1.0848923359928246
000400 c4 b1 aa 92 d1 91 00 c0 7c 08 cd 8e 55 b3 dd 3f
       -2.0712005098668858 0.46407069154168545
000410 37 7b 82 0a 2b 21 df bf fe be 6e 58 95 39 f4 3f
       -0.48639942194306535 1.2640584425352581
000420 6a 4a f6 6c cb 3e f9 3f 98 ed e7 cf 94 2d dd bf
       1.5778307205515838 -0.4559070616084795
000430 a5 66 91 e9 41 f6 e6 bf 78 15 9b 25 7a 7c f1 bf
       -0.7175607263445342 -1.0928899258591098
000440 82 ed 5f ac be b1 f6 3f 93 33 b6 4c 27 7e f2 3f
       1.4183947308909812 1.1557991978217828
000450 16 c2 76 eb b2 48 e3 3f 8f a6 b7 a7 15 f6 e9 bf
       0.6026243780998495 -0.8112896228532963
000460 cf b5 58 32 a2 61 e6 3f ca de 04 7b b5 36 ff bf
       0.699418161709838 -1.950856667082848
000470 25 ab 7c c9 03 30 ab bf a3 d3 88 7a 34 db b0 bf
       -0.053100698800639536 -0.06584480277599751
000480 30 03 de 01 2f 1d fe bf 5e cd 51 f7 7c 2b 04 40
       -1.8821249077738678 2.521234447654634
000490 73 ee 34 df 9b 3a 9a bf 31 a1 4c 6a c7 20 d8 3f
       -0.025614200113734897 0.3770006692962112
0004a0 b2 52 b1 4f b8 4d bb bf d2 da 10 d8 95 77 cb bf
       -0.10665466256734638 -0.21458695459451477
0004b0 0b ad b2 f3 c0 fc eb bf 63 da 11 6d e6 0e 93 bf
       -0.8746037254071849 -0.018611526877487693
0004c0 14 e8 14 08 48 57 de bf 38 2f 57 43 cf 65 eb 3f
       -0.4740772322580835 0.8561779322858234
0004d0 70 04 f5 b0 08 3e f0 3f d4 bd ef c4 af 67 ed bf
       1.0151450073610953 -0.9189070555129839
0004e0 2f 17 42 21 79 09 d3 3f 5f bc 8c f7 76 6f ec 3f
       0.2974531960284023 0.8886065325695077
0004f0 1a a9 77 4d d2 90 b7 bf 6a 4d fb e2 4f c3 db bf
       -0.09205355063719303 -0.4337959019296337
000500 40 e1 09 33 9d 9b f8 3f 8e bd 20 0c d0 87 d6 bf
       1.5379917138762522 -0.3520393484531831
000510 31 25 8d c9 04 2f f0 bf 4e 3d 79 09 20 27 fb 3f
       -1.0114791749095497 1.6970520372450042
000520 64 4f 63 77 bf 12 e2 3f 2e 08 38 c9 5a 8b ee 3f
       0.5647885638995658 0.9545110635810994
000530 75 6e 4d e9 6c 90 f2 3f 06 1f a0 a5 76 e3 a7 3f
       1.1602601159455876 0.046657283513978284
000540 c5 6f 80 38 55 92 04 c0 49 56 8c e7 a5 11 e7 bf
       -2.5714516081042995 -0.7209043047357194
000550 b6 3a 8b a5 ff c7 dd bf da a6 18 1b 5f 62 e7 bf
       -0.4653319470061591 -0.7307582406258135
000560 67 c9 9b 23 1a aa cc bf 81 68 ec d1 f6 bd e5 bf
       -0.22394110430429778 -0.6794389820163503
000570 47 2e 3b 0f 66 28 99 bf 80 cf 73 3a fe 85 e6 3f
       -0.024568171195637836 0.7038565770767349
000580 e2 42 3c 43 e9 52 da bf d8 0e 31 df e5 d5 d5 bf
       -0.41131049695927235 -0.3411802939992703
000590 11 6a a0 6f f7 33 e8 3f 84 ce 6e 8e cc 84 d1 bf
       0.7563435726363555 -0.27373041066605475
0005a0 55 4d 39 80 33 68 eb bf 01 d8 e1 e7 1e 34 da bf
       -0.856469870030575 -0.4094311966395026
0005b0 08 a6 12 38 d4 b9 f1 bf 37 0c a0 f3 a6 92 f6 bf
       -1.107868403467707 -1.4108037487610667
0005c0 68 05 b6 a3 60 0b e0 bf aa 05 f2 c0 9f 7b f7 bf
       -0.5013888547402248 -1.4676816498689313
0005d0 1d 9c 7f c8 70 e4 df 3f 01 68 bd e2 20 5a e4 bf
       0.4983179052346161 -0.6360020092499782
0005e0 72 25 d0 4e ab d0 f4 3f db 63 f8 5d a6 76 dc bf
       1.3009446219096756 -0.4447418134382681
0005f0 2e d0 76 f0 cd 56 e9 3f 44 5e de 90 04 22 f2 3f
       0.7918462463917473 1.1333051356249522
000600 ff b5 4d b9 6d f3 ac bf d0 15 9c bf dc aa d8 bf
       -0.05654471289640738 -0.38542860710034876
000610 56 d3 2c 4b c6 9d ee 3f cd d6 1c 23 2f 1a 04 40
       0.9567595928443591 2.5127852194953904
000620 99 56 28 dc a1 ef e9 bf 35 8e 39 5d 6d 1e e3 bf
       -0.8105019855454031 -0.5974642582700144
000630 38 02 1b c6 b0 12 03 c0 ee 9f de b0 cc 3a e1 3f
       -2.384126231860389 0.5384276823506278
000640 88 aa fb 0f 07 a4 d1 bf 52 39 d1 30 a9 d0 70 bf
       -0.2756364494404484 -0.004105244542257873
000650 f5 63 73 97 9f ee f3 bf 49 2c 97 0d 53 6a b3 bf
       -1.2457576671642958 -0.07584113199043076
000660 21 52 88 af 99 38 ed 3f c8 a7 80 6d 64 26 e9 bf
       0.9131592205399707 -0.7859365595552328
000670 d1 b7 78 e6 f3 44 e7 3f 70 22 39 03 30 d1 d1 bf
       0.727167081966167 -0.2783927947498688
000680 54 1b 84 50 49 12 a7 3f 14 1a 0f 82 0b 4e f1 3f
       0.04506138904439774 1.0815539436749804
000690 d9 39 12 f2 41 17 db 3f f4 8a b6 4a e1 43 c3 3f
       0.42329453124776034 0.15050903461550258
0006a0 d6 1d 07 40 9f fe fb bf cd 55 be 5d 8c 77 e1 3f
       -1.749663591488447 0.5458432990005179
0006b0 66 cd e2 30 9d 7b d5 bf 67 3d b4 a0 de fa de 3f
       -0.3356698014642546 0.48406186765438125
0006c0 f5 59 19 2f aa 71 f0 3f d5 b9 45 0a 3f ab e1 3f
       1.0277501907163444 0.552154083312241
0006d0 ed 9e 87 fd e6 70 ca bf 55 d5 e3 dc 44 19 e4 3f
       -0.20657050494559517 0.6280845941788963
0006e0 b6 a6 f1 ea 73 0e ed 3f 4c c7 22 f6 cf ad c2 bf
       0.9080142582654023 -0.14592933195450042
0006f0 eb e7 8a f8 3a ab e6 bf af f0 33 1a 63 8b d7 bf
       -0.7084021429393464 -0.36788251456142523
000700 c8 7f ce 17 d5 72 c1 bf 71 76 4e 8d 65 57 b7 bf
       -0.13631690657075368 -0.09117731761804194
000710 ba 14 22 20 9b 19 f5 3f 08 bf 67 e7 04 bc e4 3f
       1.3187514548492758 0.6479515571245154
000720 fd a0 db 24 02 e0 dd 3f a7 ef 15 a8 60 04 f0 3f
       0.46679738616377603 1.001068741402358
000730 e5 68 b9 90 9f cd ea 3f 38 13 5c b5 1a 46 d6 bf
       0.8376005007405892 -0.3480288287249098
000740 63 91 01 58 f2 8e ea bf 54 1c 2b 2b aa 0d f5 3f
       -0.8299495428914664 1.3158361135736145
000750 e4 de 1f 6d 7c 8e fa 3f 2f af 23 25 62 65 06 40
       1.6597866308856561 2.799503603126048
000760 8a 71 0f 20 55 da fc 3f a9 6e 61 ef 8b f1 da 3f
       1.8033038380009168 0.42099283577929697
000770 53 25 12 75 b3 d5 fe bf c6 7a ca d2 19 b1 e9 3f
       -1.9271730969506577 0.8028687588701693
000780 11 70 53 df b8 1f dc 3f c3 df f2 8f e1 f5 e0 bf
       0.4394361668507836 -0.5300147830484935
000790 28 1f df 8e a3 38 00 40 39 43 0e c8 9b 68 f0 bf
       2.0276557123032894 -1.0255391897846506
0007a0 9e 59 a5 dd e3 17 f6 bf ca 31 f9 59 18 80 e6 bf
       -1.3808325441401403 -0.7031366116803437
0007b0 dd 70 2e 0b 48 97 dd bf 97 d8 4c 07 ed 2c e4 3f
       -0.46235848514494454 0.6304841177541388
0007c0 e4 99 9c 38 96 5b 00 c0 93 b2 b5 0b 89 38 a8 bf
       -2.044720117835128 -0.047306330375112136
0007d0 2b 9a 89 7e 2e 71 e3 3f 80 69 04 62 ee 51 f6 3f
       0.6075661155162541 1.3950027302549586
0007e0 5e 61 1b cb 2e 29 d6 3f 55 10 50 bd e2 72 fd 3f
       0.3462635978189804 1.8405482668904558
0007f0 aa e7 19 e9 c8 e9 cf 3f 30 fc b7 05 a4 bc d4 bf
       0.2493220461072359 -0.32401371534791945
