weights/init_z/60.npy (npy, 4224 bytes, 1 tensors)

array f8 [1, 512]
000000 8c 0d c8 e1 25 7f ed bf e6 51 fe 32 1d c3 e2 bf
       -0.9217709932130886 -0.5863176341977663
000010 8a 07 2c 91 bd 9f f2 3f 56 8e 64 f1 19 de f3 bf
       1.1639991446286069 -1.2417239598661545
000020 e0 58 f1 c3 80 c3 ff bf 23 f4 1c 99 47 e8 f4 3f
       -1.9852302221311717 1.3067089062672117
000030 a8 ed b5 8c 1d 9c e7 3f b1 7a 02 f7 5b 43 d8 3f
       0.7378070591216117 0.3791112816051437
000040 e6 f1 05 57 02 35 50 3f 83 45 77 fd 38 ae f1 bf
       0.0009892008639261706 -1.1050348187457935
000050 71 98 6d 88 92 2f ee bf 99 3d 62 48 46 0d e7 bf
       -0.94330717702975 -0.7203704274888195
000060 f3 07 3f a8 14 40 02 40 f7 7d 52 da 3a e7 a1 3f
       2.2812894005046416 0.034967269087470436
000070 08 17 39 09 11 96 e5 bf 66 7d 7c ae f0 eb cb 3f
       -0.67456867028588 0.21813782234037687
000080 6f e2 7f 94 8e ab f2 3f 41 24 1b 26 f3 ed d1 3f
       1.1668840218318584 0.28014830323497014
000090 f3 fb 68 81 81 f2 e1 3f 07 0a d0 3c a1 7f ad 3f
       0.5608527686634929 0.05761436335889774
0000a0 ef 7c 94 7c 76 f6 d0 3f 60 ed c6 c6 0f b0 01 c0
       0.2650428978540295 -2.210967591233995
0000b0 e2 0e b6 c6 6c 59 9d bf 80 6f ab bb 10 dd d0 bf
       -0.02866144144856165 -0.26349275900951596
0000c0 f9 0c 63 74 52 fe f4 3f c8 81 16 4e 51 30 ee 3f
       1.312090353618997 0.9433981442598958
0000d0 c3 9f de 62 52 df ea 3f d3 a3 d1 36 f8 f1 e8 bf
       0.8397609644935006 -0.7795373030359037
0000e0 33 7f 08 e2 ae 9a a3 3f 2a b4 8c b3 89 72 e0 3f
       0.03828951367563462 0.5139816767529102
0000f0 ca 75 af c7 12 5c 71 bf 74 e3 58 5b 85 81 06 c0
       -0.0042381986231396305 -2.813242639207994
000100 89 08 2b 9e 34 a4 e7 bf 7d 7d d3 81 1c e9 f1 3f
       -0.7387946213932689 1.1194119521458952
000110 92 6d 5a 90 14 b5 d8 3f 21 b6 12 b3 9e 8d f1 bf
       0.38605226609225796 -1.097075175766243
000120 8d 4f c3 bd 27 54 f3 3f 8e 0e 21 55 76 eb e2 3f
       1.2080457127203517 0.5912429487875259
000130 03 21 34 5c 94 eb ae 3f 9d 9d 40 8a 9a eb e0 3f
       0.06039107919247224 0.5287602138750348
000140 ba a3 1a 05 61 99 ff 3f 55 a7 ce 86 17 7b d3 bf
       1.9749460410477995 -0.3043879333950959
000150 5a 60 72 fa e1 e6 f1 3f 12 7a 39 0a 22 d4 ed 3f
       1.1188678534581613 0.9321451377580294
000160 e7 c1 4b 45 f0 80 ea 3f 64 34 dc 22 bd ed 9a 3f
       0.8282395699916919 0.026297526600547974
000170 08 9a fa 95 25 e9 ef bf 83 e5 79 8b 34 0d 01 c0
       -0.997210305144848 -2.131447877557265
000180 98 19 fe a9 c1 96 fa bf d9 cb 20 7c 5b 75 d7 bf
       -1.6618057861647682 -0.36653792497525967
000190 ca e6 cb 7e da ea 9d 3f 2c c1 d7 d8 43 01 e9 3f
       0.029216207493823622 0.781404422303273
0001a0 d0 74 83 4c 98 66 ef 3f ee 60 09 76 18 05 df 3f
       0.9812737936405487 0.4846860077573315
0001b0 c5 8f 85 c4 98 6b fc bf ff cf 11 3b 64 d2 b7 bf
       -1.7762687374715693 -0.09305406992081088
0001c0 0c 31 2a 91 06 8f eb 3f 45 9b 0e ea 4c 3f e4 bf
       0.8612091861009801 -0.6327271052767648
0001d0 b0 03 23 f0 0e 7e fe bf 28 4e 29 01 2d c1 e3 bf
       -1.905775964769628 -0.6173310301477999
0001e0 03 2d 1a b2 24 57 f6 3f a1 f5 c6 57 a5 f3 f9 3f
       1.3962752301329722 1.6219838551327046
0001f0 bb d3 82 3a 65 a9 fd 3f 98 0e a4 22 0f 2f ac bf
       1.8538563047015788 -0.05504653261053
000200 93 7c 26 73 a3 91 e4 bf 3d bf b6 20 a0 ed 03 40
       -0.6427781342535063 2.4910280757684675
000210 5c 5d fd b8 a8 d2 f7 3f ae 85 8a 07 0d b9 df bf
       1.4889304376755126 -0.4956696103709771
000220 97 9e d7 67 4b 30 b3 bf 68 fa 58 24 db 01 d6 bf
       -0.07495566640101924 -0.34386328267638655
000230 3f 02 60 a0 1c 3d fb 3f b3 98 dd 8b 68 ae a6 3f
       1.7024198784494187 0.04429938037246597
000240 c2 0f 73 3b 9f b5 f3 3f 93 c4 1e 15 8d d9 9a bf
       1.2318413088078022 -0.02622051659972564
000250 e3 b0 40 1d 8d b0 fa 3f 7e 9d 84 a5 c2 7c f2 3f
       1.6681033270534094 1.1554590669200873
000260 9a cf 13 a6 87 53 e2 3f c5 a2 d0 70 64 2e 00 40
       0.5726965182970958 2.0226525129004096
000270 a9 08 fa 36 8c 61 db bf 53 92 8e 58 a6 05 d9 bf
       -0.427828839958361 -0.3909698357404398
000280 77 96 86 ee 5e 49 c5 bf 9d 39 6e 47 f7 6a f7 bf
       -0.16630159994854285 -1.4636147299057491
000290 7e a1 0e 28 c5 ca e7 3f 04 af dc 44 95 46 cd bf
       0.7435022146574253 -0.22871652471928183
0002a0 51 a7 b7 0f e5 17 e1 bf f5 cb ed 14 27 ef da bf
       -0.5341668421726614 -0.42084672015988583
0002b0 60 71 7f b7 f4 8b ef 3f ff c6 8b 27 b4 95 de 3f
       0.9858344634954328 0.47788719045557565
0002c0 7e 87 84 6b 94 6d bb bf f8 07 a2 15 02 9f f9 bf
       -0.1071408045286528 -1.6013203473125923
0002d0 66 55 38 ab 07 1e f2 bf cb f9 f3 4f 13 5b de 3f
       -1.1323315323146175 0.47430880363381495
0002e0 a1 82 ef 8e 9d 83 af 3f 72 3b b9 e5 6e 96 d8 3f
       0.06155102128810098 0.3841817134279416
0002f0 1b 96 ed 05 c2 6c f4 bf 48 e7 44 25 eb 39 f0 bf
       -1.2765522224011707 -1.0141402679277736
000300 8a 85 cd 06 6e 9d da 3f 46 84 fe d1 4d 22 fa 3f
       0.41585875191057 1.633374996461741
000310 10 84 bc 04 5f 07 f1 3f 23 62 ad 31 87 15 e0 bf
       1.0642996010794867 -0.5026279421099996
000320 58 9b 76 59 15 e1 f9 bf 15 bb ca e7 38 58 01 40
       -1.6174520010624374 2.168077288507798
000330 6f 77 24 31 18 27 e4 3f 4c 5d 47 b8 28 3b f8 3f
       0.6297722778142382 1.5144431303395605
000340 20 0d cb 1f 62 0d f8 bf ec 74 dd ad d4 ca cf bf
       -1.503267406646792 -0.2483774041128649
000350 19 3f 2a 1a f1 3b f3 3f 6c 6c 6e 3f a3 c4 cc bf
       1.2021342298575688 -0.2247509059642171
000360 65 91 e8 50 22 42 c5 3f 28 18 b7 63 f7 6e f1 bf
       0.16608075094803634 -1.0895913977742655
000370 66 c0 0b 5a 38 47 da bf b6 9a 24 c1 75 c6 e0 3f
       -0.4105969313959633 0.5242260715793552
000380 f4 a7 31 92 02 f6 f0 bf 27 a5 f6 cf 9a 02 e8 3f
       -1.0600610457136073 0.7503179609094887
000390 58 ba 67 4e b3 67 f5 bf ce cb 1d fb fd 05 d9 bf
       -1.3378174841597197 -0.39099072955212655
0003a0 ed 84 95 9a 6b 69 c7 bf d7 69 ad e8 ee 29 f1 bf
       -0.1829046730809191 -1.0727376069031516
0003b0 e7 90 58 5e 0c 6e e4 3f 9e a7 a8 47 6f 49 f0 bf
       0.6384336321539451 -1.017928390423982
0003c0 e2 ab f2 d2 d9 49 f3 bf c8 11 2f 3b 71 17 e2 3f
       -1.2055299987939567 0.5653616100249161
0003d0 0e ef 55 ef 6b de dc 3f d3 cf fc 03 2f eb fc 3f
       0.45107553837418457 1.807417884422638
0003e0 a3 d1 b4 0d c8 f7 f1 bf b6 c9 1f 14 eb f4 e0 bf
       -1.1229935202983163 -0.5298972504663684
0003f0 41 a8 eb 5f 14 15 05 40 fc 49 9f 96 0d 5d ec bf
       2.6352927678863414 -0.886359018501309
000400 61 b3 41 49 91 b4 f5 3f 04 45 82 45 c6 98 c2 bf
       1.3565838681781417 -0.1452873076819189
000410 bf 83 a8 fe 5d 7a ef bf 46 72 cc d2 f3 3b 9d bf
       -0.9836873983186861 -0.028549012890936497
000420 2b 24 f5 84 29 3c d2 bf 11 bd bf be 1f 58 fa bf
       -0.2849220083631418 -1.6465146494991283
000430 c7 82 14 22 33 4b f4 bf b4 64 7d 3d 2e f4 f3 bf
       -1.268359311223479 -1.2471144105859766
000440 2a 96 f0 0b b0 7c f6 3f be b7 85 bd 79 c1 f1 bf
       1.4054413286588763 -1.1097352412430008
000450 78 ab 06 18 0c 82 ce 3f f6 8a 93 ca 01 06 f7 3f
       0.2383437268557278 1.4389665520799872
000460 56 ed 14 31 93 f6 c2 bf 9f 35 b1 5c da bc f7 3f
       -0.1481498708397832 1.483606683806421
000470 a7 2f 5b 90 45 40 e4 bf 3c 35 e7 de cc 73 e6 bf
       -0.632845670648284 -0.7016357759072558
000480 15 6b 92 9f a6 cf f1 bf 00 9a 07 42 45 b1 ea bf
       -1.1131960137633474 -0.8341394700663045
000490 a8 48 91 d2 0f f0 f5 bf 3e 32 25 d2 76 33 d2 3f
       -1.3711088395398665 0.28439112207414385
0004a0 56 12 90 d0 64 a6 eb bf ec 22 79 25 10 5f e7 3f
       -0.8640617440692704 0.7303543788812852
0004b0 4d 1d db f1 8a 1b ec 3f 05 21 c3 8f 89 4f d7 3f
       0.8783621524570805 0.3642295745780902
0004c0 d1 8b ef 6c ef 3c cf bf 8b 41 f0 30 6f df d4 bf
       -0.2440470964348536 -0.3261373498835602
0004d0 6a ac 41 b8 19 d4 e0 bf ea 6a 76 a8 a9 d4 94 3f
       -0.5258911703835001 0.020342493922366346
0004e0 a7 e6 f3 e3 68 ec f2 bf 03 07 1f 93 92 27 dd bf
       -1.1827172188190305 -0.4555403172235943
0004f0 6f fc d2 4b 9e 45 dc bf f3 33 a3 d2 e0 ac e0 3f
       -0.441749166533504 0.5211032976163764
000500 3b 3c da 30 65 cb fc 3f 77 06 ed 30 89 70 f6 3f
       1.7996570499706326 1.4024745856444534
000510 9e f4 32 a7 d7 ca 01 c0 b8 9a f3 b4 88 f7 fe 3f
       -2.2240441381860157 1.9354331081791951
000520 0b 6d 90 f7 7b 0b c4 3f 4c 1b 4d 79 1e 38 f1 bf
       0.15660047138303698 -1.0762009371116674
000530 e0 8b b0 c3 b1 fa 9e bf aa b7 8c 51 20 40 e6 bf
       -0.03025319821257344 -0.6953279106871737
000540 f2 ad 41 cc 8d db e0 bf c4 e2 be 7b 09 fc d7 3f
       -0.5268010129342982 0.3747581203893271
000550 e7 1d cc 39 dc a2 fb 3f a3 93 21 f2 bd 37 c7 3f
       1.7272608049114468 0.1813886101037073
000560 bf b8 7d 5a 71 25 e1 3f 44 7c be 8b 3c 93 c2 3f
       0.5358206527141859 0.14511830161515793
000570 2c f5 3a a7 49 35 e8 3f 2d a2 d1 fd 6f 2a e1 bf
       0.7565048471657625 -0.5364303548240678
000580 83 b0 78 ce 88 15 f3 bf 88 11 27 5f 9e ee a4 bf
       -1.192757421998096 -0.04088301574259662
000590 40 6b cd 86 83 b7 d1 bf 63 6d 32 48 2c 50 f2 bf
       -0.2768257919721471 -1.144573480624637
0005a0 b3 16 2f c7 96 7e f1 bf 7f bc a9 f4 59 6e e8 bf
       -1.0934055119154606 -0.7634706286024907
0005b0 92 31 79 48 f0 c0 ec 3f e6 07 f2 05 0d 56 b3 bf
       0.8985520759102192 -0.07553178210403608
0005c0 02 15 d8 ce a5 a8 c6 bf e9 2a 98 77 e0 eb d9 bf
       -0.17702171897705204 -0.4050217788614377
0005d0 15 40 6a fe 42 be f4 3f 3e 7a 0c 96 a6 44 f5 bf
       1.2964506090247643 -1.3292604314116399
0005e0 ee ed 22 ff ee af f1 bf 02 08 e1 4b 06 af f1 3f
       -1.1054525343196206 1.105230614092307
0005f0 b4 0a 2b 6c a3 a8 d7 bf 7a ec ee 48 c0 21 93 bf
       -0.3696678692178168 -0.018683437777991398
000600 ce 00 d6 72 c6 60 f4 bf cf f6 36 35 9a 15 ea bf
       -1.273626755311898 -0.8151370086049726
000610 e8 50 ad ac f9 05 f1 3f 88 0b 29 1a 11 51 a3 3f
       1.0639588113017968 0.03772786564197533
000620 c5 be e0 3e 6e 21 c1 bf db 11 9f d0 5e dd e6 3f
       -0.13383272237978452 0.7145227503429469
000630 b7 89 25 c6 40 b7 e6 bf 53 ba fb dc 59 f8 dd 3f
       -0.7098697538424891 0.46828314381028696
000640 53 09 7d 45 51 73 e0 3f 7d 53 e9 a0 4e e9 e2 bf
       0.5140768391795895 -0.5909798758317347
000650 0a 72 ff d5 db 6c e7 3f 9d 19 0d 91 b9 ae f0 3f
       0.7320384196896736 1.0426574388562593
000660 d2 aa 76 91 b6 66 f9 bf de 59 ac e2 b8 80 f5 bf
       -1.5875764543695152 -1.343926320497864
000670 6f 37 b2 4b 4f 93 e7 3f 6c d5 73 59 f4 0b e5 3f
       0.7367321470680802 0.6577092883223208
000680 68 9c c0 1c 45 91 e8 bf ac 66 00 16 38 da f2 bf
       -0.7677331506319094 -1.1782761439739415
000690 e4 bc 5f 51 c2 5d f8 bf db c7 dc 1a 3f 93 ec bf
       -1.5228903940840661 -0.8929744267136316
0006a0 52 f3 33 90 08 b0 f2 bf b9 7b 43 18 ff f3 a0 bf
       -1.167976916592313 -0.033111545287958184
0006b0 3e 0c 1f 6f 0a 04 ec 3f f1 de c0 9b 4c 47 dc 3f
       0.8754932566010962 0.4418517609624209
0006c0 93 78 cc 38 2b 8e a5 bf c4 2f 7b 4e d8 20 d6 bf
       -0.042100287135540836 -0.34575469650439694
0006d0 07 c4 e0 52 5f 6e aa 3f c1 c3 16 7f 57 2d f1 bf
       0.05162332426733234 -1.0735697712336647
0006e0 e0 3c 9a 14 49 5f f7 bf 3d ac 80 67 d7 14 9b 3f
       -1.460763054350359 0.02644669121961506
0006f0 aa b8 02 12 7d 10 f5 3f a7 ed 30 21 2e ae df bf
       1.316525526384377 -0.49500611535378386
000700 17 83 79 32 07 ac e0 3f a8 bd 23 48 47 ee f8 bf
       0.5209995256264816 -1.558173448367464
000710 fc 17 66 71 cc fa f1 bf 3c 46 93 bd d7 c4 f1 3f
       -1.1237301282540093 1.1105573087010177
000720 af 7f db 14 c6 5a e9 3f 63 d0 21 a1 28 84 ea bf
       0.7923307807322909 -0.8286326548682265
000730 15 82 e4 3f e7 e9 c7 bf 49 fc 02 ff 99 52 cd 3f
       -0.1868256628013262 0.2290832991766101
000740 b4 0b f9 54 68 54 cc 3f 1c 7b a6 0f 92 e9 c7 3f
       0.22132591389717293 0.1868155075471457
000750 bb 82 7f 93 f0 44 ed bf a7 4f 3a 69 56 e8 f2 3f
       -0.9146654969045679 1.181723032995231
000760 00 7f f8 1f f2 c8 f0 3f 9b a5 0c 15 fa 59 ec 3f
       1.0490590332846637 0.8859835063096172
000770 c9 47 0d cf 8f 9b d8 3f 0a f7 76 f5 f1 7f d7 3f
       0.3844947359076483 0.3671841523281364
000780 70 4b 96 2f 84 7a cc bf 5b 6a 82 d1 6d e2 e9 3f
       -0.22248890231693563 0.8088902561169776
000790 8b f8 0d 7a 01 93 f2 3f d1 81 5a 3d 6d 89 f1 bf
       1.1608900802380357 -1.096051444685248
0007a0 18 14 22 88 d2 51 db bf 7f be fa 14 7a ed d1 bf
       -0.4268690423417083 -0.2801194386365537
0007b0 a3 0b 62 b3 23 0c 90 3f fc 8a 96 16 5c b9 e0 bf
       0.015671308349293544 -0.5226269189045918
0007c0 55 6d fc f3 5f e1 ff 3f 6a 26 74 44 99 5a e8 bf
       1.9925231486038986 -0.7610594117151781
0007d0 c0 c2 7b 90 97 53 c1 3f de c2 00 1c b8 fe a5 bf
       0.13536352686744202 -0.042958978098232
0007e0 b8 4c 68 53 72 4b f0 bf 5a 76 62 50 45 e5 f6 3f
       -1.0184195764639252 1.430974306108871
0007f0 9d f1 8d 97 2c d1 e0 bf f5 6c 33 6a dc 18 fb 3f
       -0.5255339584396556 1.6935695789787222
