weights/init_z/63.npy (npy, 4224 bytes, 1 tensors)

array f8 [1, 512]
000000 60 9e 1d d7 a0 1c 01 c0 a4 de 47 b9 00 cb f1 3f
       -2.1389786535180946 1.1120612370995469
000010 40 d3 36 c3 94 54 a2 3f 64 0e 8c 91 40 2a e4 bf
       0.03580155261025775 -0.6301577418057147
000020 22 2a 34 86 fe 8f 02 3f e1 60 41 bc e3 57 f3 bf
       3.54051160461231e-05 -1.2089574197507817
000030 95 59 f3 cc 08 aa d2 3f 1e fb 22 5f 15 69 fa bf
       0.2916280747862399 -1.6506551471972624
000040 cc 66 e5 64 33 1d f8 bf ba ea 2a a8 60 fa d0 3f
       -1.5071290913823985 0.26528183386441706
000050 56 1a ac 3e 89 f5 b9 bf 18 96 78 3e 48 b1 eb bf
       -0.10140283374867329 -0.8653908939492707
000060 80 52 44 a0 66 ff e6 3f b0 98 98 70 fc 42 f1 3f
       0.7186768655979705 1.0788540266308182
000070 e2 21 72 f4 b0 26 c2 bf 8c cf d0 97 5b cd f1 3f
       -0.14180576263267058 1.112636178045224
000080 3a c2 9a 5e e8 7c ad bf c5 8c 6c 9a 41 8e 80 3f
       -0.057593595074085305 0.008083832287928758
000090 35 3d 9a 45 5f f8 ca 3f 00 42 0e f5 6a 36 f0 3f
       0.21070471666869542 1.0132855961311407
0000a0 32 28 79 b7 dd 6a e6 3f fd 20 55 81 eb e3 d4 3f
       0.7005451758825585 0.326411129285148
0000b0 92 32 a4 0d 5b 5d e1 3f 4c c2 91 0d d1 97 e1 bf
       0.5426459566529778 -0.5497823014284875
0000c0 59 f4 a8 b4 24 09 f3 3f 2c b5 6e 32 4f 96 ea 3f
       1.1897322709112557 0.8308483109482601
0000d0 ea 2e d4 8e b2 98 b7 bf 99 65 09 fa 8f 6f db 3f
       -0.09217372881920097 0.4286842290653908
0000e0 e8 56 6f 7b a3 74 b8 bf b7 2b 74 32 63 d2 ff bf
       -0.09552976382778022 -1.9888641329623462
0000f0 d8 ad cc b5 6a c9 d7 3f e3 dc f3 fc 2f 54 fd bf
       0.3716685080896389 -1.8330535775146977
000100 53 bb 18 55 2b d2 ef bf 53 a3 da 2b 26 ed e8 bf
       -0.9944054281275875 -0.7789488655590538
000110 84 bb 15 49 a2 24 f0 bf e3 ae 4e ff ef 0a f5 3f
       -1.0089438300016988 1.3151702855056377
000120 20 bc 3e 38 d7 3f 02 40 19 29 3c 50 6a 52 ed bf
       2.281172217764393 -0.916310459813107
000130 b3 0e 76 f9 16 41 cd bf 18 40 58 c5 d8 fc ec bf
       -0.22854888134690085 -0.9058650831593722
000140 21 72 32 4a f1 ee e3 3f 6d ee 2a a9 11 11 f8 bf
       0.6229177903329096 -1.5041672332871727
000150 80 e1 9f 9b 6f 87 e5 3f e4 22 3b 98 34 a7 b6 3f
       0.672782710985345 0.0884888526590078
000160 d0 ec f7 61 fe f7 ef 3f 30 f0 f2 1c 7a 17 fa 3f
       0.9990226663061552 1.6307316904849465
000170 14 e4 61 a9 89 f1 ed 3f 94 0d 55 ac e4 b9 02 c0
       0.9357345875024543 -2.340768190713513
000180 c8 30 74 58 e8 99 fa 3f 75 a4 7a 3a 0e 25 d7 3f
       1.6625750975827476 0.36163669310423724
000190 09 d8 ba e2 fa 7a a5 3f e0 2b 40 e7 5d 4e d6 3f
       0.04195388810823892 0.3485331304843253
0001a0 df a7 ec 5f b3 0d 04 40 10 0d 48 f5 ef 6b d4 bf
       2.506689786348019 -0.31908797219530616
0001b0 40 50 22 df 0e 72 f9 3f db bc e8 ff 4d 73 f8 3f
       1.590346213929493 1.528150558133169
0001c0 9d 3a 02 69 16 96 b6 3f 9d c2 16 d0 61 19 d6 3f
       0.08822765411080487 0.3452991993063195
0001d0 47 87 29 7a e8 02 f1 bf 95 ef 74 1b bd f8 e0 bf
       -1.0632099887811408 -0.5303636108651398
0001e0 d3 20 e8 eb 87 d1 ce 3f bd 0a 8a a8 e2 5d d3 3f
       0.24076937693485564 0.30260530909451316
0001f0 17 cb 5b 98 6f cd df 3f 7b 0c 45 5e 98 75 e6 bf
       0.49691381338850377 -0.7018548814015867
000200 14 80 2c fc e6 ad de bf 4f 18 f3 88 42 6e d2 3f
       -0.47936415315962333 0.28797973035796515
000210 3a ab 6b 45 f0 71 03 40 2b 0b cc 7e b4 99 d8 bf
       2.4306340621455123 -0.38438141233943907
000220 e5 a0 c4 c3 31 71 e3 bf 5f 43 18 22 b1 1f d2 3f
       -0.6075676749797166 0.2831843216854874
000230 a8 6c a6 0a c7 37 fe bf 48 a9 e8 19 5f 9b e0 3f
       -1.8886175552386621 0.5189662462264915
000240 3c 29 6e cd ec af fe 3f 1e 2d 20 e4 66 c9 ff bf
       1.9179504418012376 -1.9866703902396874
000250 65 66 41 67 95 7d c9 bf 6c d5 ac 30 aa 52 f0 bf
       -0.19914500753184253 -1.0201818372127844
000260 56 f5 87 0e 88 bc d6 bf 87 fc f7 db 21 2c e0 bf
       -0.35525704783488743 -0.5053872390998472
000270 d3 3d 75 dc 83 d0 f6 bf da 28 a2 ab f5 22 e0 bf
       -1.4259070026054033 -0.5042675354209465
000280 21 11 e9 85 91 fb f6 3f af 07 83 68 37 a4 e2 bf
       1.4364180785060585 -0.5825459519621655
000290 c8 b3 d3 59 24 65 e9 bf db 39 f0 ee 1d c7 fa 3f
       -0.7935964350159503 1.6736125310450152
0002a0 e4 7f 2d 28 2b 8f df 3f 6a 09 c2 28 af eb cb bf
       0.49311331676108083 -0.21813001146444871
0002b0 1e fb 26 c4 ac 4e 9d 3f 0c 82 b1 f3 9c b8 00 40
       0.028620433304008867 2.0901431120439664
0002c0 b8 8d cb 1a 3c 8f f1 bf b4 b2 b5 6d 1a 07 f8 bf
       -1.0974694296536267 -1.5017341886079238
0002d0 d8 b1 0a c9 05 88 d1 3f f8 e9 ec f0 b4 cb d2 bf
       0.2739271605776401 -0.2936832764422941
0002e0 e8 70 05 4f 80 b4 fb 3f 02 55 da 01 8d 2d e0 3f
       1.7315676771896111 0.5055604015530266
0002f0 d7 53 92 83 76 6a e3 bf d2 6c 26 ef 99 59 d0 3f
       -0.6067459649808552 0.2554688296747375
000300 9a 02 c6 dc 26 04 f2 3f f8 75 db f8 33 b2 e2 3f
       1.1260136245693162 0.584253297852853
000310 77 6a 34 34 4a 06 f5 bf df 07 31 d6 2e 0d f5 3f
       -1.314035610127261 1.3157184950691698
000320 0e 54 e5 08 19 a2 ed 3f ba 68 36 54 ea d0 d3 3f
       0.9260373281236995 0.30962618087654514
000330 23 91 b4 f5 02 bd f1 3f 18 4c 79 0a 4a cc 9f 3f
       1.1086454007973507 0.031052739037772253
000340 89 2b 93 97 bf 4a dd bf 7f 5e 08 f0 af c3 d5 bf
       -0.4576872806762187 -0.3400688022679574
000350 a3 7e b5 5c ed 4e ce 3f d3 c5 e3 a3 dc 0a e6 bf
       0.23678366686634886 -0.6888259125682289
000360 35 51 c3 db 0e 00 c9 bf 24 ff 88 08 46 b8 da 3f
       -0.19531427126515558 0.4174971659995086
000370 b7 92 e7 17 d8 4a d1 3f cb 9a 07 da 17 e9 e5 bf
       0.2701931222384632 -0.6847037561791124
000380 08 3f 1a a5 a9 c2 eb bf b2 b6 81 6e 4f 00 f2 bf
       -0.8675125336321523 -1.125075751940511
000390 4b ad 36 0f 1e e4 e0 3f 26 2f 2f fb 16 7f d1 bf
       0.5278463647022503 -0.2733819439861115
0003a0 00 bc fc 9a c0 3b fd bf 19 eb d8 a0 e5 ff dc 3f
       -1.8270879797162252 0.45311871249912056
0003b0 49 9c ad c5 90 42 dc bf d2 fe ec c5 62 f7 e7 3f
       -0.4415628366900291 0.7489484658944667
0003c0 65 eb 83 aa 58 1a e3 3f dd e0 26 49 30 f0 f5 3f
       0.596966107404438 1.371139798879134
0003d0 1d 13 c2 13 e4 60 ee 3f b6 29 33 78 2a 66 d9 3f
       0.9493275056744072 0.3968607114626609
0003e0 f5 7d 40 18 8c 36 e0 bf dc 18 a1 78 03 df eb bf
       -0.5066585992498732 -0.8709733348885282
0003f0 cf 29 b6 b9 3f fd a2 bf 01 cf fa 0d 95 e7 e9 bf
       -0.0370883859823895 -0.809519316963332
000400 49 56 e6 2a 4a 38 c6 3f 47 c3 7c 34 bf 3b e9 bf
       0.17359282583918148 -0.7885433221000334
000410 cb 6e a3 aa 5b 3f ed bf 6e dc d0 f9 ea 96 fa 3f
       -0.9139841397077019 1.6618451841766517
000420 e2 e7 27 ab 1d 5b b3 bf bb 08 08 8c 95 0c d6 bf
       -0.07560906818972016 -0.3445180766576745
000430 b8 45 a7 a5 77 54 f5 bf 3a bf 8c a9 0c cb f0 bf
       -1.3331219168506845 -1.0495726225889954
000440 b8 3e 93 3b f6 ea c4 3f c6 1a aa 41 6e d8 f0 bf
       0.16342046650833253 -1.0528395237940216
000450 83 1a e0 09 bc bf d0 bf af 6a fb 9f 2b 3a 9f 3f
       -0.2617025467338083 0.030495340003521217
000460 e8 ee 8e 09 f5 84 ed 3f b3 4b ac c4 8c 52 f8 3f
       0.9224801241575422 1.5201537783184278
000470 00 bb 7a 22 e7 2b ef 3f b8 c3 1c 4c d4 fd d0 bf
       0.9741092370439617 -0.26549251015517994
000480 9b 92 90 43 3f 96 ea 3f 8c 3f 16 b1 24 30 f7 3f
       0.8308407134650965 1.4492537419755278
000490 e1 e9 56 2c cc b2 db bf f2 75 46 d8 79 20 00 40
       -0.4327879364970198 2.015857400560656
0004a0 c0 a6 31 2f 5d ac ee bf 17 0b ad 64 5f a3 e2 3f
       -0.9585405275112961 0.5824429479911001
0004b0 3c 1b 17 65 80 bc f4 3f f1 16 e7 98 33 81 f1 bf
       1.2960208844030623 -1.0940433476220586
0004c0 d5 63 d8 59 f0 02 c3 3f c9 67 bc 94 2f 65 f1 bf
       0.14852718722320782 -1.0872035799024948
0004d0 5d 44 3c d0 d0 a7 f4 bf b8 4b a7 62 37 6c e7 bf
       -1.2909706243701955 -0.7319600035501628
0004e0 99 65 24 f9 b4 df b2 3f 4c a1 3a 17 2c 57 d3 bf
       0.0737259968049301 -0.3021955706449446
0004f0 bd cb de d8 16 8e f3 3f 73 9a b4 e4 11 4a fa 3f
       1.2221897574897718 1.6430834707076911
000500 62 fa 27 ab c7 40 c4 3f 1d fd a9 38 8f 32 a8 bf
       0.1582269273494204 -0.047260738055223885
000510 89 4c d8 6f a6 a0 b7 3f 8b d3 61 b9 42 a9 b5 bf
       0.09229507666195692 -0.08461396242075929
000520 27 a6 1b 81 e9 d9 d5 bf c5 16 6a 84 92 20 d9 bf
       -0.3414253006763794 -0.392613057433078
000530 6e c3 65 76 8e ab 01 40 65 88 f6 37 37 d6 d1 3f
       2.2087678193860745 0.27869968857897326
000540 fd 48 3d b5 e6 0a ec 3f d7 67 28 5e 02 fe f3 bf
       0.8763307132560666 -1.2495139768639
000550 80 42 a7 fd 5c 5e d1 3f 8d b7 99 18 02 29 01 40
       0.2713844754298762 2.1450235292349533
000560 bc 85 6f 5e 6f d4 dc 3f 95 4f e2 c1 60 14 00 40
       0.4504660055373184 2.0099501750173183
000570 0c 48 04 53 86 ee f8 3f de af db 8c 69 83 dd bf
       1.5582335703697963 -0.4611457706039327
000580 1b 7e 3e e9 5a 6c e1 bf e5 19 71 8c c2 c2 f6 bf
       -0.5444769435452516 -1.422548817253863
000590 77 fc b3 9b eb ce f7 3f 85 b4 ef a2 6f 1e f2 bf
       1.4880176622534955 -1.1324306835843185
0005a0 28 d6 da af 44 33 d1 3f 5d 35 3b 37 dc dd e1 bf
       0.2687541692097022 -0.5583325461135861
0005b0 c0 9d 43 d6 75 ad df bf 57 ff c4 eb ac 55 e7 3f
       -0.4949621765540222 0.7292084317086659
0005c0 b8 d7 ef 09 44 f5 bf bf 54 d7 79 54 34 4c fa 3f
       -0.12483620874976864 1.64360459326186
0005d0 20 ed 93 ae bd e6 00 c0 2c 2b cc 0f a8 80 fd 3f
       -2.1126664770978465 1.8439102761355555
0005e0 32 98 24 ac 6f 5f e0 bf bd ef 42 c6 35 f0 e1 3f
       -0.5116499292532863 0.5605725166601513
0005f0 ce 9f f1 fa 47 2b e5 3f 08 ca 9d 13 55 07 b3 3f
       0.6615333462950674 0.07433063248553406
000600 13 62 d1 38 41 18 d4 3f e0 a1 26 6e bb 16 d6 bf
       0.31398039387343707 -0.3451374602978188
000610 6a 1d e9 73 a0 53 e4 3f 55 c9 6c ce 25 46 ed 3f
       0.6352083457831388 0.9148129493462799
000620 4a 99 a8 be 17 52 e3 bf 9b 7f 48 f7 56 95 d9 bf
       -0.6037710880089346 -0.3997399725794765
000630 0f fa 56 80 ca b2 e5 bf 6c d7 43 71 37 28 f5 bf
       -0.6780750757823756 -1.3223184990324297
000640 e9 5d cb 2f 21 70 e1 3f 30 b1 f5 b9 b0 26 f0 bf
       0.5449376996502312 -1.009445883183684
000650 2e 7c c4 28 6b bb e1 3f 3a b0 f9 3f 3f c7 ed 3f
       0.5541282459488508 0.9305721520918333
000660 b1 c9 86 c5 93 5b 87 3f 3b 1b 91 88 69 49 d5 bf
       0.01140513845971189 -0.3326057275448197
000670 77 d3 f3 e4 c3 39 cc bf b5 66 45 c7 5b b6 e8 3f
       -0.22051285437887788 0.7722605602277414
000680 45 2c 9e d2 62 7e e9 3f 9b 79 43 4c 56 0e f2 3f
       0.7966779817228448 1.1285002688451644
000690 82 19 bf d7 39 c7 f6 3f ac a4 62 17 dc 45 fc 3f
       1.423639147529315 1.7670555985917344
0006a0 a5 cf 50 02 5f a8 f7 bf 2f 06 10 b2 bd 36 d8 bf
       -1.4786062326865956 -0.378341125382664
0006b0 1b d5 c5 a9 57 6a ce 3f 94 c6 5a c4 b3 88 d1 bf
       0.2376203135460536 -0.27396864104512386
0006c0 74 70 5f c2 87 5a fa 3f e6 31 e7 a8 3f db 83 bf
       1.647102126377857 -0.00969552740289088
0006d0 5a 08 11 81 65 cf d4 3f 3f ce 4b b6 59 25 d5 bf
       0.3251584778228157 -0.33040468981127796
0006e0 da 5b b5 c3 bc 7e b3 bf 0e ed d4 a8 06 64 e0 3f
       -0.07615260866201315 0.5122102067465748
0006f0 83 c7 06 d8 a0 ac d1 3f 1f 1a ba 1e a9 c7 c4 3f
       0.27616139503799547 0.16234315872516533
000700 43 f4 e3 b6 e7 bc b1 bf 86 d4 fa 07 75 04 f6 bf
       -0.06928871359919335 -1.376088172122111
000710 4b 2e 2e 35 f9 42 db 3f 3f e1 ea 5d 74 aa e4 bf
       0.42596273606679763 -0.6458074411703264
000720 56 59 69 b5 34 6b cd 3f c3 d6 55 87 5c 80 f0 bf
       0.2298341642187533 -1.0313382422004203
000730 92 f6 17 c3 9b c5 f7 3f 58 ff 16 d1 f3 49 c7 3f
       1.4857442494243611 0.18194434842552698
000740 74 e7 c9 b0 de 7d f4 bf 87 2e da ff 9c be fb bf
       -1.2807299524124263 -1.7340364450673478
000750 3f 50 7c 9f 15 15 ef bf 87 ca 5a 58 74 6a de 3f
       -0.9713237872079005 0.4752474654043585
000760 a6 ba 9a 88 c9 8c dc 3f b0 af 8a e1 54 bc d0 3f
       0.44609297123217073 0.26149484658776156
000770 25 24 76 61 53 d5 eb 3f 34 33 70 38 5a 3d f0 bf
       0.8697907355828006 -1.0149786190624583
000780 c4 df 30 9b 26 b9 ee bf 50 42 12 60 54 e3 b1 3f
       -0.9601014166901156 0.06987502427569692
000790 9e 12 e6 2a 6b c2 e6 bf 15 0c a7 7c fb 8d e5 bf
       -0.7112327421060234 -0.6735818323726358
0007a0 4d da b2 5e 18 1e f2 bf b6 65 cc 38 50 fa ef 3f
       -1.1323474597135317 0.9993058308929708
0007b0 54 4c b6 35 a5 04 f0 3f c0 3d 86 f0 ea d2 aa bf
       1.0011341188553802 -0.052390424595724294
0007c0 3f 72 2f 93 9b 45 e0 3f 8e bd 0d 68 d8 ee d4 3f
       0.5084970354760755 0.32707796250812116
0007d0 10 3e c5 4c 7a 0a c9 3f 9a 7e 2a d7 18 c6 f9 3f
       0.19563225506361492 1.6108635334893848
0007e0 02 33 a6 1d 71 83 e5 3f 83 26 93 36 48 0b 02 c0
       0.672295148762345 -2.255508829465556
0007f0 0d f8 7c 4c 7d b8 bc bf c3 96 6b 9f a6 42 b5 bf
       -0.11219008557688444 -0.0830482615670816
