weights/init_z/7.npy (npy, 4224 bytes, 1 tensors)

array f8 [1, 512]
0	0x3ffb0c64ae2deb29	1.690525703800356
1	0xbfddd1eafa1d414d	-0.4659373705408328
2	0x3fa0cdcdf34c3aed	0.0328201636785844
3	0x3fda14bf2d03adc9	0.40751628299650783
4	0xbfe93edb81e0483f	-0.7889230286257386
5	0x3f60ebd202837d2f	0.00206557290594813
6	0xbf4d2d1912005d29	-0.0008903858579313628
7	0xbffc1359cb53ff75	-1.7547243063454208
8	0x3ff04853c2cd6586	1.0176580056634932
9	0x3fe33748a9e578d5	0.6004985159195494
10	0xbfe403839fa50ee5	-0.6254289739667597
11	0xbfc5f54b1dc2b993	-0.17154826119572117
12	0x3fe02b6997dba877	0.5052993741967516
13	0xbfd0ba1041f64458	-0.261356415191647
14	0xbfcf1266dd043021	-0.2427490786725466
15	0xbff7407a113d73e2	-1.4532414124907906
16	0x3fe1bf1f35d298af	0.5545803118918878
17	0x3fbfb6a8b4ce8420	0.12388090528703843
18	0x3fd190c05b27260b	0.2744599237599636
19	0xbff86ca4fccec345	-1.5265245318698402
20	0x3ffa694414529c84	1.6506996911864755
21	0x3fc3c1444eb2a680	0.15433553545635803
22	0xbfd8c6e69cd8fb32	-0.3871399432863881
23	0x40003b8a376b20e8	2.029072220761112
24	0xbfa73cd673e4bcfe	-0.04538602986064609
25	0xbff735fade1d69ee	-1.4506786991465748
26	0xbfd9ef40d09f5e4c	-0.4052278554276867
27	0xc0024e7825ef4aa8	-2.2883151019717225
28	0x3ff0ca54093f6eb6	1.0493965493432547
29	0xbfdaa783e66ab623	-0.41647431852001854
30	0xbfe7c2ff9c490f67	-0.7425535252045677
31	0x3ff128d670d0db6c	1.0724701315754954
32	0xbffa6ace3cbb8d52	-1.6510755894058389
33	0x3fe1223cbed7a500	0.535429356326091
34	0xc00083ebe8864513	-2.0644148031211755
35	0xbfe53068c893844b	-0.6621593396668087
36	0xbff3447c0760b868	-1.2042198455997326
37	0x3ff764408e26e616	1.461975627213524
38	0x3ffc4231e8a2e5f0	1.7661608779293339
39	0xbfd5151d6ad46ef4	-0.3294137519130651
40	0x3feae74966755441	0.8407332421435357
41	0xbfc709cb5d8d420c	-0.17998640125235033
42	0x3fe22d901f85afe0	0.5680618873279819
43	0xbfe8173e083af5eb	-0.7528371964214647
44	0xbffb555b7d013c3b	-1.708339203167056
45	0xbffcd97dfa9a1c83	-1.803098658479741
46	0x3fd8851183eb9d45	0.38312185175751196
47	0x4001fb131d73af07	2.2475950528076996
48	0x3fd13e0a478c60d7	0.269411630507887
49	0xbfe0c98fa07507af	-0.5246046194008523
50	0x3ffe97a11730d01f	1.9120188623319405
51	0x3fce5fe82b4b27d8	0.23730184663719345
52	0x3fb9f793e12fd47b	0.10143398521161544
53	0x3fd02a3bce7a19cf	0.25257773555531754
54	0xbfc0f1bc6b24931b	-0.13237719756684715
55	0xbfd3ce75da6dc28a	-0.3094763405888804
56	0xbff6f59c40593d7d	-1.4349634660355541
57	0x3fe00d4e087e4fd6	0.5016241231810408
58	0xbfb84334341a5f24	-0.09477545043989416
59	0x3ff316e1439c917f	1.1930859223440107
60	0xbfd79ab8c7093c57	-0.3688184684478463
61	0xbffe807db3a5e2ba	-1.9063698785304681
62	0xbfb98015165284b6	-0.0996106318948645
63	0x3ffb314e053dbf74	1.6995372967466809
64	0xbfd88a012361589f	-0.38342312293151254
65	0xbfec79b51886921c	-0.8898568610207493
66	0xbff318f3d7ede613	-1.193591922258183
67	0xbff0ccde6d7d1a60	-1.0500168110753734
68	0xbfd3365fca8153ac	-0.30019373680016304
69	0xbff2e134e7544c37	-1.1799820934582053
70	0x3ff7f6546eeb3b54	1.4976391155975834
71	0xbfd216b219e9061e	-0.28263523607538044
72	0x3fbbd061325561e1	0.10864837149473018
73	0x3ff703077195dbf3	1.4382395207337566
74	0x3ff80d97b88a967d	1.5033185204169108
75	0xbfcb3ad5780f8c58	-0.21273296701756084
76	0x3fd53f10c7a8dad5	0.3319742154884982
77	0x3fe7855678b2ec4c	0.7350265843773598
78	0xbfc8af7cdb8756a4	-0.1928554603497804
79	0xbffc72bd9af530f4	-1.7780128529585086
80	0x3fe4f359603d1ad2	0.6547057037031101
81	0x3fec9e88b989ce1e	0.8943523048205326
82	0x3fda979846f3ff4e	0.4155026142980106
83	0xbfed8dad861f5277	-0.9235446567132176
84	0xbfc9176c47be2489	-0.19602731230796547
85	0xbfe2e7961b6f647b	-0.5907698188631366
86	0xbfd32e780aa44508	-0.29971123732782745
87	0x3ff4c00ab016d7ee	1.296885192726673
88	0x3ff879287e60d204	1.5295796333931557
89	0x3fe56bdfb4015739	0.6694181934096611
90	0x3fe18f51ece9336e	0.5487451197783295
91	0x3fe5a6f1d6b560b5	0.6766289895558858
92	0xbf89126e78d980a1	-0.012242186606443108
93	0xbfb35eae3c96cf99	-0.07566346148706628
94	0xbfe58e805a1c6abd	-0.6736451873760739
95	0xbfac9aa88dc08092	-0.05586745005007389
96	0x4002145f15f20741	2.2599469866262614
97	0x3febcf2b9142a796	0.8690393292538257
98	0xbfd5e53eccc17ccf	-0.34211702342686306
99	0xbfde340bd8418d33	-0.4719266521335214
100	0xbfeba9e6ea329020	-0.8644899915857458
101	0x3fd7f5af0e2dc20f	0.3743703497375756
102	0x3fd90f15ab1eed22	0.3915456935025806
103	0xbff71706bc0f7e66	-1.4431216570009382
104	0x3fdf201da9c2ff1c	0.48633519724170227
105	0xbfe2391de93b62cb	-0.569472270518497
106	0x3ff6d3d9904516b4	1.4267211566488358
107	0x3fc41376b24abad0	0.15684398370418373
108	0x3ffb7bd2812a5acb	1.7177300496602352
109	0xbfdd51f30a377940	-0.4581267928860093
110	0xbfd26e53e21edf65	-0.2879838665207813
111	0x3fd3300f5f04478d	0.2998083522698998
112	0x3ff0e52a0b32db35	1.0559482991645386
113	0x3fe21bb597c114e4	0.5658824886274059
114	0xbff3bc839a524905	-1.233523943727563
115	0x3fc7694a49ece98f	0.18290070161476676
116	0x3f96c7532228bb94	0.022244738540560485
117	0xbfdb75dc1e4413b2	-0.42906859355599203
118	0xbfe4bd474faaca3e	-0.6481052928923601
119	0x3ffbf6138d23c843	1.7475772393486444
120	0xbfd8fc17948fe642	-0.3903864813615635
121	0xbfeb11cc59ad1ecd	-0.8459226371278078
122	0x3fe4633a739952b7	0.6371128328124404
123	0x3fc0b840f3b948a0	0.13062297726225314
124	0xbfb368899c5e0302	-0.07581386630591783
125	0x3fe9006ca7d88ed7	0.7813018110504925
126	0x3fdf45a389503911	0.48862541589268554
127	0x3fd72e1ef8417b53	0.3621900009510927
128	0x3feedabaf967f364	0.9642004843914092
129	0x3fd227196314c9d5	0.2836364238347902
130	0xbfe3bdd31970e6aa	-0.6169219490904727
131	0xbfd72fa1ccbf058f	-0.3622822284197235
132	0xbfe0abce2cc816a9	-0.520972335304312
133	0x3fcad82c1ffb6fc2	0.20972205697660057
134	0xbff13f6d16a63885	-1.0779848942507055
135	0xbffd519de3f70bf5	-1.8324259667285763
136	0x3fb691523621a710	0.08815492459839569
137	0xbff562635f47ddc3	-1.3365205499556942
138	0xbfff3b4d62fc273b	-1.9519780985451252
139	0x3fd7e4a6ccc54b51	0.3733307838166882
140	0xbfe6c0f2a1e223e3	-0.7110531961235406
141	0x3fdfc084d7cec910	0.49612542223907585
142	0xbfe0fcc101ef3505	-0.5308537519246391
143	0xbff1f38ed54af5d9	-1.1219623882055798
144	0xbff3e5729ee03cae	-1.2435175138560157
145	0xbfe07a48a7aaa43a	-0.5149272227037109
146	0xbfd17f1a99075129	-0.27338280624577976
147	0xbfea59c8f64d269d	-0.8234600840161935
148	0xbfd1fdac0b0b8c8b	-0.2811079128134188
149	0xbff893e00058b078	-1.5361022962124746
150	0x3f8dac61469cfb6f	0.01448894497627659
151	0xbffcb2c905e8b4f1	-1.7936487418003788
152	0xbfc8d048a6b880dd	-0.19385631695423103
153	0x3fe6503bbca64b77	0.6972941097795758
154	0x3ff17894d24dffb3	1.091938802244823
155	0x3ffb6e19fb5360e5	1.7143802468690919
156	0xbff8e68de0262494	-1.5562876468486921
157	0x3fe8477a12610ab4	0.7587252005544856
158	0x3ff34cee8ed79851	1.206282194115847
159	0x3fef60b90ab7ca35	0.9805569848379664
160	0xbfedbd054c28cecf	-0.9293238151062385
161	0x3fda5ae1188f5507	0.4117968311159789
162	0x3ffdc2c9bc8f4735	1.8600556722271453
163	0xbff7f4d534f1599b	-1.497273642356595
164	0x3fde7c511f1d3b62	0.4763377002572523
165	0x3ff1cbf11bb8ec67	1.1122904856590823
166	0xbfe64a793dde1db4	-0.6965910156586035
167	0x3fe2a7b15664e04b	0.5829703032859553
168	0xbff122602eb5e903	-1.0708925079948706
169	0xbfe9fd9cd9d8f4b5	-0.8122085814317389
170	0xbfea2585794accdb	-0.8170802468288473
171	0x3fc89d89e6991f8b	0.19230769881891904
172	0xbfb74a8c5a28cf53	-0.09098126603276784
173	0x3fee881c9db90a5d	0.9541152077220648
174	0xbfee16c439989449	-0.9402791142389414
175	0xbfc0cda3f7f44723	-0.1312756500924986
176	0x3feec1236d859c69	0.9610764636135062
177	0x3fe1f1e2f7e2f55a	0.5607771722349455
178	0xbff531bb1cf404b4	-1.324641335581231
179	0x3fe549593d024e4d	0.6652036849577115
180	0xbfde9e6606e543e5	-0.4784178798045658
181	0x3fd8aa2c4c24e02f	0.3853865378946492
182	0x3fd33e5911448cdf	0.30068041502290827
183	0x3ff3825484a0a5ce	1.2193188839686289
184	0x3fbdd6df492fe85d	0.11655993973536867
185	0xbffda9305874224f	-1.8538058715077061
186	0xbff5eaf20651f968	-1.3698597189791943
187	0x3fe7659de1b79a9a	0.7311543854273908
188	0xbfd088413ad1cda8	-0.25831633323761105
189	0x3ff2352987ea306a	1.1379790600940631
190	0x3fd18005871e1f19	0.27343881793102437
191	0xbfe7f858b4ce162b	-0.7490657359455261
192	0x3ff15189c01fb048	1.0824067597232148
193	0xbfe9d633a9a11644	-0.8073976815291606
194	0xc0006bcc2a553520	-2.052635508275344
195	0x400082a73deb8fd5	2.063795551062848
196	0xbffe926d6a4418ba	-1.9107488776221957
197	0x3fe45d7e80023dbb	0.6364128589793191
198	0x3fee0b12dd6f0413	0.9388517689586727
199	0x3fc2d30de0308e94	0.1470658631015921
200	0xbffaef318759d7ed	-1.6833968436380886
201	0x3ff03d804d0c18e1	1.0150149354608902
202	0xbff7109024eb76c7	-1.441543716638465
203	0xbff57f80aa82d0c3	-1.3436285648904664
204	0xbfd72592d9b9506c	-0.36166831266496646
205	0x3fe93b6df1d28671	0.7885045741169973
206	0x3fd33510f48c11c9	0.3001139057307936
207	0x3fe9f1d05502ec86	0.8107682857875183
208	0xbfdc64a917d163d2	-0.4436438305470435
209	0xbfc60a1a18567b79	-0.17218328655595963
210	0xbff231b65843f7d9	-1.137136788165199
211	0xbfd4478609b4b60a	-0.3168654532226759
212	0x3fe2fae7e3cb889a	0.5931281518098956
213	0xbfd33062018fc606	-0.2998280539751196
214	0x3fde6dede99ff7af	0.4754595548146154
215	0xbfe258433e4168f6	-0.5732742515495193
216	0xbfe2f4df36aea277	-0.5923915927897515
217	0x3fa40de9cb3786b5	0.039168649727583306
218	0xbfc8f1e08894169e	-0.19488150280829059
219	0x3fe2f4d1e57366b6	0.592385242601458
220	0x3fc6d236f2725f74	0.1782902416059603
221	0x3ffbd8755b66d4ba	1.7403462953928241
222	0xbfcc18655b436379	-0.21949450451100086
223	0xbfcd169d6550fad0	-0.22725264975630077
224	0xbff0a46078682d7c	-1.0401310637851955
225	0x3f97531b8489fdf1	0.02277796741918609
226	0x3fe5d9bc130b80e8	0.6828289386721993
227	0xbfe7b0807c26c5fb	-0.7402956414063618
228	0xbfa96ea490244f9f	-0.049672262759627765
229	0x3fe6fe6abf295900	0.7185567601798368
230	0xbfc03e8f1a4834ca	-0.12690914901069156
231	0xbfe09cc5d4521738	-0.5191373011482261
232	0x3fef23943f520092	0.9730931507802032
233	0x3fb8d6463522e381	0.09701956555626447
234	0x3fd9615017bae2aa	0.3965645057428825
235	0x3ff2be070ef671cb	1.1713934502105185
236	0x3ff25336c8d6a4f8	1.1453159184696329
237	0xbfd63897e430a977	-0.34720418247402257
238	0xbfe0d051fcaf71ca	-0.5254297194729187
239	0x3fd2321e18a7d148	0.28430893333213136
240	0xbfc0ff2e94956343	-0.13278753523879958
241	0xbffe65d4fb940cb0	-1.8998613192823477
242	0x3ff467e1b4cf5b69	1.2753617346658876
243	0x3f93d374b1aa7282	0.01936132749925657
244	0x3fe7906886880128	0.7363779666484662
245	0xbff2c44428c851f7	-1.1729165642801698
246	0x3ff49c7b55b75470	1.2882035587583935
247	0xbfe2d30c852fb49d	-0.5882628060623066
248	0xbfbb9011bf6c8962	-0.10766707347332763
249	0xbff66c3c46449643	-1.401424669727377
250	0xbfc55e9be5ab42df	-0.1669497367315875
251	0xbfcd6a371bb3140f	-0.22980393269077168
252	0xbfc7b9e4e6d01274	-0.18536053915171957
253	0x3fdc10763251bc97	0.438504742755819
254	0x3faee5a6a616d71b	0.060345847868502576
255	0x3fef399c7bd93a9d	0.9757826250950817
