weights/init_z/9.npy (npy, 4224 bytes, 1 tensors)

array f8 [1, 512]
000000 96 84 06 8f 9d 29 52 3f 12 8b 0b d9 e3 87 d2 bf
       0.0011085547122109732 -0.2895440692501988
000010 bf 44 fd 56 68 db f1 bf f7 7b 3e 57 46 62 8a bf
       -1.1160663030644142 -0.012882756745794295
000020 5d bd b5 00 13 37 d8 bf 63 58 20 fa eb ca de bf
       -0.3783614642079181 -0.4811353628769039
000030 80 0e e2 0e fd 46 f8 bf 2a b0 77 50 72 6a df bf
       -1.517331178795672 -0.49087198122174647
000040 84 c5 b9 06 9f ce ce bf 93 b2 e5 4f fc bb e4 bf
       -0.24068057850267277 -0.6479474602216037
000050 db 4d 2f 40 38 59 e4 3f a9 74 56 3e 85 d7 fb 3f
       0.6358910802468317 1.7401173052851766
000060 c1 03 98 69 d7 fc d2 3f 03 88 2e b8 de a3 e6 3f
       0.2966822177114033 0.7075036618518883
000070 25 9e 93 dc 40 2a fd 3f 2c f4 74 43 b8 91 db 3f
       1.8228157631182367 0.4307690294988926
000080 a5 aa 80 42 05 af f8 3f 68 95 c1 34 b5 d2 ec bf
       1.542729625488087 -0.9007211714166887
000090 c2 c2 84 f5 4f 8d c1 bf c2 c1 cd 35 e2 c2 f4 3f
       -0.13712501037800534 1.29757901208005
0000a0 fc b1 81 47 d2 9b e5 3f c4 6b 6d 76 d0 5c a0 3f
       0.6752711674321854 0.03195811696669851
0000b0 bf bc b1 80 73 61 ed 3f c2 78 8b 60 44 5a d8 3f
       0.9181458962974814 0.3805094664402412
0000c0 be f1 cc 1b 15 86 e0 3f e5 18 f6 47 3e bc d6 bf
       0.5163674872379074 -0.35523945834610365
0000d0 4d c4 36 6c 34 b9 ca 3f d8 6e bb e3 af 04 d5 3f
       0.2087770012272209 0.32841107596844443
0000e0 e1 8b 85 21 ea e2 df bf 12 1c 07 76 f5 bb 00 c0
       -0.4982247664794937 -2.0917767735404675
0000f0 2d 1f 05 5d 78 24 b5 bf 3c ae 6a cd 36 a4 03 40
       -0.08258774062153114 2.4551826523000084
000100 fe dc b9 35 7b 60 05 c0 e3 80 47 78 95 39 ed bf
       -2.67211000417194 -0.9132792805867463
000110 bc 6b 23 09 a3 18 cd bf 16 e1 16 90 76 3c d1 3f
       -0.2273143572445785 0.2693153769610189
000120 be 03 f4 8a 5e 16 f2 3f 5c aa 24 f2 a8 ad f0 3f
       1.1304612567766834 1.0423974474639612
000130 5a 6d d3 56 68 dc f4 3f 51 85 28 43 fc 3a f6 3f
       1.303810443080542 1.3894007323618391
000140 f7 12 fb d5 a8 01 e5 bf 4a f1 e8 9b c1 cd ac bf
       -0.6564525775252993 -0.05625729587743196
000150 d6 49 99 8e 67 fe df bf 98 4c 24 8e 4b ee db 3f
       -0.4999026196066131 0.4364193809607939
000160 04 a1 73 2a 52 0d d8 bf 9e 49 d1 71 b8 89 ed bf
       -0.3758130468909402 -0.9230615828512787
000170 a4 e8 04 97 0e ad fe 3f c9 6c 05 9f 1f 3d c3 bf
       1.9172502421556965 -0.15030284180361367
000180 e4 f9 91 62 79 70 e4 bf 43 f8 86 bf 84 64 ea 3f
       -0.6387297558974834 0.8247703305021407
000190 00 39 60 72 98 5f f3 bf 34 02 d1 97 e5 1b e0 bf
       -1.2108387439544117 -0.5034053769268838
0001a0 f4 c0 67 e6 17 76 e6 bf 21 89 e5 36 9d 96 ff bf
       -0.7019156932929307 -1.9742710251235354
0001b0 2b e7 5d 81 f0 3e 05 c0 37 cb 1f 18 87 88 ad bf
       -2.655732165029709 -0.05768224877819821
0001c0 e4 94 ed 02 7b ff e4 bf 9f 38 5a 8e b3 2c e5 bf
       -0.656186586111883 -0.661706712753375
0001d0 54 da e3 9d 80 9e e8 3f 5c f4 62 e8 a5 c4 ec bf
       0.7693484386243861 -0.8990048922347671
0001e0 2a 97 bf 13 24 19 fb 3f 2b 37 de fe 48 28 fb bf
       1.6936379214689148 -1.6973352390081782
0001f0 dc f9 61 7a d2 58 06 c0 6c 0d 45 28 81 f2 cc bf
       -2.7933702050352007 -0.22615065065665918
000200 dc ba 3b 60 79 6f d9 3f 7b 8c 3e 61 25 8e fa 3f
       0.39742884061608463 1.6597036169630701
000210 97 b5 8e 3c 8c 99 df bf 66 da 99 05 fc 11 d8 bf
       -0.49374681390585223 -0.37609768435451085
000220 ab dd b6 63 08 ba c5 bf c2 36 12 d7 3b 56 03 40
       -0.16973976963866497 2.4171063234742585
000230 c2 bb d0 b9 02 f1 fc bf 8a f9 10 9e 7b be d5 3f
       -1.8088404901898092 0.3397511523834501
000240 a8 04 7a 66 78 46 97 bf 54 ae 3d cb 4b b8 ee bf
       -0.02272976041286215 -0.9599970788526186
000250 2f 63 ef 58 f2 84 d8 bf 72 69 bb 61 28 0a bc 3f
       -0.38311442074841556 0.10952999483143858
000260 34 79 d3 74 7e 5d eb bf 4f 07 1e c0 e2 0b 2d 3f
       -0.8551628381499428 0.00022160666418008032
000270 0e 2a 24 f8 4c 3e e5 3f 47 1f 08 78 bf fb e7 3f
       0.6638550611981502 0.7494809479112313
000280 82 62 b7 dc f7 cf dd bf c9 26 61 a4 90 c1 d1 bf
       -0.4658183722909045 -0.277439270521978
000290 af 07 0e b2 fe 2c a2 3f a2 51 2b b6 a0 24 eb 3f
       0.03549953387756887 0.848221164511916
0002a0 47 83 4c 00 23 dd c4 3f 7c f4 38 b5 85 56 f3 3f
       0.16299855722993525 1.2086236075404306
0002b0 60 ce 27 72 a6 14 e0 3f 4d 83 23 da 55 57 f9 bf
       0.5025207738494366 -1.5838221093219602
0002c0 44 e1 ca 5c 58 5e f0 3f ee 46 05 c4 84 e5 e4 bf
       1.023033487768843 -0.6530174091842278
0002d0 25 90 ee 34 79 2f e1 3f 24 14 27 2f 47 56 80 bf
       0.5370451005769651 -0.007977062345967019
0002e0 9b 12 a2 f8 d4 97 ed 3f 06 aa e5 23 0c dd a7 3f
       0.92478416978027 0.04660833299825033
0002f0 14 7d be 00 b5 2d c2 3f 20 23 65 a1 65 75 fa bf
       0.1420198682435304 -1.6536613754744351
000300 cd 5f 35 b0 4b e3 f5 3f 98 74 64 a0 73 b5 99 3f
       1.3679921038765201 0.025106245674682087
000310 05 9c 31 c9 94 4f d9 bf ee c4 cd f6 d9 8c f4 3f
       -0.39548225066977266 1.2843875542424104
000320 50 1d d6 47 fb f5 e1 3f b5 b8 b1 40 53 af ce 3f
       0.5612770464949026 0.23972550066850365
000330 74 72 25 c6 aa b6 de 3f 37 20 19 41 15 9e af 3f
       0.47989911413404873 0.06175295276312947
000340 b3 c0 71 83 d1 20 f1 bf 58 1e 08 7a 11 5f f4 bf
       -1.070512307600478 -1.2732100264419355
000350 f4 ae 01 79 43 71 ed 3f 2c e3 12 3b f2 e0 f0 3f
       0.9200761187944111 1.0549185092515456
000360 9f f3 dd 2a 0a 4a e1 3f 1f 7d 2c 58 b2 c7 d3 3f
       0.5402880513425891 0.3090635167190658
000370 b6 03 8e 82 4b 11 ef 3f 03 ff cf f9 bf 79 f2 3f
       0.9708612012765261 1.15472409804346
000380 a7 52 0b d1 05 0c db 3f 50 71 e5 03 85 f9 ef 3f
       0.42260880865550593 0.9992089344118913
000390 2c 23 88 38 cc 45 ec 3f 6d aa af 45 64 f7 e0 bf
       0.8835202316414317 -0.530199180703972
0003a0 1d cd 08 76 64 0d ea 3f 7a fa 4c 12 72 51 f0 bf
       0.8141348176344853 -1.0198841776724792
0003b0 f1 67 b8 85 de 10 02 c0 5d 0c b3 c2 30 c2 e5 3f
       -2.2582369276906253 0.6799548914645005
0003c0 fd 20 d3 8a 83 b6 d9 bf 83 fe 9b 93 8d 0b ff 3f
       -0.4017647605619599 1.9403205648413013
0003d0 74 fc b1 e3 14 e9 f3 bf f6 15 34 9e d3 0e ee 3f
       -1.2444046873422652 0.9393098916922884
0003e0 db b9 c3 28 cb d2 ce bf d0 16 a7 e9 e7 54 d1 3f
       -0.24080790987450382 0.270807245422799
0003f0 6a 78 fb 8f 54 87 f1 bf bb 00 04 4e f3 35 03 40
       -1.0955396293934663 2.4013429732295584
000400 02 f0 d7 8d 0a ea d1 bf 39 ac c8 7c 14 3f 00 40
       -0.2799097428503502 2.030800795434996
000410 78 a1 01 25 fc f9 b4 bf 83 7c 56 69 7e 7f f3 bf
       -0.08193946746326286 -1.218626414752891
000420 54 53 39 13 e2 d1 e9 bf 41 a3 47 18 b3 16 f5 3f
       -0.8068704963176097 1.3180418919020698
000430 ee 1a 69 38 35 84 e2 bf 75 bf df 7f 64 01 b5 3f
       -0.5786386586922541 0.0820524990265293
000440 eb 46 25 3d a6 55 f6 3f 2f 11 3e 03 61 4f f1 3f
       1.3959104908466837 1.0818796278627578
000450 b8 c7 a8 63 d5 43 f0 bf c5 35 f3 a7 19 b0 d2 bf
       -1.0165609257642085 -0.29199830438014046
000460 84 6c 3d 99 21 f3 f8 3f a8 a2 7a 86 4a 7b e1 bf
       1.5593582139906923 -0.5463001848739468
000470 11 6f 10 b9 28 bd ee 3f bd ba 2e 44 f2 08 cb 3f
       0.9605907072577528 0.2112105210230392
000480 30 21 ed 9b 0a ed f3 bf 44 4e 97 b7 aa 7d d3 3f
       -1.2453714457388507 0.30454509667217544
000490 b5 9d 9f c6 ee 25 e3 bf b8 26 13 8e 3e 81 bf 3f
       -0.5983804587712515 0.12306586235640793
0004a0 96 f7 65 6e 89 4e e9 bf 98 f1 73 02 c8 9a e4 3f
       -0.7908370166985488 0.6438942001255326
0004b0 9a f5 28 05 7f 8a ae bf f4 29 89 e0 50 39 ed 3f
       -0.059650391940958516 0.9132465730156683
0004c0 f0 e3 bf 60 01 73 f1 bf d6 31 03 18 82 61 c6 bf
       -1.0905774859695576 -0.17485071346744857
0004d0 f6 1c 1c 17 62 0b f1 3f 5f 84 8b d1 b1 cb f3 3f
       1.0652790930487845 1.237230127844917
0004e0 f5 db 28 94 15 51 f0 3f 3a ea bf 25 c0 8a eb 3f
       1.0197959697231884 0.8606873261736105
0004f0 0b c7 4b 20 19 70 e7 bf 58 95 fd bc a4 2c dc 3f
       -0.7324338560849538 0.4402248235331476
000500 3f 6f a4 92 8e ac e4 3f 51 4c 11 51 2e c3 d0 3f
       0.6460640777690755 0.2619128982234474
000510 73 d3 75 11 82 a1 e6 3f 1f 2a 17 8a 1b f2 db bf
       0.7072153416653307 -0.43665207372092313
000520 40 95 df 76 f7 66 e9 3f ad 25 2f d2 e6 ac d0 bf
       0.7938191720719843 -0.26055307889745444
000530 ac be 7a b3 7f de ea bf d3 c6 4a 94 e1 ac f7 bf
       -0.8396605020006596 -1.4797073166522992
000540 3f 1b 03 c0 e3 b7 f1 3f dd cc 33 73 e7 25 f3 bf
       1.107394933745766 -1.196753931054267
000550 b2 cb 66 88 89 6f f0 bf f8 17 52 14 58 23 f9 bf
       -1.0272307708917023 -1.5711289209152692
000560 84 15 e4 c6 03 58 00 40 0c e1 6c a5 60 3d fe 3f
       2.042975953898976 1.8899847471166735
000570 e1 b0 a5 c9 a2 8e e9 bf 41 f5 83 dc 53 32 fd bf
       -0.7986616075918641 -1.8247870077023693
000580 2c 1f d2 d9 6d d5 e8 bf 78 4b 20 61 1b b9 e4 bf
       -0.7760533575355786 -0.6475960633273266
000590 49 da de 7e 7d 30 df bf d4 79 5a cf 52 04 d8 3f
       -0.4873346079797654 0.37526388406140865
0005a0 06 5f ba 6b 7b 93 f0 bf 9c 64 72 c0 6b 24 c1 bf
       -1.0360063751340376 -0.13392397782152876
0005b0 78 25 06 20 db a1 d8 3f f8 dd af 65 70 ae d6 3f
       0.38487890364975597 0.35439691477174007
0005c0 18 89 c9 5b c6 ed d5 3f 97 a4 8f a3 16 1d e3 bf
       0.34263762439344836 -0.5973008341362797
0005d0 58 17 c2 2d 59 22 c8 bf df 33 7b ea 0f 69 e6 3f
       -0.18854822859082776 0.700324972125255
0005e0 e3 79 2f ea c0 35 f5 bf bc 7b 42 15 23 fc ed 3f
       -1.3256234310025483 0.9370284476498152
0005f0 db ad 79 94 19 d8 dc bf 2d 87 0e 52 cf cb ed 3f
       -0.45068969249288465 0.9311291315718556
000600 db ec 0f e9 0b e3 fc bf 18 24 56 4d a7 8b db 3f
       -1.8054312805168624 0.4303987746466773
000610 89 9e 57 90 45 27 e2 bf 9b 6a 48 e6 89 1e f1 3f
       -0.5672939128098317 1.069955730001914
000620 ce 6a b4 e3 7b fa be bf 28 ed 08 3c 5e 86 f0 bf
       -0.12100958165357698 -1.0328047127830562
000630 65 a2 ae ed 9e ba ea 3f 25 27 eb 55 ee 42 eb bf
       0.8352808611135286 -0.8519202879044526
000640 6d 29 2b 34 85 f5 f2 bf 66 7d 4a b8 f5 7d f0 bf
       -1.1849414861522647 -1.0307519148699043
000650 ba ab 29 6b bd 46 ed bf d9 fe 13 eb e8 5f ea bf
       -0.9148852437041264 -0.8242077437752996
000660 b0 df 76 e9 35 98 e7 bf 0c 65 8e 1d 2a 71 eb 3f
       -0.7373303947306251 0.8575640275259118
000670 a3 60 83 91 5b 4f ee 3f 40 99 69 01 cc 26 f3 3f
       0.9471872179083402 1.1969718985724995
000680 5d 8d c6 62 8d 5e fe 3f 3e 17 71 a3 13 cb e0 3f
       1.8980840547963773 0.524789637777509
000690 79 30 77 2d 82 fe c1 bf 14 63 38 48 e9 a9 f4 bf
       -0.1405794832229537 -1.2914822407821633
0006a0 09 c9 74 18 7e 5e de bf 21 7b db 6d 64 d8 78 bf
       -0.474517368205071 -0.006065742780008405
0006b0 09 43 0f 3e 61 ee f4 3f ae 61 cc d6 94 d9 e4 bf
       1.3081982063487791 -0.6515602298050476
0006c0 d6 c4 7c 72 5f a4 f9 3f 66 e5 5c 45 4e 08 f9 3f
       1.602630088058779 1.5645277699935263
0006d0 fd 19 95 b4 1e 84 d0 bf 07 7c de d5 7a fd d6 bf
       -0.25806396136286464 -0.3592211807790026
0006e0 5c 24 04 2a 5f 0e 84 3f a8 02 a1 d9 1c 47 e9 bf
       0.009793036908847856 -0.7899307489934317
0006f0 0f db 75 1f 2b a9 f1 bf 67 ae 60 16 66 0a e2 bf
       -1.1038008908196308 -0.5637693821967787
000700 ee 7c 02 b1 69 ce de 3f 70 8e 85 f6 bc 45 02 c0
       0.4813484409914527 -2.2840518245227983
000710 89 a2 06 f8 40 2f e6 3f b8 7a 37 a1 01 fe f9 3f
       0.6932682842498973 1.6245132730033855
000720 db 81 1c 4c 08 af f3 3f ae 68 30 b0 bb 62 fa 3f
       1.230232522306429 1.6491047747027028
000730 9f a5 9f 97 61 c6 f7 bf 81 60 19 5b f3 3a f1 bf
       -1.4859329150006955 -1.0768922384795874
000740 b8 9b 6f dc 70 5a f9 3f 95 dd 28 dc fb d5 d8 3f
       1.5845802889614173 0.38806053638423893
000750 13 16 b8 e1 56 68 f4 3f 4e 59 da 5f 14 01 cb 3f
       1.2754734818603353 0.21097044639891255
000760 4d 7f ea c2 b1 d5 e3 3f 6a 16 15 7a 67 09 f0 bf
       0.6198357397988531 -1.0022959488718706
000770 cd 1f b9 55 26 0b e1 bf 24 47 36 19 f0 f3 ed 3f
       -0.5326110529213054 0.9360275738165211
000780 cc 05 0d 03 cf f1 c6 3f d3 88 2b a2 b9 f2 a2 bf
       0.17925441407173393 -0.037008095785283544
000790 20 bf f6 28 12 f7 ea 3f 15 44 0a 14 5a 06 ea bf
       0.8426600265574713 -0.8132753745468358
0007a0 6b 8a e1 c5 5a c4 fa bf 4f 8b e8 7d b8 37 eb bf
       -1.6729381303527144 -0.8505518397472346
0007b0 49 38 ac c6 9f 07 d2 bf 25 58 c3 9c a3 51 f8 3f
       -0.28171533967622914 1.5199314235264947
0007c0 c6 60 25 8f b7 b1 ee bf 8f de fa 5d 66 36 e7 3f
       -0.9591939731426684 0.7253906093164505
0007d0 2b 1c 72 43 12 c6 e1 3f 64 2d 31 91 4f 8d ea 3f
       0.5554286305713324 0.8297498546393567
0007e0 ed 5c aa 6b 71 80 f7 3f ee ac 51 87 e6 4f 6f bf
       1.4688581662829236 -0.0038222792159580054
0007f0 42 1f 57 51 77 eb f0 3f e8 1f 9b ed 2e 7a ef bf
       1.05748683713496 -0.983664955209858
